<?xml version="1.0" ?>
<net name="MobileNet-SSD" version="10">
	<layers>
		<layer id="0" name="data" type="Parameter" version="opset1">
			<data element_type="f16" shape="1,3,300,300"/>
			<output>
				<port id="0" precision="FP16">
					<dim>1</dim>
					<dim>3</dim>
					<dim>300</dim>
					<dim>300</dim>
				</port>
			</output>
		</layer>
		<layer id="1" name="204/Output_0/Data__const" type="Const" version="opset1">
			<data element_type="f16" offset="0" shape="32,3,3,3" size="1728"/>
			<output>
				<port id="1" precision="FP16">
					<dim>32</dim>
					<dim>3</dim>
					<dim>3</dim>
					<dim>3</dim>
				</port>
			</output>
		</layer>
		<layer id="2" name="conv0/WithoutBiases" type="Convolution" version="opset1">
			<data dilations="1,1" output_padding="0,0" pads_begin="1,1" pads_end="1,1" strides="2,2"/>
			<input>
				<port id="0">
					<dim>1</dim>
					<dim>3</dim>
					<dim>300</dim>
					<dim>300</dim>
				</port>
				<port id="1">
					<dim>32</dim>
					<dim>3</dim>
					<dim>3</dim>
					<dim>3</dim>
				</port>
			</input>
			<output>
				<port id="2" precision="FP16">
					<dim>1</dim>
					<dim>32</dim>
					<dim>150</dim>
					<dim>150</dim>
				</port>
			</output>
		</layer>
		<layer id="3" name="conv0/Dims24863846/EltwiseUnsqueeze4010_const" type="Const" version="opset1">
			<data element_type="f16" offset="1728" shape="1,32,1,1" size="64"/>
			<output>
				<port id="1" precision="FP16">
					<dim>1</dim>
					<dim>32</dim>
					<dim>1</dim>
					<dim>1</dim>
				</port>
			</output>
		</layer>
		<layer id="4" name="conv0" type="Add" version="opset1">
			<input>
				<port id="0">
					<dim>1</dim>
					<dim>32</dim>
					<dim>150</dim>
					<dim>150</dim>
				</port>
				<port id="1">
					<dim>1</dim>
					<dim>32</dim>
					<dim>1</dim>
					<dim>1</dim>
				</port>
			</input>
			<output>
				<port id="2" precision="FP16">
					<dim>1</dim>
					<dim>32</dim>
					<dim>150</dim>
					<dim>150</dim>
				</port>
			</output>
		</layer>
		<layer id="5" name="conv0/relu" type="ReLU" version="opset1">
			<input>
				<port id="0">
					<dim>1</dim>
					<dim>32</dim>
					<dim>150</dim>
					<dim>150</dim>
				</port>
			</input>
			<output>
				<port id="1" precision="FP16">
					<dim>1</dim>
					<dim>32</dim>
					<dim>150</dim>
					<dim>150</dim>
				</port>
			</output>
		</layer>
		<layer id="6" name="94819484_const" type="Const" version="opset1">
			<data element_type="f16" offset="1792" shape="32,1,1,3,3" size="576"/>
			<output>
				<port id="1" precision="FP16">
					<dim>32</dim>
					<dim>1</dim>
					<dim>1</dim>
					<dim>3</dim>
					<dim>3</dim>
				</port>
			</output>
		</layer>
		<layer id="7" name="conv1/dw/WithoutBiases" type="GroupConvolution" version="opset1">
			<data dilations="1,1" output_padding="0,0" pads_begin="1,1" pads_end="1,1" strides="1,1"/>
			<input>
				<port id="0">
					<dim>1</dim>
					<dim>32</dim>
					<dim>150</dim>
					<dim>150</dim>
				</port>
				<port id="1">
					<dim>32</dim>
					<dim>1</dim>
					<dim>1</dim>
					<dim>3</dim>
					<dim>3</dim>
				</port>
			</input>
			<output>
				<port id="2" precision="FP16">
					<dim>1</dim>
					<dim>32</dim>
					<dim>150</dim>
					<dim>150</dim>
				</port>
			</output>
		</layer>
		<layer id="8" name="conv1/dw/Dims25343854/EltwiseUnsqueeze4042_const" type="Const" version="opset1">
			<data element_type="f16" offset="2368" shape="1,32,1,1" size="64"/>
			<output>
				<port id="1" precision="FP16">
					<dim>1</dim>
					<dim>32</dim>
					<dim>1</dim>
					<dim>1</dim>
				</port>
			</output>
		</layer>
		<layer id="9" name="conv1/dw" type="Add" version="opset1">
			<input>
				<port id="0">
					<dim>1</dim>
					<dim>32</dim>
					<dim>150</dim>
					<dim>150</dim>
				</port>
				<port id="1">
					<dim>1</dim>
					<dim>32</dim>
					<dim>1</dim>
					<dim>1</dim>
				</port>
			</input>
			<output>
				<port id="2" precision="FP16">
					<dim>1</dim>
					<dim>32</dim>
					<dim>150</dim>
					<dim>150</dim>
				</port>
			</output>
		</layer>
		<layer id="10" name="conv1/dw/relu" type="ReLU" version="opset1">
			<input>
				<port id="0">
					<dim>1</dim>
					<dim>32</dim>
					<dim>150</dim>
					<dim>150</dim>
				</port>
			</input>
			<output>
				<port id="1" precision="FP16">
					<dim>1</dim>
					<dim>32</dim>
					<dim>150</dim>
					<dim>150</dim>
				</port>
			</output>
		</layer>
		<layer id="11" name="124/Output_0/Data__const" type="Const" version="opset1">
			<data element_type="f16" offset="2432" shape="64,32,1,1" size="4096"/>
			<output>
				<port id="1" precision="FP16">
					<dim>64</dim>
					<dim>32</dim>
					<dim>1</dim>
					<dim>1</dim>
				</port>
			</output>
		</layer>
		<layer id="12" name="conv1/WithoutBiases" type="Convolution" version="opset1">
			<data dilations="1,1" output_padding="0,0" pads_begin="0,0" pads_end="0,0" strides="1,1"/>
			<input>
				<port id="0">
					<dim>1</dim>
					<dim>32</dim>
					<dim>150</dim>
					<dim>150</dim>
				</port>
				<port id="1">
					<dim>64</dim>
					<dim>32</dim>
					<dim>1</dim>
					<dim>1</dim>
				</port>
			</input>
			<output>
				<port id="2" precision="FP16">
					<dim>1</dim>
					<dim>64</dim>
					<dim>150</dim>
					<dim>150</dim>
				</port>
			</output>
		</layer>
		<layer id="13" name="conv1/Dims23363821/EltwiseUnsqueeze3910_const" type="Const" version="opset1">
			<data element_type="f16" offset="6528" shape="1,64,1,1" size="128"/>
			<output>
				<port id="1" precision="FP16">
					<dim>1</dim>
					<dim>64</dim>
					<dim>1</dim>
					<dim>1</dim>
				</port>
			</output>
		</layer>
		<layer id="14" name="conv1" type="Add" version="opset1">
			<input>
				<port id="0">
					<dim>1</dim>
					<dim>64</dim>
					<dim>150</dim>
					<dim>150</dim>
				</port>
				<port id="1">
					<dim>1</dim>
					<dim>64</dim>
					<dim>1</dim>
					<dim>1</dim>
				</port>
			</input>
			<output>
				<port id="2" precision="FP16">
					<dim>1</dim>
					<dim>64</dim>
					<dim>150</dim>
					<dim>150</dim>
				</port>
			</output>
		</layer>
		<layer id="15" name="conv1/relu" type="ReLU" version="opset1">
			<input>
				<port id="0">
					<dim>1</dim>
					<dim>64</dim>
					<dim>150</dim>
					<dim>150</dim>
				</port>
			</input>
			<output>
				<port id="1" precision="FP16">
					<dim>1</dim>
					<dim>64</dim>
					<dim>150</dim>
					<dim>150</dim>
				</port>
			</output>
		</layer>
		<layer id="16" name="94459448_const" type="Const" version="opset1">
			<data element_type="f16" offset="6656" shape="64,1,1,3,3" size="1152"/>
			<output>
				<port id="1" precision="FP16">
					<dim>64</dim>
					<dim>1</dim>
					<dim>1</dim>
					<dim>3</dim>
					<dim>3</dim>
				</port>
			</output>
		</layer>
		<layer id="17" name="conv2/dw/WithoutBiases" type="GroupConvolution" version="opset1">
			<data dilations="1,1" output_padding="0,0" pads_begin="1,1" pads_end="1,1" strides="2,2"/>
			<input>
				<port id="0">
					<dim>1</dim>
					<dim>64</dim>
					<dim>150</dim>
					<dim>150</dim>
				</port>
				<port id="1">
					<dim>64</dim>
					<dim>1</dim>
					<dim>1</dim>
					<dim>3</dim>
					<dim>3</dim>
				</port>
			</input>
			<output>
				<port id="2" precision="FP16">
					<dim>1</dim>
					<dim>64</dim>
					<dim>75</dim>
					<dim>75</dim>
				</port>
			</output>
		</layer>
		<layer id="18" name="conv2/dw/Dims23423822/EltwiseUnsqueeze3914_const" type="Const" version="opset1">
			<data element_type="f16" offset="7808" shape="1,64,1,1" size="128"/>
			<output>
				<port id="1" precision="FP16">
					<dim>1</dim>
					<dim>64</dim>
					<dim>1</dim>
					<dim>1</dim>
				</port>
			</output>
		</layer>
		<layer id="19" name="conv2/dw" type="Add" version="opset1">
			<input>
				<port id="0">
					<dim>1</dim>
					<dim>64</dim>
					<dim>75</dim>
					<dim>75</dim>
				</port>
				<port id="1">
					<dim>1</dim>
					<dim>64</dim>
					<dim>1</dim>
					<dim>1</dim>
				</port>
			</input>
			<output>
				<port id="2" precision="FP16">
					<dim>1</dim>
					<dim>64</dim>
					<dim>75</dim>
					<dim>75</dim>
				</port>
			</output>
		</layer>
		<layer id="20" name="conv2/dw/relu" type="ReLU" version="opset1">
			<input>
				<port id="0">
					<dim>1</dim>
					<dim>64</dim>
					<dim>75</dim>
					<dim>75</dim>
				</port>
			</input>
			<output>
				<port id="1" precision="FP16">
					<dim>1</dim>
					<dim>64</dim>
					<dim>75</dim>
					<dim>75</dim>
				</port>
			</output>
		</layer>
		<layer id="21" name="138/Output_0/Data__const" type="Const" version="opset1">
			<data element_type="f16" offset="7936" shape="128,64,1,1" size="16384"/>
			<output>
				<port id="1" precision="FP16">
					<dim>128</dim>
					<dim>64</dim>
					<dim>1</dim>
					<dim>1</dim>
				</port>
			</output>
		</layer>
		<layer id="22" name="conv2/WithoutBiases" type="Convolution" version="opset1">
			<data dilations="1,1" output_padding="0,0" pads_begin="0,0" pads_end="0,0" strides="1,1"/>
			<input>
				<port id="0">
					<dim>1</dim>
					<dim>64</dim>
					<dim>75</dim>
					<dim>75</dim>
				</port>
				<port id="1">
					<dim>128</dim>
					<dim>64</dim>
					<dim>1</dim>
					<dim>1</dim>
				</port>
			</input>
			<output>
				<port id="2" precision="FP16">
					<dim>1</dim>
					<dim>128</dim>
					<dim>75</dim>
					<dim>75</dim>
				</port>
			</output>
		</layer>
		<layer id="23" name="conv2/Dims22703810/EltwiseUnsqueeze3866_const" type="Const" version="opset1">
			<data element_type="f16" offset="24320" shape="1,128,1,1" size="256"/>
			<output>
				<port id="1" precision="FP16">
					<dim>1</dim>
					<dim>128</dim>
					<dim>1</dim>
					<dim>1</dim>
				</port>
			</output>
		</layer>
		<layer id="24" name="conv2" type="Add" version="opset1">
			<input>
				<port id="0">
					<dim>1</dim>
					<dim>128</dim>
					<dim>75</dim>
					<dim>75</dim>
				</port>
				<port id="1">
					<dim>1</dim>
					<dim>128</dim>
					<dim>1</dim>
					<dim>1</dim>
				</port>
			</input>
			<output>
				<port id="2" precision="FP16">
					<dim>1</dim>
					<dim>128</dim>
					<dim>75</dim>
					<dim>75</dim>
				</port>
			</output>
		</layer>
		<layer id="25" name="conv2/relu" type="ReLU" version="opset1">
			<input>
				<port id="0">
					<dim>1</dim>
					<dim>128</dim>
					<dim>75</dim>
					<dim>75</dim>
				</port>
			</input>
			<output>
				<port id="1" precision="FP16">
					<dim>1</dim>
					<dim>128</dim>
					<dim>75</dim>
					<dim>75</dim>
				</port>
			</output>
		</layer>
		<layer id="26" name="94539456_const" type="Const" version="opset1">
			<data element_type="f16" offset="24576" shape="128,1,1,3,3" size="2304"/>
			<output>
				<port id="1" precision="FP16">
					<dim>128</dim>
					<dim>1</dim>
					<dim>1</dim>
					<dim>3</dim>
					<dim>3</dim>
				</port>
			</output>
		</layer>
		<layer id="27" name="conv3/dw/WithoutBiases" type="GroupConvolution" version="opset1">
			<data dilations="1,1" output_padding="0,0" pads_begin="1,1" pads_end="1,1" strides="1,1"/>
			<input>
				<port id="0">
					<dim>1</dim>
					<dim>128</dim>
					<dim>75</dim>
					<dim>75</dim>
				</port>
				<port id="1">
					<dim>128</dim>
					<dim>1</dim>
					<dim>1</dim>
					<dim>3</dim>
					<dim>3</dim>
				</port>
			</input>
			<output>
				<port id="2" precision="FP16">
					<dim>1</dim>
					<dim>128</dim>
					<dim>75</dim>
					<dim>75</dim>
				</port>
			</output>
		</layer>
		<layer id="28" name="conv3/dw/Dims23903830/EltwiseUnsqueeze3946_const" type="Const" version="opset1">
			<data element_type="f16" offset="26880" shape="1,128,1,1" size="256"/>
			<output>
				<port id="1" precision="FP16">
					<dim>1</dim>
					<dim>128</dim>
					<dim>1</dim>
					<dim>1</dim>
				</port>
			</output>
		</layer>
		<layer id="29" name="conv3/dw" type="Add" version="opset1">
			<input>
				<port id="0">
					<dim>1</dim>
					<dim>128</dim>
					<dim>75</dim>
					<dim>75</dim>
				</port>
				<port id="1">
					<dim>1</dim>
					<dim>128</dim>
					<dim>1</dim>
					<dim>1</dim>
				</port>
			</input>
			<output>
				<port id="2" precision="FP16">
					<dim>1</dim>
					<dim>128</dim>
					<dim>75</dim>
					<dim>75</dim>
				</port>
			</output>
		</layer>
		<layer id="30" name="conv3/dw/relu" type="ReLU" version="opset1">
			<input>
				<port id="0">
					<dim>1</dim>
					<dim>128</dim>
					<dim>75</dim>
					<dim>75</dim>
				</port>
			</input>
			<output>
				<port id="1" precision="FP16">
					<dim>1</dim>
					<dim>128</dim>
					<dim>75</dim>
					<dim>75</dim>
				</port>
			</output>
		</layer>
		<layer id="31" name="176/Output_0/Data__const" type="Const" version="opset1">
			<data element_type="f16" offset="27136" shape="128,128,1,1" size="32768"/>
			<output>
				<port id="1" precision="FP16">
					<dim>128</dim>
					<dim>128</dim>
					<dim>1</dim>
					<dim>1</dim>
				</port>
			</output>
		</layer>
		<layer id="32" name="conv3/WithoutBiases" type="Convolution" version="opset1">
			<data dilations="1,1" output_padding="0,0" pads_begin="0,0" pads_end="0,0" strides="1,1"/>
			<input>
				<port id="0">
					<dim>1</dim>
					<dim>128</dim>
					<dim>75</dim>
					<dim>75</dim>
				</port>
				<port id="1">
					<dim>128</dim>
					<dim>128</dim>
					<dim>1</dim>
					<dim>1</dim>
				</port>
			</input>
			<output>
				<port id="2" precision="FP16">
					<dim>1</dim>
					<dim>128</dim>
					<dim>75</dim>
					<dim>75</dim>
				</port>
			</output>
		</layer>
		<layer id="33" name="conv3/Dims23723827/EltwiseUnsqueeze3934_const" type="Const" version="opset1">
			<data element_type="f16" offset="59904" shape="1,128,1,1" size="256"/>
			<output>
				<port id="1" precision="FP16">
					<dim>1</dim>
					<dim>128</dim>
					<dim>1</dim>
					<dim>1</dim>
				</port>
			</output>
		</layer>
		<layer id="34" name="conv3" type="Add" version="opset1">
			<input>
				<port id="0">
					<dim>1</dim>
					<dim>128</dim>
					<dim>75</dim>
					<dim>75</dim>
				</port>
				<port id="1">
					<dim>1</dim>
					<dim>128</dim>
					<dim>1</dim>
					<dim>1</dim>
				</port>
			</input>
			<output>
				<port id="2" precision="FP16">
					<dim>1</dim>
					<dim>128</dim>
					<dim>75</dim>
					<dim>75</dim>
				</port>
			</output>
		</layer>
		<layer id="35" name="conv3/relu" type="ReLU" version="opset1">
			<input>
				<port id="0">
					<dim>1</dim>
					<dim>128</dim>
					<dim>75</dim>
					<dim>75</dim>
				</port>
			</input>
			<output>
				<port id="1" precision="FP16">
					<dim>1</dim>
					<dim>128</dim>
					<dim>75</dim>
					<dim>75</dim>
				</port>
			</output>
		</layer>
		<layer id="36" name="94339436_const" type="Const" version="opset1">
			<data element_type="f16" offset="60160" shape="128,1,1,3,3" size="2304"/>
			<output>
				<port id="1" precision="FP16">
					<dim>128</dim>
					<dim>1</dim>
					<dim>1</dim>
					<dim>3</dim>
					<dim>3</dim>
				</port>
			</output>
		</layer>
		<layer id="37" name="conv4/dw/WithoutBiases" type="GroupConvolution" version="opset1">
			<data dilations="1,1" output_padding="0,0" pads_begin="1,1" pads_end="1,1" strides="2,2"/>
			<input>
				<port id="0">
					<dim>1</dim>
					<dim>128</dim>
					<dim>75</dim>
					<dim>75</dim>
				</port>
				<port id="1">
					<dim>128</dim>
					<dim>1</dim>
					<dim>1</dim>
					<dim>3</dim>
					<dim>3</dim>
				</port>
			</input>
			<output>
				<port id="2" precision="FP16">
					<dim>1</dim>
					<dim>128</dim>
					<dim>38</dim>
					<dim>38</dim>
				</port>
			</output>
		</layer>
		<layer id="38" name="conv4/dw/Dims23063816/EltwiseUnsqueeze3890_const" type="Const" version="opset1">
			<data element_type="f16" offset="62464" shape="1,128,1,1" size="256"/>
			<output>
				<port id="1" precision="FP16">
					<dim>1</dim>
					<dim>128</dim>
					<dim>1</dim>
					<dim>1</dim>
				</port>
			</output>
		</layer>
		<layer id="39" name="conv4/dw" type="Add" version="opset1">
			<input>
				<port id="0">
					<dim>1</dim>
					<dim>128</dim>
					<dim>38</dim>
					<dim>38</dim>
				</port>
				<port id="1">
					<dim>1</dim>
					<dim>128</dim>
					<dim>1</dim>
					<dim>1</dim>
				</port>
			</input>
			<output>
				<port id="2" precision="FP16">
					<dim>1</dim>
					<dim>128</dim>
					<dim>38</dim>
					<dim>38</dim>
				</port>
			</output>
		</layer>
		<layer id="40" name="conv4/dw/relu" type="ReLU" version="opset1">
			<input>
				<port id="0">
					<dim>1</dim>
					<dim>128</dim>
					<dim>38</dim>
					<dim>38</dim>
				</port>
			</input>
			<output>
				<port id="1" precision="FP16">
					<dim>1</dim>
					<dim>128</dim>
					<dim>38</dim>
					<dim>38</dim>
				</port>
			</output>
		</layer>
		<layer id="41" name="208/Output_0/Data__const" type="Const" version="opset1">
			<data element_type="f16" offset="62720" shape="256,128,1,1" size="65536"/>
			<output>
				<port id="1" precision="FP16">
					<dim>256</dim>
					<dim>128</dim>
					<dim>1</dim>
					<dim>1</dim>
				</port>
			</output>
		</layer>
		<layer id="42" name="conv4/WithoutBiases" type="Convolution" version="opset1">
			<data dilations="1,1" output_padding="0,0" pads_begin="0,0" pads_end="0,0" strides="1,1"/>
			<input>
				<port id="0">
					<dim>1</dim>
					<dim>128</dim>
					<dim>38</dim>
					<dim>38</dim>
				</port>
				<port id="1">
					<dim>256</dim>
					<dim>128</dim>
					<dim>1</dim>
					<dim>1</dim>
				</port>
			</input>
			<output>
				<port id="2" precision="FP16">
					<dim>1</dim>
					<dim>256</dim>
					<dim>38</dim>
					<dim>38</dim>
				</port>
			</output>
		</layer>
		<layer id="43" name="conv4/Dims23963831/EltwiseUnsqueeze3950_const" type="Const" version="opset1">
			<data element_type="f16" offset="128256" shape="1,256,1,1" size="512"/>
			<output>
				<port id="1" precision="FP16">
					<dim>1</dim>
					<dim>256</dim>
					<dim>1</dim>
					<dim>1</dim>
				</port>
			</output>
		</layer>
		<layer id="44" name="conv4" type="Add" version="opset1">
			<input>
				<port id="0">
					<dim>1</dim>
					<dim>256</dim>
					<dim>38</dim>
					<dim>38</dim>
				</port>
				<port id="1">
					<dim>1</dim>
					<dim>256</dim>
					<dim>1</dim>
					<dim>1</dim>
				</port>
			</input>
			<output>
				<port id="2" precision="FP16">
					<dim>1</dim>
					<dim>256</dim>
					<dim>38</dim>
					<dim>38</dim>
				</port>
			</output>
		</layer>
		<layer id="45" name="conv4/relu" type="ReLU" version="opset1">
			<input>
				<port id="0">
					<dim>1</dim>
					<dim>256</dim>
					<dim>38</dim>
					<dim>38</dim>
				</port>
			</input>
			<output>
				<port id="1" precision="FP16">
					<dim>1</dim>
					<dim>256</dim>
					<dim>38</dim>
					<dim>38</dim>
				</port>
			</output>
		</layer>
		<layer id="46" name="94419444_const" type="Const" version="opset1">
			<data element_type="f16" offset="128768" shape="256,1,1,3,3" size="4608"/>
			<output>
				<port id="1" precision="FP16">
					<dim>256</dim>
					<dim>1</dim>
					<dim>1</dim>
					<dim>3</dim>
					<dim>3</dim>
				</port>
			</output>
		</layer>
		<layer id="47" name="conv5/dw/WithoutBiases" type="GroupConvolution" version="opset1">
			<data dilations="1,1" output_padding="0,0" pads_begin="1,1" pads_end="1,1" strides="1,1"/>
			<input>
				<port id="0">
					<dim>1</dim>
					<dim>256</dim>
					<dim>38</dim>
					<dim>38</dim>
				</port>
				<port id="1">
					<dim>256</dim>
					<dim>1</dim>
					<dim>1</dim>
					<dim>3</dim>
					<dim>3</dim>
				</port>
			</input>
			<output>
				<port id="2" precision="FP16">
					<dim>1</dim>
					<dim>256</dim>
					<dim>38</dim>
					<dim>38</dim>
				</port>
			</output>
		</layer>
		<layer id="48" name="conv5/dw/Dims23303820/EltwiseUnsqueeze3906_const" type="Const" version="opset1">
			<data element_type="f16" offset="133376" shape="1,256,1,1" size="512"/>
			<output>
				<port id="1" precision="FP16">
					<dim>1</dim>
					<dim>256</dim>
					<dim>1</dim>
					<dim>1</dim>
				</port>
			</output>
		</layer>
		<layer id="49" name="conv5/dw" type="Add" version="opset1">
			<input>
				<port id="0">
					<dim>1</dim>
					<dim>256</dim>
					<dim>38</dim>
					<dim>38</dim>
				</port>
				<port id="1">
					<dim>1</dim>
					<dim>256</dim>
					<dim>1</dim>
					<dim>1</dim>
				</port>
			</input>
			<output>
				<port id="2" precision="FP16">
					<dim>1</dim>
					<dim>256</dim>
					<dim>38</dim>
					<dim>38</dim>
				</port>
			</output>
		</layer>
		<layer id="50" name="conv5/dw/relu" type="ReLU" version="opset1">
			<input>
				<port id="0">
					<dim>1</dim>
					<dim>256</dim>
					<dim>38</dim>
					<dim>38</dim>
				</port>
			</input>
			<output>
				<port id="1" precision="FP16">
					<dim>1</dim>
					<dim>256</dim>
					<dim>38</dim>
					<dim>38</dim>
				</port>
			</output>
		</layer>
		<layer id="51" name="152/Output_0/Data__const" type="Const" version="opset1">
			<data element_type="f16" offset="133888" shape="256,256,1,1" size="131072"/>
			<output>
				<port id="1" precision="FP16">
					<dim>256</dim>
					<dim>256</dim>
					<dim>1</dim>
					<dim>1</dim>
				</port>
			</output>
		</layer>
		<layer id="52" name="conv5/WithoutBiases" type="Convolution" version="opset1">
			<data dilations="1,1" output_padding="0,0" pads_begin="0,0" pads_end="0,0" strides="1,1"/>
			<input>
				<port id="0">
					<dim>1</dim>
					<dim>256</dim>
					<dim>38</dim>
					<dim>38</dim>
				</port>
				<port id="1">
					<dim>256</dim>
					<dim>256</dim>
					<dim>1</dim>
					<dim>1</dim>
				</port>
			</input>
			<output>
				<port id="2" precision="FP16">
					<dim>1</dim>
					<dim>256</dim>
					<dim>38</dim>
					<dim>38</dim>
				</port>
			</output>
		</layer>
		<layer id="53" name="conv5/Dims25043849/EltwiseUnsqueeze4022_const" type="Const" version="opset1">
			<data element_type="f16" offset="264960" shape="1,256,1,1" size="512"/>
			<output>
				<port id="1" precision="FP16">
					<dim>1</dim>
					<dim>256</dim>
					<dim>1</dim>
					<dim>1</dim>
				</port>
			</output>
		</layer>
		<layer id="54" name="conv5" type="Add" version="opset1">
			<input>
				<port id="0">
					<dim>1</dim>
					<dim>256</dim>
					<dim>38</dim>
					<dim>38</dim>
				</port>
				<port id="1">
					<dim>1</dim>
					<dim>256</dim>
					<dim>1</dim>
					<dim>1</dim>
				</port>
			</input>
			<output>
				<port id="2" precision="FP16">
					<dim>1</dim>
					<dim>256</dim>
					<dim>38</dim>
					<dim>38</dim>
				</port>
			</output>
		</layer>
		<layer id="55" name="conv5/relu" type="ReLU" version="opset1">
			<input>
				<port id="0">
					<dim>1</dim>
					<dim>256</dim>
					<dim>38</dim>
					<dim>38</dim>
				</port>
			</input>
			<output>
				<port id="1" precision="FP16">
					<dim>1</dim>
					<dim>256</dim>
					<dim>38</dim>
					<dim>38</dim>
				</port>
			</output>
		</layer>
		<layer id="56" name="94499452_const" type="Const" version="opset1">
			<data element_type="f16" offset="265472" shape="256,1,1,3,3" size="4608"/>
			<output>
				<port id="1" precision="FP16">
					<dim>256</dim>
					<dim>1</dim>
					<dim>1</dim>
					<dim>3</dim>
					<dim>3</dim>
				</port>
			</output>
		</layer>
		<layer id="57" name="conv6/dw/WithoutBiases" type="GroupConvolution" version="opset1">
			<data dilations="1,1" output_padding="0,0" pads_begin="1,1" pads_end="1,1" strides="2,2"/>
			<input>
				<port id="0">
					<dim>1</dim>
					<dim>256</dim>
					<dim>38</dim>
					<dim>38</dim>
				</port>
				<port id="1">
					<dim>256</dim>
					<dim>1</dim>
					<dim>1</dim>
					<dim>3</dim>
					<dim>3</dim>
				</port>
			</input>
			<output>
				<port id="2" precision="FP16">
					<dim>1</dim>
					<dim>256</dim>
					<dim>19</dim>
					<dim>19</dim>
				</port>
			</output>
		</layer>
		<layer id="58" name="conv6/dw/Dims23783828/EltwiseUnsqueeze3938_const" type="Const" version="opset1">
			<data element_type="f16" offset="270080" shape="1,256,1,1" size="512"/>
			<output>
				<port id="1" precision="FP16">
					<dim>1</dim>
					<dim>256</dim>
					<dim>1</dim>
					<dim>1</dim>
				</port>
			</output>
		</layer>
		<layer id="59" name="conv6/dw" type="Add" version="opset1">
			<input>
				<port id="0">
					<dim>1</dim>
					<dim>256</dim>
					<dim>19</dim>
					<dim>19</dim>
				</port>
				<port id="1">
					<dim>1</dim>
					<dim>256</dim>
					<dim>1</dim>
					<dim>1</dim>
				</port>
			</input>
			<output>
				<port id="2" precision="FP16">
					<dim>1</dim>
					<dim>256</dim>
					<dim>19</dim>
					<dim>19</dim>
				</port>
			</output>
		</layer>
		<layer id="60" name="conv6/dw/relu" type="ReLU" version="opset1">
			<input>
				<port id="0">
					<dim>1</dim>
					<dim>256</dim>
					<dim>19</dim>
					<dim>19</dim>
				</port>
			</input>
			<output>
				<port id="1" precision="FP16">
					<dim>1</dim>
					<dim>256</dim>
					<dim>19</dim>
					<dim>19</dim>
				</port>
			</output>
		</layer>
		<layer id="61" name="212/Output_0/Data__const" type="Const" version="opset1">
			<data element_type="f16" offset="270592" shape="512,256,1,1" size="262144"/>
			<output>
				<port id="1" precision="FP16">
					<dim>512</dim>
					<dim>256</dim>
					<dim>1</dim>
					<dim>1</dim>
				</port>
			</output>
		</layer>
		<layer id="62" name="conv6/WithoutBiases" type="Convolution" version="opset1">
			<data dilations="1,1" output_padding="0,0" pads_begin="0,0" pads_end="0,0" strides="1,1"/>
			<input>
				<port id="0">
					<dim>1</dim>
					<dim>256</dim>
					<dim>19</dim>
					<dim>19</dim>
				</port>
				<port id="1">
					<dim>512</dim>
					<dim>256</dim>
					<dim>1</dim>
					<dim>1</dim>
				</port>
			</input>
			<output>
				<port id="2" precision="FP16">
					<dim>1</dim>
					<dim>512</dim>
					<dim>19</dim>
					<dim>19</dim>
				</port>
			</output>
		</layer>
		<layer id="63" name="conv6/Dims24083833/EltwiseUnsqueeze3958_const" type="Const" version="opset1">
			<data element_type="f16" offset="532736" shape="1,512,1,1" size="1024"/>
			<output>
				<port id="1" precision="FP16">
					<dim>1</dim>
					<dim>512</dim>
					<dim>1</dim>
					<dim>1</dim>
				</port>
			</output>
		</layer>
		<layer id="64" name="conv6" type="Add" version="opset1">
			<input>
				<port id="0">
					<dim>1</dim>
					<dim>512</dim>
					<dim>19</dim>
					<dim>19</dim>
				</port>
				<port id="1">
					<dim>1</dim>
					<dim>512</dim>
					<dim>1</dim>
					<dim>1</dim>
				</port>
			</input>
			<output>
				<port id="2" precision="FP16">
					<dim>1</dim>
					<dim>512</dim>
					<dim>19</dim>
					<dim>19</dim>
				</port>
			</output>
		</layer>
		<layer id="65" name="conv6/relu" type="ReLU" version="opset1">
			<input>
				<port id="0">
					<dim>1</dim>
					<dim>512</dim>
					<dim>19</dim>
					<dim>19</dim>
				</port>
			</input>
			<output>
				<port id="1" precision="FP16">
					<dim>1</dim>
					<dim>512</dim>
					<dim>19</dim>
					<dim>19</dim>
				</port>
			</output>
		</layer>
		<layer id="66" name="94739476_const" type="Const" version="opset1">
			<data element_type="f16" offset="533760" shape="512,1,1,3,3" size="9216"/>
			<output>
				<port id="1" precision="FP16">
					<dim>512</dim>
					<dim>1</dim>
					<dim>1</dim>
					<dim>3</dim>
					<dim>3</dim>
				</port>
			</output>
		</layer>
		<layer id="67" name="conv7/dw/WithoutBiases" type="GroupConvolution" version="opset1">
			<data dilations="1,1" output_padding="0,0" pads_begin="1,1" pads_end="1,1" strides="1,1"/>
			<input>
				<port id="0">
					<dim>1</dim>
					<dim>512</dim>
					<dim>19</dim>
					<dim>19</dim>
				</port>
				<port id="1">
					<dim>512</dim>
					<dim>1</dim>
					<dim>1</dim>
					<dim>3</dim>
					<dim>3</dim>
				</port>
			</input>
			<output>
				<port id="2" precision="FP16">
					<dim>1</dim>
					<dim>512</dim>
					<dim>19</dim>
					<dim>19</dim>
				</port>
			</output>
		</layer>
		<layer id="68" name="conv7/dw/Dims25103850/EltwiseUnsqueeze4026_const" type="Const" version="opset1">
			<data element_type="f16" offset="542976" shape="1,512,1,1" size="1024"/>
			<output>
				<port id="1" precision="FP16">
					<dim>1</dim>
					<dim>512</dim>
					<dim>1</dim>
					<dim>1</dim>
				</port>
			</output>
		</layer>
		<layer id="69" name="conv7/dw" type="Add" version="opset1">
			<input>
				<port id="0">
					<dim>1</dim>
					<dim>512</dim>
					<dim>19</dim>
					<dim>19</dim>
				</port>
				<port id="1">
					<dim>1</dim>
					<dim>512</dim>
					<dim>1</dim>
					<dim>1</dim>
				</port>
			</input>
			<output>
				<port id="2" precision="FP16">
					<dim>1</dim>
					<dim>512</dim>
					<dim>19</dim>
					<dim>19</dim>
				</port>
			</output>
		</layer>
		<layer id="70" name="conv7/dw/relu" type="ReLU" version="opset1">
			<input>
				<port id="0">
					<dim>1</dim>
					<dim>512</dim>
					<dim>19</dim>
					<dim>19</dim>
				</port>
			</input>
			<output>
				<port id="1" precision="FP16">
					<dim>1</dim>
					<dim>512</dim>
					<dim>19</dim>
					<dim>19</dim>
				</port>
			</output>
		</layer>
		<layer id="71" name="128/Output_0/Data__const" type="Const" version="opset1">
			<data element_type="f16" offset="544000" shape="512,512,1,1" size="524288"/>
			<output>
				<port id="1" precision="FP16">
					<dim>512</dim>
					<dim>512</dim>
					<dim>1</dim>
					<dim>1</dim>
				</port>
			</output>
		</layer>
		<layer id="72" name="conv7/WithoutBiases" type="Convolution" version="opset1">
			<data dilations="1,1" output_padding="0,0" pads_begin="0,0" pads_end="0,0" strides="1,1"/>
			<input>
				<port id="0">
					<dim>1</dim>
					<dim>512</dim>
					<dim>19</dim>
					<dim>19</dim>
				</port>
				<port id="1">
					<dim>512</dim>
					<dim>512</dim>
					<dim>1</dim>
					<dim>1</dim>
				</port>
			</input>
			<output>
				<port id="2" precision="FP16">
					<dim>1</dim>
					<dim>512</dim>
					<dim>19</dim>
					<dim>19</dim>
				</port>
			</output>
		</layer>
		<layer id="73" name="conv7/Dims22583808/EltwiseUnsqueeze3858_const" type="Const" version="opset1">
			<data element_type="f16" offset="1068288" shape="1,512,1,1" size="1024"/>
			<output>
				<port id="1" precision="FP16">
					<dim>1</dim>
					<dim>512</dim>
					<dim>1</dim>
					<dim>1</dim>
				</port>
			</output>
		</layer>
		<layer id="74" name="conv7" type="Add" version="opset1">
			<input>
				<port id="0">
					<dim>1</dim>
					<dim>512</dim>
					<dim>19</dim>
					<dim>19</dim>
				</port>
				<port id="1">
					<dim>1</dim>
					<dim>512</dim>
					<dim>1</dim>
					<dim>1</dim>
				</port>
			</input>
			<output>
				<port id="2" precision="FP16">
					<dim>1</dim>
					<dim>512</dim>
					<dim>19</dim>
					<dim>19</dim>
				</port>
			</output>
		</layer>
		<layer id="75" name="conv7/relu" type="ReLU" version="opset1">
			<input>
				<port id="0">
					<dim>1</dim>
					<dim>512</dim>
					<dim>19</dim>
					<dim>19</dim>
				</port>
			</input>
			<output>
				<port id="1" precision="FP16">
					<dim>1</dim>
					<dim>512</dim>
					<dim>19</dim>
					<dim>19</dim>
				</port>
			</output>
		</layer>
		<layer id="76" name="94659468_const" type="Const" version="opset1">
			<data element_type="f16" offset="1069312" shape="512,1,1,3,3" size="9216"/>
			<output>
				<port id="1" precision="FP16">
					<dim>512</dim>
					<dim>1</dim>
					<dim>1</dim>
					<dim>3</dim>
					<dim>3</dim>
				</port>
			</output>
		</layer>
		<layer id="77" name="conv8/dw/WithoutBiases" type="GroupConvolution" version="opset1">
			<data dilations="1,1" output_padding="0,0" pads_begin="1,1" pads_end="1,1" strides="1,1"/>
			<input>
				<port id="0">
					<dim>1</dim>
					<dim>512</dim>
					<dim>19</dim>
					<dim>19</dim>
				</port>
				<port id="1">
					<dim>512</dim>
					<dim>1</dim>
					<dim>1</dim>
					<dim>3</dim>
					<dim>3</dim>
				</port>
			</input>
			<output>
				<port id="2" precision="FP16">
					<dim>1</dim>
					<dim>512</dim>
					<dim>19</dim>
					<dim>19</dim>
				</port>
			</output>
		</layer>
		<layer id="78" name="conv8/dw/Dims24563841/EltwiseUnsqueeze3990_const" type="Const" version="opset1">
			<data element_type="f16" offset="1078528" shape="1,512,1,1" size="1024"/>
			<output>
				<port id="1" precision="FP16">
					<dim>1</dim>
					<dim>512</dim>
					<dim>1</dim>
					<dim>1</dim>
				</port>
			</output>
		</layer>
		<layer id="79" name="conv8/dw" type="Add" version="opset1">
			<input>
				<port id="0">
					<dim>1</dim>
					<dim>512</dim>
					<dim>19</dim>
					<dim>19</dim>
				</port>
				<port id="1">
					<dim>1</dim>
					<dim>512</dim>
					<dim>1</dim>
					<dim>1</dim>
				</port>
			</input>
			<output>
				<port id="2" precision="FP16">
					<dim>1</dim>
					<dim>512</dim>
					<dim>19</dim>
					<dim>19</dim>
				</port>
			</output>
		</layer>
		<layer id="80" name="conv8/dw/relu" type="ReLU" version="opset1">
			<input>
				<port id="0">
					<dim>1</dim>
					<dim>512</dim>
					<dim>19</dim>
					<dim>19</dim>
				</port>
			</input>
			<output>
				<port id="1" precision="FP16">
					<dim>1</dim>
					<dim>512</dim>
					<dim>19</dim>
					<dim>19</dim>
				</port>
			</output>
		</layer>
		<layer id="81" name="206/Output_0/Data__const" type="Const" version="opset1">
			<data element_type="f16" offset="1079552" shape="512,512,1,1" size="524288"/>
			<output>
				<port id="1" precision="FP16">
					<dim>512</dim>
					<dim>512</dim>
					<dim>1</dim>
					<dim>1</dim>
				</port>
			</output>
		</layer>
		<layer id="82" name="conv8/WithoutBiases" type="Convolution" version="opset1">
			<data dilations="1,1" output_padding="0,0" pads_begin="0,0" pads_end="0,0" strides="1,1"/>
			<input>
				<port id="0">
					<dim>1</dim>
					<dim>512</dim>
					<dim>19</dim>
					<dim>19</dim>
				</port>
				<port id="1">
					<dim>512</dim>
					<dim>512</dim>
					<dim>1</dim>
					<dim>1</dim>
				</port>
			</input>
			<output>
				<port id="2" precision="FP16">
					<dim>1</dim>
					<dim>512</dim>
					<dim>19</dim>
					<dim>19</dim>
				</port>
			</output>
		</layer>
		<layer id="83" name="conv8/Dims23243819/EltwiseUnsqueeze3902_const" type="Const" version="opset1">
			<data element_type="f16" offset="1603840" shape="1,512,1,1" size="1024"/>
			<output>
				<port id="1" precision="FP16">
					<dim>1</dim>
					<dim>512</dim>
					<dim>1</dim>
					<dim>1</dim>
				</port>
			</output>
		</layer>
		<layer id="84" name="conv8" type="Add" version="opset1">
			<input>
				<port id="0">
					<dim>1</dim>
					<dim>512</dim>
					<dim>19</dim>
					<dim>19</dim>
				</port>
				<port id="1">
					<dim>1</dim>
					<dim>512</dim>
					<dim>1</dim>
					<dim>1</dim>
				</port>
			</input>
			<output>
				<port id="2" precision="FP16">
					<dim>1</dim>
					<dim>512</dim>
					<dim>19</dim>
					<dim>19</dim>
				</port>
			</output>
		</layer>
		<layer id="85" name="conv8/relu" type="ReLU" version="opset1">
			<input>
				<port id="0">
					<dim>1</dim>
					<dim>512</dim>
					<dim>19</dim>
					<dim>19</dim>
				</port>
			</input>
			<output>
				<port id="1" precision="FP16">
					<dim>1</dim>
					<dim>512</dim>
					<dim>19</dim>
					<dim>19</dim>
				</port>
			</output>
		</layer>
		<layer id="86" name="94779480_const" type="Const" version="opset1">
			<data element_type="f16" offset="1604864" shape="512,1,1,3,3" size="9216"/>
			<output>
				<port id="1" precision="FP16">
					<dim>512</dim>
					<dim>1</dim>
					<dim>1</dim>
					<dim>3</dim>
					<dim>3</dim>
				</port>
			</output>
		</layer>
		<layer id="87" name="conv9/dw/WithoutBiases" type="GroupConvolution" version="opset1">
			<data dilations="1,1" output_padding="0,0" pads_begin="1,1" pads_end="1,1" strides="1,1"/>
			<input>
				<port id="0">
					<dim>1</dim>
					<dim>512</dim>
					<dim>19</dim>
					<dim>19</dim>
				</port>
				<port id="1">
					<dim>512</dim>
					<dim>1</dim>
					<dim>1</dim>
					<dim>3</dim>
					<dim>3</dim>
				</port>
			</input>
			<output>
				<port id="2" precision="FP16">
					<dim>1</dim>
					<dim>512</dim>
					<dim>19</dim>
					<dim>19</dim>
				</port>
			</output>
		</layer>
		<layer id="88" name="conv9/dw/Dims25163851/EltwiseUnsqueeze4030_const" type="Const" version="opset1">
			<data element_type="f16" offset="1614080" shape="1,512,1,1" size="1024"/>
			<output>
				<port id="1" precision="FP16">
					<dim>1</dim>
					<dim>512</dim>
					<dim>1</dim>
					<dim>1</dim>
				</port>
			</output>
		</layer>
		<layer id="89" name="conv9/dw" type="Add" version="opset1">
			<input>
				<port id="0">
					<dim>1</dim>
					<dim>512</dim>
					<dim>19</dim>
					<dim>19</dim>
				</port>
				<port id="1">
					<dim>1</dim>
					<dim>512</dim>
					<dim>1</dim>
					<dim>1</dim>
				</port>
			</input>
			<output>
				<port id="2" precision="FP16">
					<dim>1</dim>
					<dim>512</dim>
					<dim>19</dim>
					<dim>19</dim>
				</port>
			</output>
		</layer>
		<layer id="90" name="conv9/dw/relu" type="ReLU" version="opset1">
			<input>
				<port id="0">
					<dim>1</dim>
					<dim>512</dim>
					<dim>19</dim>
					<dim>19</dim>
				</port>
			</input>
			<output>
				<port id="1" precision="FP16">
					<dim>1</dim>
					<dim>512</dim>
					<dim>19</dim>
					<dim>19</dim>
				</port>
			</output>
		</layer>
		<layer id="91" name="188/Output_0/Data__const" type="Const" version="opset1">
			<data element_type="f16" offset="1615104" shape="512,512,1,1" size="524288"/>
			<output>
				<port id="1" precision="FP16">
					<dim>512</dim>
					<dim>512</dim>
					<dim>1</dim>
					<dim>1</dim>
				</port>
			</output>
		</layer>
		<layer id="92" name="conv9/WithoutBiases" type="Convolution" version="opset1">
			<data dilations="1,1" output_padding="0,0" pads_begin="0,0" pads_end="0,0" strides="1,1"/>
			<input>
				<port id="0">
					<dim>1</dim>
					<dim>512</dim>
					<dim>19</dim>
					<dim>19</dim>
				</port>
				<port id="1">
					<dim>512</dim>
					<dim>512</dim>
					<dim>1</dim>
					<dim>1</dim>
				</port>
			</input>
			<output>
				<port id="2" precision="FP16">
					<dim>1</dim>
					<dim>512</dim>
					<dim>19</dim>
					<dim>19</dim>
				</port>
			</output>
		</layer>
		<layer id="93" name="conv9/Dims24743844/EltwiseUnsqueeze4002_const" type="Const" version="opset1">
			<data element_type="f16" offset="2139392" shape="1,512,1,1" size="1024"/>
			<output>
				<port id="1" precision="FP16">
					<dim>1</dim>
					<dim>512</dim>
					<dim>1</dim>
					<dim>1</dim>
				</port>
			</output>
		</layer>
		<layer id="94" name="conv9" type="Add" version="opset1">
			<input>
				<port id="0">
					<dim>1</dim>
					<dim>512</dim>
					<dim>19</dim>
					<dim>19</dim>
				</port>
				<port id="1">
					<dim>1</dim>
					<dim>512</dim>
					<dim>1</dim>
					<dim>1</dim>
				</port>
			</input>
			<output>
				<port id="2" precision="FP16">
					<dim>1</dim>
					<dim>512</dim>
					<dim>19</dim>
					<dim>19</dim>
				</port>
			</output>
		</layer>
		<layer id="95" name="conv9/relu" type="ReLU" version="opset1">
			<input>
				<port id="0">
					<dim>1</dim>
					<dim>512</dim>
					<dim>19</dim>
					<dim>19</dim>
				</port>
			</input>
			<output>
				<port id="1" precision="FP16">
					<dim>1</dim>
					<dim>512</dim>
					<dim>19</dim>
					<dim>19</dim>
				</port>
			</output>
		</layer>
		<layer id="96" name="94379440_const" type="Const" version="opset1">
			<data element_type="f16" offset="2140416" shape="512,1,1,3,3" size="9216"/>
			<output>
				<port id="1" precision="FP16">
					<dim>512</dim>
					<dim>1</dim>
					<dim>1</dim>
					<dim>3</dim>
					<dim>3</dim>
				</port>
			</output>
		</layer>
		<layer id="97" name="conv10/dw/WithoutBiases" type="GroupConvolution" version="opset1">
			<data dilations="1,1" output_padding="0,0" pads_begin="1,1" pads_end="1,1" strides="1,1"/>
			<input>
				<port id="0">
					<dim>1</dim>
					<dim>512</dim>
					<dim>19</dim>
					<dim>19</dim>
				</port>
				<port id="1">
					<dim>512</dim>
					<dim>1</dim>
					<dim>1</dim>
					<dim>3</dim>
					<dim>3</dim>
				</port>
			</input>
			<output>
				<port id="2" precision="FP16">
					<dim>1</dim>
					<dim>512</dim>
					<dim>19</dim>
					<dim>19</dim>
				</port>
			</output>
		</layer>
		<layer id="98" name="conv10/dw/Dims23123817/EltwiseUnsqueeze3894_const" type="Const" version="opset1">
			<data element_type="f16" offset="2149632" shape="1,512,1,1" size="1024"/>
			<output>
				<port id="1" precision="FP16">
					<dim>1</dim>
					<dim>512</dim>
					<dim>1</dim>
					<dim>1</dim>
				</port>
			</output>
		</layer>
		<layer id="99" name="conv10/dw" type="Add" version="opset1">
			<input>
				<port id="0">
					<dim>1</dim>
					<dim>512</dim>
					<dim>19</dim>
					<dim>19</dim>
				</port>
				<port id="1">
					<dim>1</dim>
					<dim>512</dim>
					<dim>1</dim>
					<dim>1</dim>
				</port>
			</input>
			<output>
				<port id="2" precision="FP16">
					<dim>1</dim>
					<dim>512</dim>
					<dim>19</dim>
					<dim>19</dim>
				</port>
			</output>
		</layer>
		<layer id="100" name="conv10/dw/relu" type="ReLU" version="opset1">
			<input>
				<port id="0">
					<dim>1</dim>
					<dim>512</dim>
					<dim>19</dim>
					<dim>19</dim>
				</port>
			</input>
			<output>
				<port id="1" precision="FP16">
					<dim>1</dim>
					<dim>512</dim>
					<dim>19</dim>
					<dim>19</dim>
				</port>
			</output>
		</layer>
		<layer id="101" name="170/Output_0/Data__const" type="Const" version="opset1">
			<data element_type="f16" offset="2150656" shape="512,512,1,1" size="524288"/>
			<output>
				<port id="1" precision="FP16">
					<dim>512</dim>
					<dim>512</dim>
					<dim>1</dim>
					<dim>1</dim>
				</port>
			</output>
		</layer>
		<layer id="102" name="conv10/WithoutBiases" type="Convolution" version="opset1">
			<data dilations="1,1" output_padding="0,0" pads_begin="0,0" pads_end="0,0" strides="1,1"/>
			<input>
				<port id="0">
					<dim>1</dim>
					<dim>512</dim>
					<dim>19</dim>
					<dim>19</dim>
				</port>
				<port id="1">
					<dim>512</dim>
					<dim>512</dim>
					<dim>1</dim>
					<dim>1</dim>
				</port>
			</input>
			<output>
				<port id="2" precision="FP16">
					<dim>1</dim>
					<dim>512</dim>
					<dim>19</dim>
					<dim>19</dim>
				</port>
			</output>
		</layer>
		<layer id="103" name="conv10/Dims24683843/EltwiseUnsqueeze3998_const" type="Const" version="opset1">
			<data element_type="f16" offset="2674944" shape="1,512,1,1" size="1024"/>
			<output>
				<port id="1" precision="FP16">
					<dim>1</dim>
					<dim>512</dim>
					<dim>1</dim>
					<dim>1</dim>
				</port>
			</output>
		</layer>
		<layer id="104" name="conv10" type="Add" version="opset1">
			<input>
				<port id="0">
					<dim>1</dim>
					<dim>512</dim>
					<dim>19</dim>
					<dim>19</dim>
				</port>
				<port id="1">
					<dim>1</dim>
					<dim>512</dim>
					<dim>1</dim>
					<dim>1</dim>
				</port>
			</input>
			<output>
				<port id="2" precision="FP16">
					<dim>1</dim>
					<dim>512</dim>
					<dim>19</dim>
					<dim>19</dim>
				</port>
			</output>
		</layer>
		<layer id="105" name="conv10/relu" type="ReLU" version="opset1">
			<input>
				<port id="0">
					<dim>1</dim>
					<dim>512</dim>
					<dim>19</dim>
					<dim>19</dim>
				</port>
			</input>
			<output>
				<port id="1" precision="FP16">
					<dim>1</dim>
					<dim>512</dim>
					<dim>19</dim>
					<dim>19</dim>
				</port>
			</output>
		</layer>
		<layer id="106" name="94579460_const" type="Const" version="opset1">
			<data element_type="f16" offset="2675968" shape="512,1,1,3,3" size="9216"/>
			<output>
				<port id="1" precision="FP16">
					<dim>512</dim>
					<dim>1</dim>
					<dim>1</dim>
					<dim>3</dim>
					<dim>3</dim>
				</port>
			</output>
		</layer>
		<layer id="107" name="conv11/dw/WithoutBiases" type="GroupConvolution" version="opset1">
			<data dilations="1,1" output_padding="0,0" pads_begin="1,1" pads_end="1,1" strides="1,1"/>
			<input>
				<port id="0">
					<dim>1</dim>
					<dim>512</dim>
					<dim>19</dim>
					<dim>19</dim>
				</port>
				<port id="1">
					<dim>512</dim>
					<dim>1</dim>
					<dim>1</dim>
					<dim>3</dim>
					<dim>3</dim>
				</port>
			</input>
			<output>
				<port id="2" precision="FP16">
					<dim>1</dim>
					<dim>512</dim>
					<dim>19</dim>
					<dim>19</dim>
				</port>
			</output>
		</layer>
		<layer id="108" name="conv11/dw/Dims24263836/EltwiseUnsqueeze3970_const" type="Const" version="opset1">
			<data element_type="f16" offset="2685184" shape="1,512,1,1" size="1024"/>
			<output>
				<port id="1" precision="FP16">
					<dim>1</dim>
					<dim>512</dim>
					<dim>1</dim>
					<dim>1</dim>
				</port>
			</output>
		</layer>
		<layer id="109" name="conv11/dw" type="Add" version="opset1">
			<input>
				<port id="0">
					<dim>1</dim>
					<dim>512</dim>
					<dim>19</dim>
					<dim>19</dim>
				</port>
				<port id="1">
					<dim>1</dim>
					<dim>512</dim>
					<dim>1</dim>
					<dim>1</dim>
				</port>
			</input>
			<output>
				<port id="2" precision="FP16">
					<dim>1</dim>
					<dim>512</dim>
					<dim>19</dim>
					<dim>19</dim>
				</port>
			</output>
		</layer>
		<layer id="110" name="conv11/dw/relu" type="ReLU" version="opset1">
			<input>
				<port id="0">
					<dim>1</dim>
					<dim>512</dim>
					<dim>19</dim>
					<dim>19</dim>
				</port>
			</input>
			<output>
				<port id="1" precision="FP16">
					<dim>1</dim>
					<dim>512</dim>
					<dim>19</dim>
					<dim>19</dim>
				</port>
			</output>
		</layer>
		<layer id="111" name="122/Output_0/Data__const" type="Const" version="opset1">
			<data element_type="f16" offset="2686208" shape="512,512,1,1" size="524288"/>
			<output>
				<port id="1" precision="FP16">
					<dim>512</dim>
					<dim>512</dim>
					<dim>1</dim>
					<dim>1</dim>
				</port>
			</output>
		</layer>
		<layer id="112" name="conv11/WithoutBiases" type="Convolution" version="opset1">
			<data dilations="1,1" output_padding="0,0" pads_begin="0,0" pads_end="0,0" strides="1,1"/>
			<input>
				<port id="0">
					<dim>1</dim>
					<dim>512</dim>
					<dim>19</dim>
					<dim>19</dim>
				</port>
				<port id="1">
					<dim>512</dim>
					<dim>512</dim>
					<dim>1</dim>
					<dim>1</dim>
				</port>
			</input>
			<output>
				<port id="2" precision="FP16">
					<dim>1</dim>
					<dim>512</dim>
					<dim>19</dim>
					<dim>19</dim>
				</port>
			</output>
		</layer>
		<layer id="113" name="conv11/Dims24143834/EltwiseUnsqueeze3962_const" type="Const" version="opset1">
			<data element_type="f16" offset="3210496" shape="1,512,1,1" size="1024"/>
			<output>
				<port id="1" precision="FP16">
					<dim>1</dim>
					<dim>512</dim>
					<dim>1</dim>
					<dim>1</dim>
				</port>
			</output>
		</layer>
		<layer id="114" name="conv11" type="Add" version="opset1">
			<input>
				<port id="0">
					<dim>1</dim>
					<dim>512</dim>
					<dim>19</dim>
					<dim>19</dim>
				</port>
				<port id="1">
					<dim>1</dim>
					<dim>512</dim>
					<dim>1</dim>
					<dim>1</dim>
				</port>
			</input>
			<output>
				<port id="2" precision="FP16">
					<dim>1</dim>
					<dim>512</dim>
					<dim>19</dim>
					<dim>19</dim>
				</port>
			</output>
		</layer>
		<layer id="115" name="conv11/relu" type="ReLU" version="opset1">
			<input>
				<port id="0">
					<dim>1</dim>
					<dim>512</dim>
					<dim>19</dim>
					<dim>19</dim>
				</port>
			</input>
			<output>
				<port id="1" precision="FP16">
					<dim>1</dim>
					<dim>512</dim>
					<dim>19</dim>
					<dim>19</dim>
				</port>
			</output>
		</layer>
		<layer id="116" name="196/Output_0/Data__const" type="Const" version="opset1">
			<data element_type="f16" offset="3211520" shape="12,512,1,1" size="12288"/>
			<output>
				<port id="1" precision="FP16">
					<dim>12</dim>
					<dim>512</dim>
					<dim>1</dim>
					<dim>1</dim>
				</port>
			</output>
		</layer>
		<layer id="117" name="conv11_mbox_loc/WithoutBiases" type="Convolution" version="opset1">
			<data dilations="1,1" output_padding="0,0" pads_begin="0,0" pads_end="0,0" strides="1,1"/>
			<input>
				<port id="0">
					<dim>1</dim>
					<dim>512</dim>
					<dim>19</dim>
					<dim>19</dim>
				</port>
				<port id="1">
					<dim>12</dim>
					<dim>512</dim>
					<dim>1</dim>
					<dim>1</dim>
				</port>
			</input>
			<output>
				<port id="2" precision="FP16">
					<dim>1</dim>
					<dim>12</dim>
					<dim>19</dim>
					<dim>19</dim>
				</port>
			</output>
		</layer>
		<layer id="118" name="conv11_mbox_loc/Dims23843829/EltwiseUnsqueeze3942_const" type="Const" version="opset1">
			<data element_type="f16" offset="3223808" shape="1,12,1,1" size="24"/>
			<output>
				<port id="1" precision="FP16">
					<dim>1</dim>
					<dim>12</dim>
					<dim>1</dim>
					<dim>1</dim>
				</port>
			</output>
		</layer>
		<layer id="119" name="conv11_mbox_loc" type="Add" version="opset1">
			<input>
				<port id="0">
					<dim>1</dim>
					<dim>12</dim>
					<dim>19</dim>
					<dim>19</dim>
				</port>
				<port id="1">
					<dim>1</dim>
					<dim>12</dim>
					<dim>1</dim>
					<dim>1</dim>
				</port>
			</input>
			<output>
				<port id="2" precision="FP16">
					<dim>1</dim>
					<dim>12</dim>
					<dim>19</dim>
					<dim>19</dim>
				</port>
			</output>
		</layer>
		<layer id="120" name="conv11_mbox_loc_perm/Cast_19896_const" type="Const" version="opset1">
			<data element_type="i64" offset="3223832" shape="4" size="32"/>
			<output>
				<port id="1" precision="I64">
					<dim>4</dim>
				</port>
			</output>
		</layer>
		<layer id="121" name="conv11_mbox_loc_perm" type="Transpose" version="opset1">
			<input>
				<port id="0">
					<dim>1</dim>
					<dim>12</dim>
					<dim>19</dim>
					<dim>19</dim>
				</port>
				<port id="1">
					<dim>4</dim>
				</port>
			</input>
			<output>
				<port id="2" precision="FP16">
					<dim>1</dim>
					<dim>19</dim>
					<dim>19</dim>
					<dim>12</dim>
				</port>
			</output>
		</layer>
		<layer id="122" name="conv11_mbox_loc_flat/Cast_19886_const" type="Const" version="opset1">
			<data element_type="i64" offset="3223864" shape="2" size="16"/>
			<output>
				<port id="1" precision="I64">
					<dim>2</dim>
				</port>
			</output>
		</layer>
		<layer id="123" name="conv11_mbox_loc_flat" type="Reshape" version="opset1">
			<data special_zero="True"/>
			<input>
				<port id="0">
					<dim>1</dim>
					<dim>19</dim>
					<dim>19</dim>
					<dim>12</dim>
				</port>
				<port id="1">
					<dim>2</dim>
				</port>
			</input>
			<output>
				<port id="2" precision="FP16">
					<dim>1</dim>
					<dim>4332</dim>
				</port>
			</output>
		</layer>
		<layer id="124" name="94619464_const" type="Const" version="opset1">
			<data element_type="f16" offset="3223880" shape="512,1,1,3,3" size="9216"/>
			<output>
				<port id="1" precision="FP16">
					<dim>512</dim>
					<dim>1</dim>
					<dim>1</dim>
					<dim>3</dim>
					<dim>3</dim>
				</port>
			</output>
		</layer>
		<layer id="125" name="conv12/dw/WithoutBiases" type="GroupConvolution" version="opset1">
			<data dilations="1,1" output_padding="0,0" pads_begin="1,1" pads_end="1,1" strides="2,2"/>
			<input>
				<port id="0">
					<dim>1</dim>
					<dim>512</dim>
					<dim>19</dim>
					<dim>19</dim>
				</port>
				<port id="1">
					<dim>512</dim>
					<dim>1</dim>
					<dim>1</dim>
					<dim>3</dim>
					<dim>3</dim>
				</port>
			</input>
			<output>
				<port id="2" precision="FP16">
					<dim>1</dim>
					<dim>512</dim>
					<dim>10</dim>
					<dim>10</dim>
				</port>
			</output>
		</layer>
		<layer id="126" name="conv12/dw/Dims24503840/EltwiseUnsqueeze3986_const" type="Const" version="opset1">
			<data element_type="f16" offset="3233096" shape="1,512,1,1" size="1024"/>
			<output>
				<port id="1" precision="FP16">
					<dim>1</dim>
					<dim>512</dim>
					<dim>1</dim>
					<dim>1</dim>
				</port>
			</output>
		</layer>
		<layer id="127" name="conv12/dw" type="Add" version="opset1">
			<input>
				<port id="0">
					<dim>1</dim>
					<dim>512</dim>
					<dim>10</dim>
					<dim>10</dim>
				</port>
				<port id="1">
					<dim>1</dim>
					<dim>512</dim>
					<dim>1</dim>
					<dim>1</dim>
				</port>
			</input>
			<output>
				<port id="2" precision="FP16">
					<dim>1</dim>
					<dim>512</dim>
					<dim>10</dim>
					<dim>10</dim>
				</port>
			</output>
		</layer>
		<layer id="128" name="conv12/dw/relu" type="ReLU" version="opset1">
			<input>
				<port id="0">
					<dim>1</dim>
					<dim>512</dim>
					<dim>10</dim>
					<dim>10</dim>
				</port>
			</input>
			<output>
				<port id="1" precision="FP16">
					<dim>1</dim>
					<dim>512</dim>
					<dim>10</dim>
					<dim>10</dim>
				</port>
			</output>
		</layer>
		<layer id="129" name="180/Output_0/Data__const" type="Const" version="opset1">
			<data element_type="f16" offset="3234120" shape="1024,512,1,1" size="1048576"/>
			<output>
				<port id="1" precision="FP16">
					<dim>1024</dim>
					<dim>512</dim>
					<dim>1</dim>
					<dim>1</dim>
				</port>
			</output>
		</layer>
		<layer id="130" name="conv12/WithoutBiases" type="Convolution" version="opset1">
			<data dilations="1,1" output_padding="0,0" pads_begin="0,0" pads_end="0,0" strides="1,1"/>
			<input>
				<port id="0">
					<dim>1</dim>
					<dim>512</dim>
					<dim>10</dim>
					<dim>10</dim>
				</port>
				<port id="1">
					<dim>1024</dim>
					<dim>512</dim>
					<dim>1</dim>
					<dim>1</dim>
				</port>
			</input>
			<output>
				<port id="2" precision="FP16">
					<dim>1</dim>
					<dim>1024</dim>
					<dim>10</dim>
					<dim>10</dim>
				</port>
			</output>
		</layer>
		<layer id="131" name="conv12/Dims25283853/EltwiseUnsqueeze4038_const" type="Const" version="opset1">
			<data element_type="f16" offset="4282696" shape="1,1024,1,1" size="2048"/>
			<output>
				<port id="1" precision="FP16">
					<dim>1</dim>
					<dim>1024</dim>
					<dim>1</dim>
					<dim>1</dim>
				</port>
			</output>
		</layer>
		<layer id="132" name="conv12" type="Add" version="opset1">
			<input>
				<port id="0">
					<dim>1</dim>
					<dim>1024</dim>
					<dim>10</dim>
					<dim>10</dim>
				</port>
				<port id="1">
					<dim>1</dim>
					<dim>1024</dim>
					<dim>1</dim>
					<dim>1</dim>
				</port>
			</input>
			<output>
				<port id="2" precision="FP16">
					<dim>1</dim>
					<dim>1024</dim>
					<dim>10</dim>
					<dim>10</dim>
				</port>
			</output>
		</layer>
		<layer id="133" name="conv12/relu" type="ReLU" version="opset1">
			<input>
				<port id="0">
					<dim>1</dim>
					<dim>1024</dim>
					<dim>10</dim>
					<dim>10</dim>
				</port>
			</input>
			<output>
				<port id="1" precision="FP16">
					<dim>1</dim>
					<dim>1024</dim>
					<dim>10</dim>
					<dim>10</dim>
				</port>
			</output>
		</layer>
		<layer id="134" name="94699472_const" type="Const" version="opset1">
			<data element_type="f16" offset="4284744" shape="1024,1,1,3,3" size="18432"/>
			<output>
				<port id="1" precision="FP16">
					<dim>1024</dim>
					<dim>1</dim>
					<dim>1</dim>
					<dim>3</dim>
					<dim>3</dim>
				</port>
			</output>
		</layer>
		<layer id="135" name="conv13/dw/WithoutBiases" type="GroupConvolution" version="opset1">
			<data dilations="1,1" output_padding="0,0" pads_begin="1,1" pads_end="1,1" strides="1,1"/>
			<input>
				<port id="0">
					<dim>1</dim>
					<dim>1024</dim>
					<dim>10</dim>
					<dim>10</dim>
				</port>
				<port id="1">
					<dim>1024</dim>
					<dim>1</dim>
					<dim>1</dim>
					<dim>3</dim>
					<dim>3</dim>
				</port>
			</input>
			<output>
				<port id="2" precision="FP16">
					<dim>1</dim>
					<dim>1024</dim>
					<dim>10</dim>
					<dim>10</dim>
				</port>
			</output>
		</layer>
		<layer id="136" name="conv13/dw/Dims24983848/EltwiseUnsqueeze4018_const" type="Const" version="opset1">
			<data element_type="f16" offset="4303176" shape="1,1024,1,1" size="2048"/>
			<output>
				<port id="1" precision="FP16">
					<dim>1</dim>
					<dim>1024</dim>
					<dim>1</dim>
					<dim>1</dim>
				</port>
			</output>
		</layer>
		<layer id="137" name="conv13/dw" type="Add" version="opset1">
			<input>
				<port id="0">
					<dim>1</dim>
					<dim>1024</dim>
					<dim>10</dim>
					<dim>10</dim>
				</port>
				<port id="1">
					<dim>1</dim>
					<dim>1024</dim>
					<dim>1</dim>
					<dim>1</dim>
				</port>
			</input>
			<output>
				<port id="2" precision="FP16">
					<dim>1</dim>
					<dim>1024</dim>
					<dim>10</dim>
					<dim>10</dim>
				</port>
			</output>
		</layer>
		<layer id="138" name="conv13/dw/relu" type="ReLU" version="opset1">
			<input>
				<port id="0">
					<dim>1</dim>
					<dim>1024</dim>
					<dim>10</dim>
					<dim>10</dim>
				</port>
			</input>
			<output>
				<port id="1" precision="FP16">
					<dim>1</dim>
					<dim>1024</dim>
					<dim>10</dim>
					<dim>10</dim>
				</port>
			</output>
		</layer>
		<layer id="139" name="210/Output_0/Data__const" type="Const" version="opset1">
			<data element_type="f16" offset="4305224" shape="1024,1024,1,1" size="2097152"/>
			<output>
				<port id="1" precision="FP16">
					<dim>1024</dim>
					<dim>1024</dim>
					<dim>1</dim>
					<dim>1</dim>
				</port>
			</output>
		</layer>
		<layer id="140" name="conv13/WithoutBiases" type="Convolution" version="opset1">
			<data dilations="1,1" output_padding="0,0" pads_begin="0,0" pads_end="0,0" strides="1,1"/>
			<input>
				<port id="0">
					<dim>1</dim>
					<dim>1024</dim>
					<dim>10</dim>
					<dim>10</dim>
				</port>
				<port id="1">
					<dim>1024</dim>
					<dim>1024</dim>
					<dim>1</dim>
					<dim>1</dim>
				</port>
			</input>
			<output>
				<port id="2" precision="FP16">
					<dim>1</dim>
					<dim>1024</dim>
					<dim>10</dim>
					<dim>10</dim>
				</port>
			</output>
		</layer>
		<layer id="141" name="conv13/Dims24023832/EltwiseUnsqueeze3954_const" type="Const" version="opset1">
			<data element_type="f16" offset="6402376" shape="1,1024,1,1" size="2048"/>
			<output>
				<port id="1" precision="FP16">
					<dim>1</dim>
					<dim>1024</dim>
					<dim>1</dim>
					<dim>1</dim>
				</port>
			</output>
		</layer>
		<layer id="142" name="conv13" type="Add" version="opset1">
			<input>
				<port id="0">
					<dim>1</dim>
					<dim>1024</dim>
					<dim>10</dim>
					<dim>10</dim>
				</port>
				<port id="1">
					<dim>1</dim>
					<dim>1024</dim>
					<dim>1</dim>
					<dim>1</dim>
				</port>
			</input>
			<output>
				<port id="2" precision="FP16">
					<dim>1</dim>
					<dim>1024</dim>
					<dim>10</dim>
					<dim>10</dim>
				</port>
			</output>
		</layer>
		<layer id="143" name="conv13/relu" type="ReLU" version="opset1">
			<input>
				<port id="0">
					<dim>1</dim>
					<dim>1024</dim>
					<dim>10</dim>
					<dim>10</dim>
				</port>
			</input>
			<output>
				<port id="1" precision="FP16">
					<dim>1</dim>
					<dim>1024</dim>
					<dim>10</dim>
					<dim>10</dim>
				</port>
			</output>
		</layer>
		<layer id="144" name="132/Output_0/Data__const" type="Const" version="opset1">
			<data element_type="f16" offset="6404424" shape="24,1024,1,1" size="49152"/>
			<output>
				<port id="1" precision="FP16">
					<dim>24</dim>
					<dim>1024</dim>
					<dim>1</dim>
					<dim>1</dim>
				</port>
			</output>
		</layer>
		<layer id="145" name="conv13_mbox_loc/WithoutBiases" type="Convolution" version="opset1">
			<data dilations="1,1" output_padding="0,0" pads_begin="0,0" pads_end="0,0" strides="1,1"/>
			<input>
				<port id="0">
					<dim>1</dim>
					<dim>1024</dim>
					<dim>10</dim>
					<dim>10</dim>
				</port>
				<port id="1">
					<dim>24</dim>
					<dim>1024</dim>
					<dim>1</dim>
					<dim>1</dim>
				</port>
			</input>
			<output>
				<port id="2" precision="FP16">
					<dim>1</dim>
					<dim>24</dim>
					<dim>10</dim>
					<dim>10</dim>
				</port>
			</output>
		</layer>
		<layer id="146" name="conv13_mbox_loc/Dims22643809/EltwiseUnsqueeze3862_const" type="Const" version="opset1">
			<data element_type="f16" offset="6453576" shape="1,24,1,1" size="48"/>
			<output>
				<port id="1" precision="FP16">
					<dim>1</dim>
					<dim>24</dim>
					<dim>1</dim>
					<dim>1</dim>
				</port>
			</output>
		</layer>
		<layer id="147" name="conv13_mbox_loc" type="Add" version="opset1">
			<input>
				<port id="0">
					<dim>1</dim>
					<dim>24</dim>
					<dim>10</dim>
					<dim>10</dim>
				</port>
				<port id="1">
					<dim>1</dim>
					<dim>24</dim>
					<dim>1</dim>
					<dim>1</dim>
				</port>
			</input>
			<output>
				<port id="2" precision="FP16">
					<dim>1</dim>
					<dim>24</dim>
					<dim>10</dim>
					<dim>10</dim>
				</port>
			</output>
		</layer>
		<layer id="148" name="conv13_mbox_loc_perm/Cast_19846_const" type="Const" version="opset1">
			<data element_type="i64" offset="3223832" shape="4" size="32"/>
			<output>
				<port id="1" precision="I64">
					<dim>4</dim>
				</port>
			</output>
		</layer>
		<layer id="149" name="conv13_mbox_loc_perm" type="Transpose" version="opset1">
			<input>
				<port id="0">
					<dim>1</dim>
					<dim>24</dim>
					<dim>10</dim>
					<dim>10</dim>
				</port>
				<port id="1">
					<dim>4</dim>
				</port>
			</input>
			<output>
				<port id="2" precision="FP16">
					<dim>1</dim>
					<dim>10</dim>
					<dim>10</dim>
					<dim>24</dim>
				</port>
			</output>
		</layer>
		<layer id="150" name="conv13_mbox_loc_flat/Cast_19818_const" type="Const" version="opset1">
			<data element_type="i64" offset="3223864" shape="2" size="16"/>
			<output>
				<port id="1" precision="I64">
					<dim>2</dim>
				</port>
			</output>
		</layer>
		<layer id="151" name="conv13_mbox_loc_flat" type="Reshape" version="opset1">
			<data special_zero="True"/>
			<input>
				<port id="0">
					<dim>1</dim>
					<dim>10</dim>
					<dim>10</dim>
					<dim>24</dim>
				</port>
				<port id="1">
					<dim>2</dim>
				</port>
			</input>
			<output>
				<port id="2" precision="FP16">
					<dim>1</dim>
					<dim>2400</dim>
				</port>
			</output>
		</layer>
		<layer id="152" name="156/Output_0/Data__const" type="Const" version="opset1">
			<data element_type="f16" offset="6453624" shape="256,1024,1,1" size="524288"/>
			<output>
				<port id="1" precision="FP16">
					<dim>256</dim>
					<dim>1024</dim>
					<dim>1</dim>
					<dim>1</dim>
				</port>
			</output>
		</layer>
		<layer id="153" name="conv14_1/WithoutBiases" type="Convolution" version="opset1">
			<data dilations="1,1" output_padding="0,0" pads_begin="0,0" pads_end="0,0" strides="1,1"/>
			<input>
				<port id="0">
					<dim>1</dim>
					<dim>1024</dim>
					<dim>10</dim>
					<dim>10</dim>
				</port>
				<port id="1">
					<dim>256</dim>
					<dim>1024</dim>
					<dim>1</dim>
					<dim>1</dim>
				</port>
			</input>
			<output>
				<port id="2" precision="FP16">
					<dim>1</dim>
					<dim>256</dim>
					<dim>10</dim>
					<dim>10</dim>
				</port>
			</output>
		</layer>
		<layer id="154" name="conv14_1/Dims24443839/EltwiseUnsqueeze3982_const" type="Const" version="opset1">
			<data element_type="f16" offset="6977912" shape="1,256,1,1" size="512"/>
			<output>
				<port id="1" precision="FP16">
					<dim>1</dim>
					<dim>256</dim>
					<dim>1</dim>
					<dim>1</dim>
				</port>
			</output>
		</layer>
		<layer id="155" name="conv14_1" type="Add" version="opset1">
			<input>
				<port id="0">
					<dim>1</dim>
					<dim>256</dim>
					<dim>10</dim>
					<dim>10</dim>
				</port>
				<port id="1">
					<dim>1</dim>
					<dim>256</dim>
					<dim>1</dim>
					<dim>1</dim>
				</port>
			</input>
			<output>
				<port id="2" precision="FP16">
					<dim>1</dim>
					<dim>256</dim>
					<dim>10</dim>
					<dim>10</dim>
				</port>
			</output>
		</layer>
		<layer id="156" name="conv14_1/relu" type="ReLU" version="opset1">
			<input>
				<port id="0">
					<dim>1</dim>
					<dim>256</dim>
					<dim>10</dim>
					<dim>10</dim>
				</port>
			</input>
			<output>
				<port id="1" precision="FP16">
					<dim>1</dim>
					<dim>256</dim>
					<dim>10</dim>
					<dim>10</dim>
				</port>
			</output>
		</layer>
		<layer id="157" name="146/Output_0/Data__const" type="Const" version="opset1">
			<data element_type="f16" offset="6978424" shape="512,256,3,3" size="2359296"/>
			<output>
				<port id="1" precision="FP16">
					<dim>512</dim>
					<dim>256</dim>
					<dim>3</dim>
					<dim>3</dim>
				</port>
			</output>
		</layer>
		<layer id="158" name="conv14_2/WithoutBiases" type="Convolution" version="opset1">
			<data dilations="1,1" output_padding="0,0" pads_begin="1,1" pads_end="1,1" strides="2,2"/>
			<input>
				<port id="0">
					<dim>1</dim>
					<dim>256</dim>
					<dim>10</dim>
					<dim>10</dim>
				</port>
				<port id="1">
					<dim>512</dim>
					<dim>256</dim>
					<dim>3</dim>
					<dim>3</dim>
				</port>
			</input>
			<output>
				<port id="2" precision="FP16">
					<dim>1</dim>
					<dim>512</dim>
					<dim>5</dim>
					<dim>5</dim>
				</port>
			</output>
		</layer>
		<layer id="159" name="conv14_2/Dims24383838/EltwiseUnsqueeze3978_const" type="Const" version="opset1">
			<data element_type="f16" offset="9337720" shape="1,512,1,1" size="1024"/>
			<output>
				<port id="1" precision="FP16">
					<dim>1</dim>
					<dim>512</dim>
					<dim>1</dim>
					<dim>1</dim>
				</port>
			</output>
		</layer>
		<layer id="160" name="conv14_2" type="Add" version="opset1">
			<input>
				<port id="0">
					<dim>1</dim>
					<dim>512</dim>
					<dim>5</dim>
					<dim>5</dim>
				</port>
				<port id="1">
					<dim>1</dim>
					<dim>512</dim>
					<dim>1</dim>
					<dim>1</dim>
				</port>
			</input>
			<output>
				<port id="2" precision="FP16">
					<dim>1</dim>
					<dim>512</dim>
					<dim>5</dim>
					<dim>5</dim>
				</port>
			</output>
		</layer>
		<layer id="161" name="conv14_2/relu" type="ReLU" version="opset1">
			<input>
				<port id="0">
					<dim>1</dim>
					<dim>512</dim>
					<dim>5</dim>
					<dim>5</dim>
				</port>
			</input>
			<output>
				<port id="1" precision="FP16">
					<dim>1</dim>
					<dim>512</dim>
					<dim>5</dim>
					<dim>5</dim>
				</port>
			</output>
		</layer>
		<layer id="162" name="192/Output_0/Data__const" type="Const" version="opset1">
			<data element_type="f16" offset="9338744" shape="24,512,1,1" size="24576"/>
			<output>
				<port id="1" precision="FP16">
					<dim>24</dim>
					<dim>512</dim>
					<dim>1</dim>
					<dim>1</dim>
				</port>
			</output>
		</layer>
		<layer id="163" name="conv14_2_mbox_loc/WithoutBiases" type="Convolution" version="opset1">
			<data dilations="1,1" output_padding="0,0" pads_begin="0,0" pads_end="0,0" strides="1,1"/>
			<input>
				<port id="0">
					<dim>1</dim>
					<dim>512</dim>
					<dim>5</dim>
					<dim>5</dim>
				</port>
				<port id="1">
					<dim>24</dim>
					<dim>512</dim>
					<dim>1</dim>
					<dim>1</dim>
				</port>
			</input>
			<output>
				<port id="2" precision="FP16">
					<dim>1</dim>
					<dim>24</dim>
					<dim>5</dim>
					<dim>5</dim>
				</port>
			</output>
		</layer>
		<layer id="164" name="conv14_2_mbox_loc/Dims24803845/EltwiseUnsqueeze4006_const" type="Const" version="opset1">
			<data element_type="f16" offset="9363320" shape="1,24,1,1" size="48"/>
			<output>
				<port id="1" precision="FP16">
					<dim>1</dim>
					<dim>24</dim>
					<dim>1</dim>
					<dim>1</dim>
				</port>
			</output>
		</layer>
		<layer id="165" name="conv14_2_mbox_loc" type="Add" version="opset1">
			<input>
				<port id="0">
					<dim>1</dim>
					<dim>24</dim>
					<dim>5</dim>
					<dim>5</dim>
				</port>
				<port id="1">
					<dim>1</dim>
					<dim>24</dim>
					<dim>1</dim>
					<dim>1</dim>
				</port>
			</input>
			<output>
				<port id="2" precision="FP16">
					<dim>1</dim>
					<dim>24</dim>
					<dim>5</dim>
					<dim>5</dim>
				</port>
			</output>
		</layer>
		<layer id="166" name="conv14_2_mbox_loc_perm/Cast_19784_const" type="Const" version="opset1">
			<data element_type="i64" offset="3223832" shape="4" size="32"/>
			<output>
				<port id="1" precision="I64">
					<dim>4</dim>
				</port>
			</output>
		</layer>
		<layer id="167" name="conv14_2_mbox_loc_perm" type="Transpose" version="opset1">
			<input>
				<port id="0">
					<dim>1</dim>
					<dim>24</dim>
					<dim>5</dim>
					<dim>5</dim>
				</port>
				<port id="1">
					<dim>4</dim>
				</port>
			</input>
			<output>
				<port id="2" precision="FP16">
					<dim>1</dim>
					<dim>5</dim>
					<dim>5</dim>
					<dim>24</dim>
				</port>
			</output>
		</layer>
		<layer id="168" name="conv14_2_mbox_loc_flat/Cast_19802_const" type="Const" version="opset1">
			<data element_type="i64" offset="3223864" shape="2" size="16"/>
			<output>
				<port id="1" precision="I64">
					<dim>2</dim>
				</port>
			</output>
		</layer>
		<layer id="169" name="conv14_2_mbox_loc_flat" type="Reshape" version="opset1">
			<data special_zero="True"/>
			<input>
				<port id="0">
					<dim>1</dim>
					<dim>5</dim>
					<dim>5</dim>
					<dim>24</dim>
				</port>
				<port id="1">
					<dim>2</dim>
				</port>
			</input>
			<output>
				<port id="2" precision="FP16">
					<dim>1</dim>
					<dim>600</dim>
				</port>
			</output>
		</layer>
		<layer id="170" name="186/Output_0/Data__const" type="Const" version="opset1">
			<data element_type="f16" offset="9363368" shape="128,512,1,1" size="131072"/>
			<output>
				<port id="1" precision="FP16">
					<dim>128</dim>
					<dim>512</dim>
					<dim>1</dim>
					<dim>1</dim>
				</port>
			</output>
		</layer>
		<layer id="171" name="conv15_1/WithoutBiases" type="Convolution" version="opset1">
			<data dilations="1,1" output_padding="0,0" pads_begin="0,0" pads_end="0,0" strides="1,1"/>
			<input>
				<port id="0">
					<dim>1</dim>
					<dim>512</dim>
					<dim>5</dim>
					<dim>5</dim>
				</port>
				<port id="1">
					<dim>128</dim>
					<dim>512</dim>
					<dim>1</dim>
					<dim>1</dim>
				</port>
			</input>
			<output>
				<port id="2" precision="FP16">
					<dim>1</dim>
					<dim>128</dim>
					<dim>5</dim>
					<dim>5</dim>
				</port>
			</output>
		</layer>
		<layer id="172" name="conv15_1/Dims23003815/EltwiseUnsqueeze3886_const" type="Const" version="opset1">
			<data element_type="f16" offset="9494440" shape="1,128,1,1" size="256"/>
			<output>
				<port id="1" precision="FP16">
					<dim>1</dim>
					<dim>128</dim>
					<dim>1</dim>
					<dim>1</dim>
				</port>
			</output>
		</layer>
		<layer id="173" name="conv15_1" type="Add" version="opset1">
			<input>
				<port id="0">
					<dim>1</dim>
					<dim>128</dim>
					<dim>5</dim>
					<dim>5</dim>
				</port>
				<port id="1">
					<dim>1</dim>
					<dim>128</dim>
					<dim>1</dim>
					<dim>1</dim>
				</port>
			</input>
			<output>
				<port id="2" precision="FP16">
					<dim>1</dim>
					<dim>128</dim>
					<dim>5</dim>
					<dim>5</dim>
				</port>
			</output>
		</layer>
		<layer id="174" name="conv15_1/relu" type="ReLU" version="opset1">
			<input>
				<port id="0">
					<dim>1</dim>
					<dim>128</dim>
					<dim>5</dim>
					<dim>5</dim>
				</port>
			</input>
			<output>
				<port id="1" precision="FP16">
					<dim>1</dim>
					<dim>128</dim>
					<dim>5</dim>
					<dim>5</dim>
				</port>
			</output>
		</layer>
		<layer id="175" name="154/Output_0/Data__const" type="Const" version="opset1">
			<data element_type="f16" offset="9494696" shape="256,128,3,3" size="589824"/>
			<output>
				<port id="1" precision="FP16">
					<dim>256</dim>
					<dim>128</dim>
					<dim>3</dim>
					<dim>3</dim>
				</port>
			</output>
		</layer>
		<layer id="176" name="conv15_2/WithoutBiases" type="Convolution" version="opset1">
			<data dilations="1,1" output_padding="0,0" pads_begin="1,1" pads_end="1,1" strides="2,2"/>
			<input>
				<port id="0">
					<dim>1</dim>
					<dim>128</dim>
					<dim>5</dim>
					<dim>5</dim>
				</port>
				<port id="1">
					<dim>256</dim>
					<dim>128</dim>
					<dim>3</dim>
					<dim>3</dim>
				</port>
			</input>
			<output>
				<port id="2" precision="FP16">
					<dim>1</dim>
					<dim>256</dim>
					<dim>3</dim>
					<dim>3</dim>
				</port>
			</output>
		</layer>
		<layer id="177" name="conv15_2/Dims23543824/EltwiseUnsqueeze3922_const" type="Const" version="opset1">
			<data element_type="f16" offset="10084520" shape="1,256,1,1" size="512"/>
			<output>
				<port id="1" precision="FP16">
					<dim>1</dim>
					<dim>256</dim>
					<dim>1</dim>
					<dim>1</dim>
				</port>
			</output>
		</layer>
		<layer id="178" name="conv15_2" type="Add" version="opset1">
			<input>
				<port id="0">
					<dim>1</dim>
					<dim>256</dim>
					<dim>3</dim>
					<dim>3</dim>
				</port>
				<port id="1">
					<dim>1</dim>
					<dim>256</dim>
					<dim>1</dim>
					<dim>1</dim>
				</port>
			</input>
			<output>
				<port id="2" precision="FP16">
					<dim>1</dim>
					<dim>256</dim>
					<dim>3</dim>
					<dim>3</dim>
				</port>
			</output>
		</layer>
		<layer id="179" name="conv15_2/relu" type="ReLU" version="opset1">
			<input>
				<port id="0">
					<dim>1</dim>
					<dim>256</dim>
					<dim>3</dim>
					<dim>3</dim>
				</port>
			</input>
			<output>
				<port id="1" precision="FP16">
					<dim>1</dim>
					<dim>256</dim>
					<dim>3</dim>
					<dim>3</dim>
				</port>
			</output>
		</layer>
		<layer id="180" name="174/Output_0/Data__const" type="Const" version="opset1">
			<data element_type="f16" offset="10085032" shape="24,256,1,1" size="12288"/>
			<output>
				<port id="1" precision="FP16">
					<dim>24</dim>
					<dim>256</dim>
					<dim>1</dim>
					<dim>1</dim>
				</port>
			</output>
		</layer>
		<layer id="181" name="conv15_2_mbox_loc/WithoutBiases" type="Convolution" version="opset1">
			<data dilations="1,1" output_padding="0,0" pads_begin="0,0" pads_end="0,0" strides="1,1"/>
			<input>
				<port id="0">
					<dim>1</dim>
					<dim>256</dim>
					<dim>3</dim>
					<dim>3</dim>
				</port>
				<port id="1">
					<dim>24</dim>
					<dim>256</dim>
					<dim>1</dim>
					<dim>1</dim>
				</port>
			</input>
			<output>
				<port id="2" precision="FP16">
					<dim>1</dim>
					<dim>24</dim>
					<dim>3</dim>
					<dim>3</dim>
				</port>
			</output>
		</layer>
		<layer id="182" name="conv15_2_mbox_loc/Dims25223852/EltwiseUnsqueeze4034_const" type="Const" version="opset1">
			<data element_type="f16" offset="10097320" shape="1,24,1,1" size="48"/>
			<output>
				<port id="1" precision="FP16">
					<dim>1</dim>
					<dim>24</dim>
					<dim>1</dim>
					<dim>1</dim>
				</port>
			</output>
		</layer>
		<layer id="183" name="conv15_2_mbox_loc" type="Add" version="opset1">
			<input>
				<port id="0">
					<dim>1</dim>
					<dim>24</dim>
					<dim>3</dim>
					<dim>3</dim>
				</port>
				<port id="1">
					<dim>1</dim>
					<dim>24</dim>
					<dim>1</dim>
					<dim>1</dim>
				</port>
			</input>
			<output>
				<port id="2" precision="FP16">
					<dim>1</dim>
					<dim>24</dim>
					<dim>3</dim>
					<dim>3</dim>
				</port>
			</output>
		</layer>
		<layer id="184" name="conv15_2_mbox_loc_perm/Cast_19780_const" type="Const" version="opset1">
			<data element_type="i64" offset="3223832" shape="4" size="32"/>
			<output>
				<port id="1" precision="I64">
					<dim>4</dim>
				</port>
			</output>
		</layer>
		<layer id="185" name="conv15_2_mbox_loc_perm" type="Transpose" version="opset1">
			<input>
				<port id="0">
					<dim>1</dim>
					<dim>24</dim>
					<dim>3</dim>
					<dim>3</dim>
				</port>
				<port id="1">
					<dim>4</dim>
				</port>
			</input>
			<output>
				<port id="2" precision="FP16">
					<dim>1</dim>
					<dim>3</dim>
					<dim>3</dim>
					<dim>24</dim>
				</port>
			</output>
		</layer>
		<layer id="186" name="conv15_2_mbox_loc_flat/Cast_19840_const" type="Const" version="opset1">
			<data element_type="i64" offset="3223864" shape="2" size="16"/>
			<output>
				<port id="1" precision="I64">
					<dim>2</dim>
				</port>
			</output>
		</layer>
		<layer id="187" name="conv15_2_mbox_loc_flat" type="Reshape" version="opset1">
			<data special_zero="True"/>
			<input>
				<port id="0">
					<dim>1</dim>
					<dim>3</dim>
					<dim>3</dim>
					<dim>24</dim>
				</port>
				<port id="1">
					<dim>2</dim>
				</port>
			</input>
			<output>
				<port id="2" precision="FP16">
					<dim>1</dim>
					<dim>216</dim>
				</port>
			</output>
		</layer>
		<layer id="188" name="172/Output_0/Data__const" type="Const" version="opset1">
			<data element_type="f16" offset="10097368" shape="128,256,1,1" size="65536"/>
			<output>
				<port id="1" precision="FP16">
					<dim>128</dim>
					<dim>256</dim>
					<dim>1</dim>
					<dim>1</dim>
				</port>
			</output>
		</layer>
		<layer id="189" name="conv16_1/WithoutBiases" type="Convolution" version="opset1">
			<data dilations="1,1" output_padding="0,0" pads_begin="0,0" pads_end="0,0" strides="1,1"/>
			<input>
				<port id="0">
					<dim>1</dim>
					<dim>256</dim>
					<dim>3</dim>
					<dim>3</dim>
				</port>
				<port id="1">
					<dim>128</dim>
					<dim>256</dim>
					<dim>1</dim>
					<dim>1</dim>
				</port>
			</input>
			<output>
				<port id="2" precision="FP16">
					<dim>1</dim>
					<dim>128</dim>
					<dim>3</dim>
					<dim>3</dim>
				</port>
			</output>
		</layer>
		<layer id="190" name="conv16_1/Dims24623842/EltwiseUnsqueeze3994_const" type="Const" version="opset1">
			<data element_type="f16" offset="10162904" shape="1,128,1,1" size="256"/>
			<output>
				<port id="1" precision="FP16">
					<dim>1</dim>
					<dim>128</dim>
					<dim>1</dim>
					<dim>1</dim>
				</port>
			</output>
		</layer>
		<layer id="191" name="conv16_1" type="Add" version="opset1">
			<input>
				<port id="0">
					<dim>1</dim>
					<dim>128</dim>
					<dim>3</dim>
					<dim>3</dim>
				</port>
				<port id="1">
					<dim>1</dim>
					<dim>128</dim>
					<dim>1</dim>
					<dim>1</dim>
				</port>
			</input>
			<output>
				<port id="2" precision="FP16">
					<dim>1</dim>
					<dim>128</dim>
					<dim>3</dim>
					<dim>3</dim>
				</port>
			</output>
		</layer>
		<layer id="192" name="conv16_1/relu" type="ReLU" version="opset1">
			<input>
				<port id="0">
					<dim>1</dim>
					<dim>128</dim>
					<dim>3</dim>
					<dim>3</dim>
				</port>
			</input>
			<output>
				<port id="1" precision="FP16">
					<dim>1</dim>
					<dim>128</dim>
					<dim>3</dim>
					<dim>3</dim>
				</port>
			</output>
		</layer>
		<layer id="193" name="136/Output_0/Data__const" type="Const" version="opset1">
			<data element_type="f16" offset="10163160" shape="256,128,3,3" size="589824"/>
			<output>
				<port id="1" precision="FP16">
					<dim>256</dim>
					<dim>128</dim>
					<dim>3</dim>
					<dim>3</dim>
				</port>
			</output>
		</layer>
		<layer id="194" name="conv16_2/WithoutBiases" type="Convolution" version="opset1">
			<data dilations="1,1" output_padding="0,0" pads_begin="1,1" pads_end="1,1" strides="2,2"/>
			<input>
				<port id="0">
					<dim>1</dim>
					<dim>128</dim>
					<dim>3</dim>
					<dim>3</dim>
				</port>
				<port id="1">
					<dim>256</dim>
					<dim>128</dim>
					<dim>3</dim>
					<dim>3</dim>
				</port>
			</input>
			<output>
				<port id="2" precision="FP16">
					<dim>1</dim>
					<dim>256</dim>
					<dim>2</dim>
					<dim>2</dim>
				</port>
			</output>
		</layer>
		<layer id="195" name="conv16_2/Dims24203835/EltwiseUnsqueeze3966_const" type="Const" version="opset1">
			<data element_type="f16" offset="10752984" shape="1,256,1,1" size="512"/>
			<output>
				<port id="1" precision="FP16">
					<dim>1</dim>
					<dim>256</dim>
					<dim>1</dim>
					<dim>1</dim>
				</port>
			</output>
		</layer>
		<layer id="196" name="conv16_2" type="Add" version="opset1">
			<input>
				<port id="0">
					<dim>1</dim>
					<dim>256</dim>
					<dim>2</dim>
					<dim>2</dim>
				</port>
				<port id="1">
					<dim>1</dim>
					<dim>256</dim>
					<dim>1</dim>
					<dim>1</dim>
				</port>
			</input>
			<output>
				<port id="2" precision="FP16">
					<dim>1</dim>
					<dim>256</dim>
					<dim>2</dim>
					<dim>2</dim>
				</port>
			</output>
		</layer>
		<layer id="197" name="conv16_2/relu" type="ReLU" version="opset1">
			<input>
				<port id="0">
					<dim>1</dim>
					<dim>256</dim>
					<dim>2</dim>
					<dim>2</dim>
				</port>
			</input>
			<output>
				<port id="1" precision="FP16">
					<dim>1</dim>
					<dim>256</dim>
					<dim>2</dim>
					<dim>2</dim>
				</port>
			</output>
		</layer>
		<layer id="198" name="164/Output_0/Data__const" type="Const" version="opset1">
			<data element_type="f16" offset="10753496" shape="24,256,1,1" size="12288"/>
			<output>
				<port id="1" precision="FP16">
					<dim>24</dim>
					<dim>256</dim>
					<dim>1</dim>
					<dim>1</dim>
				</port>
			</output>
		</layer>
		<layer id="199" name="conv16_2_mbox_loc/WithoutBiases" type="Convolution" version="opset1">
			<data dilations="1,1" output_padding="0,0" pads_begin="0,0" pads_end="0,0" strides="1,1"/>
			<input>
				<port id="0">
					<dim>1</dim>
					<dim>256</dim>
					<dim>2</dim>
					<dim>2</dim>
				</port>
				<port id="1">
					<dim>24</dim>
					<dim>256</dim>
					<dim>1</dim>
					<dim>1</dim>
				</port>
			</input>
			<output>
				<port id="2" precision="FP16">
					<dim>1</dim>
					<dim>24</dim>
					<dim>2</dim>
					<dim>2</dim>
				</port>
			</output>
		</layer>
		<layer id="200" name="conv16_2_mbox_loc/Dims23663826/EltwiseUnsqueeze3930_const" type="Const" version="opset1">
			<data element_type="f16" offset="10765784" shape="1,24,1,1" size="48"/>
			<output>
				<port id="1" precision="FP16">
					<dim>1</dim>
					<dim>24</dim>
					<dim>1</dim>
					<dim>1</dim>
				</port>
			</output>
		</layer>
		<layer id="201" name="conv16_2_mbox_loc" type="Add" version="opset1">
			<input>
				<port id="0">
					<dim>1</dim>
					<dim>24</dim>
					<dim>2</dim>
					<dim>2</dim>
				</port>
				<port id="1">
					<dim>1</dim>
					<dim>24</dim>
					<dim>1</dim>
					<dim>1</dim>
				</port>
			</input>
			<output>
				<port id="2" precision="FP16">
					<dim>1</dim>
					<dim>24</dim>
					<dim>2</dim>
					<dim>2</dim>
				</port>
			</output>
		</layer>
		<layer id="202" name="conv16_2_mbox_loc_perm/Cast_19838_const" type="Const" version="opset1">
			<data element_type="i64" offset="3223832" shape="4" size="32"/>
			<output>
				<port id="1" precision="I64">
					<dim>4</dim>
				</port>
			</output>
		</layer>
		<layer id="203" name="conv16_2_mbox_loc_perm" type="Transpose" version="opset1">
			<input>
				<port id="0">
					<dim>1</dim>
					<dim>24</dim>
					<dim>2</dim>
					<dim>2</dim>
				</port>
				<port id="1">
					<dim>4</dim>
				</port>
			</input>
			<output>
				<port id="2" precision="FP16">
					<dim>1</dim>
					<dim>2</dim>
					<dim>2</dim>
					<dim>24</dim>
				</port>
			</output>
		</layer>
		<layer id="204" name="conv16_2_mbox_loc_flat/Cast_19868_const" type="Const" version="opset1">
			<data element_type="i64" offset="3223864" shape="2" size="16"/>
			<output>
				<port id="1" precision="I64">
					<dim>2</dim>
				</port>
			</output>
		</layer>
		<layer id="205" name="conv16_2_mbox_loc_flat" type="Reshape" version="opset1">
			<data special_zero="True"/>
			<input>
				<port id="0">
					<dim>1</dim>
					<dim>2</dim>
					<dim>2</dim>
					<dim>24</dim>
				</port>
				<port id="1">
					<dim>2</dim>
				</port>
			</input>
			<output>
				<port id="2" precision="FP16">
					<dim>1</dim>
					<dim>96</dim>
				</port>
			</output>
		</layer>
		<layer id="206" name="134/Output_0/Data__const" type="Const" version="opset1">
			<data element_type="f16" offset="10765832" shape="64,256,1,1" size="32768"/>
			<output>
				<port id="1" precision="FP16">
					<dim>64</dim>
					<dim>256</dim>
					<dim>1</dim>
					<dim>1</dim>
				</port>
			</output>
		</layer>
		<layer id="207" name="conv17_1/WithoutBiases" type="Convolution" version="opset1">
			<data dilations="1,1" output_padding="0,0" pads_begin="0,0" pads_end="0,0" strides="1,1"/>
			<input>
				<port id="0">
					<dim>1</dim>
					<dim>256</dim>
					<dim>2</dim>
					<dim>2</dim>
				</port>
				<port id="1">
					<dim>64</dim>
					<dim>256</dim>
					<dim>1</dim>
					<dim>1</dim>
				</port>
			</input>
			<output>
				<port id="2" precision="FP16">
					<dim>1</dim>
					<dim>64</dim>
					<dim>2</dim>
					<dim>2</dim>
				</port>
			</output>
		</layer>
		<layer id="208" name="conv17_1/Dims23483823/EltwiseUnsqueeze3918_const" type="Const" version="opset1">
			<data element_type="f16" offset="10798600" shape="1,64,1,1" size="128"/>
			<output>
				<port id="1" precision="FP16">
					<dim>1</dim>
					<dim>64</dim>
					<dim>1</dim>
					<dim>1</dim>
				</port>
			</output>
		</layer>
		<layer id="209" name="conv17_1" type="Add" version="opset1">
			<input>
				<port id="0">
					<dim>1</dim>
					<dim>64</dim>
					<dim>2</dim>
					<dim>2</dim>
				</port>
				<port id="1">
					<dim>1</dim>
					<dim>64</dim>
					<dim>1</dim>
					<dim>1</dim>
				</port>
			</input>
			<output>
				<port id="2" precision="FP16">
					<dim>1</dim>
					<dim>64</dim>
					<dim>2</dim>
					<dim>2</dim>
				</port>
			</output>
		</layer>
		<layer id="210" name="conv17_1/relu" type="ReLU" version="opset1">
			<input>
				<port id="0">
					<dim>1</dim>
					<dim>64</dim>
					<dim>2</dim>
					<dim>2</dim>
				</port>
			</input>
			<output>
				<port id="1" precision="FP16">
					<dim>1</dim>
					<dim>64</dim>
					<dim>2</dim>
					<dim>2</dim>
				</port>
			</output>
		</layer>
		<layer id="211" name="150/Output_0/Data__const" type="Const" version="opset1">
			<data element_type="f16" offset="10798728" shape="128,64,3,3" size="147456"/>
			<output>
				<port id="1" precision="FP16">
					<dim>128</dim>
					<dim>64</dim>
					<dim>3</dim>
					<dim>3</dim>
				</port>
			</output>
		</layer>
		<layer id="212" name="conv17_2/WithoutBiases" type="Convolution" version="opset1">
			<data dilations="1,1" output_padding="0,0" pads_begin="1,1" pads_end="1,1" strides="2,2"/>
			<input>
				<port id="0">
					<dim>1</dim>
					<dim>64</dim>
					<dim>2</dim>
					<dim>2</dim>
				</port>
				<port id="1">
					<dim>128</dim>
					<dim>64</dim>
					<dim>3</dim>
					<dim>3</dim>
				</port>
			</input>
			<output>
				<port id="2" precision="FP16">
					<dim>1</dim>
					<dim>128</dim>
					<dim>1</dim>
					<dim>1</dim>
				</port>
			</output>
		</layer>
		<layer id="213" name="conv17_2/Dims22823812/EltwiseUnsqueeze3874_const" type="Const" version="opset1">
			<data element_type="f16" offset="10946184" shape="1,128,1,1" size="256"/>
			<output>
				<port id="1" precision="FP16">
					<dim>1</dim>
					<dim>128</dim>
					<dim>1</dim>
					<dim>1</dim>
				</port>
			</output>
		</layer>
		<layer id="214" name="conv17_2" type="Add" version="opset1">
			<input>
				<port id="0">
					<dim>1</dim>
					<dim>128</dim>
					<dim>1</dim>
					<dim>1</dim>
				</port>
				<port id="1">
					<dim>1</dim>
					<dim>128</dim>
					<dim>1</dim>
					<dim>1</dim>
				</port>
			</input>
			<output>
				<port id="2" precision="FP16">
					<dim>1</dim>
					<dim>128</dim>
					<dim>1</dim>
					<dim>1</dim>
				</port>
			</output>
		</layer>
		<layer id="215" name="conv17_2/relu" type="ReLU" version="opset1">
			<input>
				<port id="0">
					<dim>1</dim>
					<dim>128</dim>
					<dim>1</dim>
					<dim>1</dim>
				</port>
			</input>
			<output>
				<port id="1" precision="FP16">
					<dim>1</dim>
					<dim>128</dim>
					<dim>1</dim>
					<dim>1</dim>
				</port>
			</output>
		</layer>
		<layer id="216" name="144/Output_0/Data__const" type="Const" version="opset1">
			<data element_type="f16" offset="10946440" shape="24,128,1,1" size="6144"/>
			<output>
				<port id="1" precision="FP16">
					<dim>24</dim>
					<dim>128</dim>
					<dim>1</dim>
					<dim>1</dim>
				</port>
			</output>
		</layer>
		<layer id="217" name="conv17_2_mbox_loc/WithoutBiases" type="Convolution" version="opset1">
			<data dilations="1,1" output_padding="0,0" pads_begin="0,0" pads_end="0,0" strides="1,1"/>
			<input>
				<port id="0">
					<dim>1</dim>
					<dim>128</dim>
					<dim>1</dim>
					<dim>1</dim>
				</port>
				<port id="1">
					<dim>24</dim>
					<dim>128</dim>
					<dim>1</dim>
					<dim>1</dim>
				</port>
			</input>
			<output>
				<port id="2" precision="FP16">
					<dim>1</dim>
					<dim>24</dim>
					<dim>1</dim>
					<dim>1</dim>
				</port>
			</output>
		</layer>
		<layer id="218" name="conv17_2_mbox_loc/Dims22763811/EltwiseUnsqueeze3870_const" type="Const" version="opset1">
			<data element_type="f16" offset="10952584" shape="1,24,1,1" size="48"/>
			<output>
				<port id="1" precision="FP16">
					<dim>1</dim>
					<dim>24</dim>
					<dim>1</dim>
					<dim>1</dim>
				</port>
			</output>
		</layer>
		<layer id="219" name="conv17_2_mbox_loc" type="Add" version="opset1">
			<input>
				<port id="0">
					<dim>1</dim>
					<dim>24</dim>
					<dim>1</dim>
					<dim>1</dim>
				</port>
				<port id="1">
					<dim>1</dim>
					<dim>24</dim>
					<dim>1</dim>
					<dim>1</dim>
				</port>
			</input>
			<output>
				<port id="2" precision="FP16">
					<dim>1</dim>
					<dim>24</dim>
					<dim>1</dim>
					<dim>1</dim>
				</port>
			</output>
		</layer>
		<layer id="220" name="conv17_2_mbox_loc_perm/Cast_19820_const" type="Const" version="opset1">
			<data element_type="i64" offset="3223832" shape="4" size="32"/>
			<output>
				<port id="1" precision="I64">
					<dim>4</dim>
				</port>
			</output>
		</layer>
		<layer id="221" name="conv17_2_mbox_loc_perm" type="Transpose" version="opset1">
			<input>
				<port id="0">
					<dim>1</dim>
					<dim>24</dim>
					<dim>1</dim>
					<dim>1</dim>
				</port>
				<port id="1">
					<dim>4</dim>
				</port>
			</input>
			<output>
				<port id="2" precision="FP16">
					<dim>1</dim>
					<dim>1</dim>
					<dim>1</dim>
					<dim>24</dim>
				</port>
			</output>
		</layer>
		<layer id="222" name="conv17_2_mbox_loc_flat/Cast_19816_const" type="Const" version="opset1">
			<data element_type="i64" offset="3223864" shape="2" size="16"/>
			<output>
				<port id="1" precision="I64">
					<dim>2</dim>
				</port>
			</output>
		</layer>
		<layer id="223" name="conv17_2_mbox_loc_flat" type="Reshape" version="opset1">
			<data special_zero="True"/>
			<input>
				<port id="0">
					<dim>1</dim>
					<dim>1</dim>
					<dim>1</dim>
					<dim>24</dim>
				</port>
				<port id="1">
					<dim>2</dim>
				</port>
			</input>
			<output>
				<port id="2" precision="FP16">
					<dim>1</dim>
					<dim>24</dim>
				</port>
			</output>
		</layer>
		<layer id="224" name="mbox_loc" type="Concat" version="opset1">
			<data axis="1"/>
			<input>
				<port id="0">
					<dim>1</dim>
					<dim>4332</dim>
				</port>
				<port id="1">
					<dim>1</dim>
					<dim>2400</dim>
				</port>
				<port id="2">
					<dim>1</dim>
					<dim>600</dim>
				</port>
				<port id="3">
					<dim>1</dim>
					<dim>216</dim>
				</port>
				<port id="4">
					<dim>1</dim>
					<dim>96</dim>
				</port>
				<port id="5">
					<dim>1</dim>
					<dim>24</dim>
				</port>
			</input>
			<output>
				<port id="6" precision="FP16">
					<dim>1</dim>
					<dim>7668</dim>
				</port>
			</output>
		</layer>
		<layer id="225" name="160/Output_0/Data__const" type="Const" version="opset1">
			<data element_type="f16" offset="10952632" shape="63,512,1,1" size="64512"/>
			<output>
				<port id="1" precision="FP16">
					<dim>63</dim>
					<dim>512</dim>
					<dim>1</dim>
					<dim>1</dim>
				</port>
			</output>
		</layer>
		<layer id="226" name="conv11_mbox_conf/WithoutBiases" type="Convolution" version="opset1">
			<data dilations="1,1" output_padding="0,0" pads_begin="0,0" pads_end="0,0" strides="1,1"/>
			<input>
				<port id="0">
					<dim>1</dim>
					<dim>512</dim>
					<dim>19</dim>
					<dim>19</dim>
				</port>
				<port id="1">
					<dim>63</dim>
					<dim>512</dim>
					<dim>1</dim>
					<dim>1</dim>
				</port>
			</input>
			<output>
				<port id="2" precision="FP16">
					<dim>1</dim>
					<dim>63</dim>
					<dim>19</dim>
					<dim>19</dim>
				</port>
			</output>
		</layer>
		<layer id="227" name="conv11_mbox_conf/Dims23603825/EltwiseUnsqueeze3926_const" type="Const" version="opset1">
			<data element_type="f16" offset="11017144" shape="1,63,1,1" size="126"/>
			<output>
				<port id="1" precision="FP16">
					<dim>1</dim>
					<dim>63</dim>
					<dim>1</dim>
					<dim>1</dim>
				</port>
			</output>
		</layer>
		<layer id="228" name="conv11_mbox_conf" type="Add" version="opset1">
			<input>
				<port id="0">
					<dim>1</dim>
					<dim>63</dim>
					<dim>19</dim>
					<dim>19</dim>
				</port>
				<port id="1">
					<dim>1</dim>
					<dim>63</dim>
					<dim>1</dim>
					<dim>1</dim>
				</port>
			</input>
			<output>
				<port id="2" precision="FP16">
					<dim>1</dim>
					<dim>63</dim>
					<dim>19</dim>
					<dim>19</dim>
				</port>
			</output>
		</layer>
		<layer id="229" name="conv11_mbox_conf_perm/Cast_19894_const" type="Const" version="opset1">
			<data element_type="i64" offset="3223832" shape="4" size="32"/>
			<output>
				<port id="1" precision="I64">
					<dim>4</dim>
				</port>
			</output>
		</layer>
		<layer id="230" name="conv11_mbox_conf_perm" type="Transpose" version="opset1">
			<input>
				<port id="0">
					<dim>1</dim>
					<dim>63</dim>
					<dim>19</dim>
					<dim>19</dim>
				</port>
				<port id="1">
					<dim>4</dim>
				</port>
			</input>
			<output>
				<port id="2" precision="FP16">
					<dim>1</dim>
					<dim>19</dim>
					<dim>19</dim>
					<dim>63</dim>
				</port>
			</output>
		</layer>
		<layer id="231" name="conv11_mbox_conf_flat/Cast_19844_const" type="Const" version="opset1">
			<data element_type="i64" offset="3223864" shape="2" size="16"/>
			<output>
				<port id="1" precision="I64">
					<dim>2</dim>
				</port>
			</output>
		</layer>
		<layer id="232" name="conv11_mbox_conf_flat" type="Reshape" version="opset1">
			<data special_zero="True"/>
			<input>
				<port id="0">
					<dim>1</dim>
					<dim>19</dim>
					<dim>19</dim>
					<dim>63</dim>
				</port>
				<port id="1">
					<dim>2</dim>
				</port>
			</input>
			<output>
				<port id="2" precision="FP16">
					<dim>1</dim>
					<dim>22743</dim>
				</port>
			</output>
		</layer>
		<layer id="233" name="178/Output_0/Data__const" type="Const" version="opset1">
			<data element_type="f16" offset="11017270" shape="126,1024,1,1" size="258048"/>
			<output>
				<port id="1" precision="FP16">
					<dim>126</dim>
					<dim>1024</dim>
					<dim>1</dim>
					<dim>1</dim>
				</port>
			</output>
		</layer>
		<layer id="234" name="conv13_mbox_conf/WithoutBiases" type="Convolution" version="opset1">
			<data dilations="1,1" output_padding="0,0" pads_begin="0,0" pads_end="0,0" strides="1,1"/>
			<input>
				<port id="0">
					<dim>1</dim>
					<dim>1024</dim>
					<dim>10</dim>
					<dim>10</dim>
				</port>
				<port id="1">
					<dim>126</dim>
					<dim>1024</dim>
					<dim>1</dim>
					<dim>1</dim>
				</port>
			</input>
			<output>
				<port id="2" precision="FP16">
					<dim>1</dim>
					<dim>126</dim>
					<dim>10</dim>
					<dim>10</dim>
				</port>
			</output>
		</layer>
		<layer id="235" name="conv13_mbox_conf/Dims22883813/EltwiseUnsqueeze3878_const" type="Const" version="opset1">
			<data element_type="f16" offset="11275318" shape="1,126,1,1" size="252"/>
			<output>
				<port id="1" precision="FP16">
					<dim>1</dim>
					<dim>126</dim>
					<dim>1</dim>
					<dim>1</dim>
				</port>
			</output>
		</layer>
		<layer id="236" name="conv13_mbox_conf" type="Add" version="opset1">
			<input>
				<port id="0">
					<dim>1</dim>
					<dim>126</dim>
					<dim>10</dim>
					<dim>10</dim>
				</port>
				<port id="1">
					<dim>1</dim>
					<dim>126</dim>
					<dim>1</dim>
					<dim>1</dim>
				</port>
			</input>
			<output>
				<port id="2" precision="FP16">
					<dim>1</dim>
					<dim>126</dim>
					<dim>10</dim>
					<dim>10</dim>
				</port>
			</output>
		</layer>
		<layer id="237" name="conv13_mbox_conf_perm/Cast_19854_const" type="Const" version="opset1">
			<data element_type="i64" offset="3223832" shape="4" size="32"/>
			<output>
				<port id="1" precision="I64">
					<dim>4</dim>
				</port>
			</output>
		</layer>
		<layer id="238" name="conv13_mbox_conf_perm" type="Transpose" version="opset1">
			<input>
				<port id="0">
					<dim>1</dim>
					<dim>126</dim>
					<dim>10</dim>
					<dim>10</dim>
				</port>
				<port id="1">
					<dim>4</dim>
				</port>
			</input>
			<output>
				<port id="2" precision="FP16">
					<dim>1</dim>
					<dim>10</dim>
					<dim>10</dim>
					<dim>126</dim>
				</port>
			</output>
		</layer>
		<layer id="239" name="conv13_mbox_conf_flat/Cast_19848_const" type="Const" version="opset1">
			<data element_type="i64" offset="3223864" shape="2" size="16"/>
			<output>
				<port id="1" precision="I64">
					<dim>2</dim>
				</port>
			</output>
		</layer>
		<layer id="240" name="conv13_mbox_conf_flat" type="Reshape" version="opset1">
			<data special_zero="True"/>
			<input>
				<port id="0">
					<dim>1</dim>
					<dim>10</dim>
					<dim>10</dim>
					<dim>126</dim>
				</port>
				<port id="1">
					<dim>2</dim>
				</port>
			</input>
			<output>
				<port id="2" precision="FP16">
					<dim>1</dim>
					<dim>12600</dim>
				</port>
			</output>
		</layer>
		<layer id="241" name="184/Output_0/Data__const" type="Const" version="opset1">
			<data element_type="f16" offset="11275570" shape="126,512,1,1" size="129024"/>
			<output>
				<port id="1" precision="FP16">
					<dim>126</dim>
					<dim>512</dim>
					<dim>1</dim>
					<dim>1</dim>
				</port>
			</output>
		</layer>
		<layer id="242" name="conv14_2_mbox_conf/WithoutBiases" type="Convolution" version="opset1">
			<data dilations="1,1" output_padding="0,0" pads_begin="0,0" pads_end="0,0" strides="1,1"/>
			<input>
				<port id="0">
					<dim>1</dim>
					<dim>512</dim>
					<dim>5</dim>
					<dim>5</dim>
				</port>
				<port id="1">
					<dim>126</dim>
					<dim>512</dim>
					<dim>1</dim>
					<dim>1</dim>
				</port>
			</input>
			<output>
				<port id="2" precision="FP16">
					<dim>1</dim>
					<dim>126</dim>
					<dim>5</dim>
					<dim>5</dim>
				</port>
			</output>
		</layer>
		<layer id="243" name="conv14_2_mbox_conf/Dims22943814/EltwiseUnsqueeze3882_const" type="Const" version="opset1">
			<data element_type="f16" offset="11404594" shape="1,126,1,1" size="252"/>
			<output>
				<port id="1" precision="FP16">
					<dim>1</dim>
					<dim>126</dim>
					<dim>1</dim>
					<dim>1</dim>
				</port>
			</output>
		</layer>
		<layer id="244" name="conv14_2_mbox_conf" type="Add" version="opset1">
			<input>
				<port id="0">
					<dim>1</dim>
					<dim>126</dim>
					<dim>5</dim>
					<dim>5</dim>
				</port>
				<port id="1">
					<dim>1</dim>
					<dim>126</dim>
					<dim>1</dim>
					<dim>1</dim>
				</port>
			</input>
			<output>
				<port id="2" precision="FP16">
					<dim>1</dim>
					<dim>126</dim>
					<dim>5</dim>
					<dim>5</dim>
				</port>
			</output>
		</layer>
		<layer id="245" name="conv14_2_mbox_conf_perm/Cast_19876_const" type="Const" version="opset1">
			<data element_type="i64" offset="3223832" shape="4" size="32"/>
			<output>
				<port id="1" precision="I64">
					<dim>4</dim>
				</port>
			</output>
		</layer>
		<layer id="246" name="conv14_2_mbox_conf_perm" type="Transpose" version="opset1">
			<input>
				<port id="0">
					<dim>1</dim>
					<dim>126</dim>
					<dim>5</dim>
					<dim>5</dim>
				</port>
				<port id="1">
					<dim>4</dim>
				</port>
			</input>
			<output>
				<port id="2" precision="FP16">
					<dim>1</dim>
					<dim>5</dim>
					<dim>5</dim>
					<dim>126</dim>
				</port>
			</output>
		</layer>
		<layer id="247" name="conv14_2_mbox_conf_flat/Cast_19782_const" type="Const" version="opset1">
			<data element_type="i64" offset="3223864" shape="2" size="16"/>
			<output>
				<port id="1" precision="I64">
					<dim>2</dim>
				</port>
			</output>
		</layer>
		<layer id="248" name="conv14_2_mbox_conf_flat" type="Reshape" version="opset1">
			<data special_zero="True"/>
			<input>
				<port id="0">
					<dim>1</dim>
					<dim>5</dim>
					<dim>5</dim>
					<dim>126</dim>
				</port>
				<port id="1">
					<dim>2</dim>
				</port>
			</input>
			<output>
				<port id="2" precision="FP16">
					<dim>1</dim>
					<dim>3150</dim>
				</port>
			</output>
		</layer>
		<layer id="249" name="130/Output_0/Data__const" type="Const" version="opset1">
			<data element_type="f16" offset="11404846" shape="126,256,1,1" size="64512"/>
			<output>
				<port id="1" precision="FP16">
					<dim>126</dim>
					<dim>256</dim>
					<dim>1</dim>
					<dim>1</dim>
				</port>
			</output>
		</layer>
		<layer id="250" name="conv15_2_mbox_conf/WithoutBiases" type="Convolution" version="opset1">
			<data dilations="1,1" output_padding="0,0" pads_begin="0,0" pads_end="0,0" strides="1,1"/>
			<input>
				<port id="0">
					<dim>1</dim>
					<dim>256</dim>
					<dim>3</dim>
					<dim>3</dim>
				</port>
				<port id="1">
					<dim>126</dim>
					<dim>256</dim>
					<dim>1</dim>
					<dim>1</dim>
				</port>
			</input>
			<output>
				<port id="2" precision="FP16">
					<dim>1</dim>
					<dim>126</dim>
					<dim>3</dim>
					<dim>3</dim>
				</port>
			</output>
		</layer>
		<layer id="251" name="conv15_2_mbox_conf/Dims24923847/EltwiseUnsqueeze4014_const" type="Const" version="opset1">
			<data element_type="f16" offset="11469358" shape="1,126,1,1" size="252"/>
			<output>
				<port id="1" precision="FP16">
					<dim>1</dim>
					<dim>126</dim>
					<dim>1</dim>
					<dim>1</dim>
				</port>
			</output>
		</layer>
		<layer id="252" name="conv15_2_mbox_conf" type="Add" version="opset1">
			<input>
				<port id="0">
					<dim>1</dim>
					<dim>126</dim>
					<dim>3</dim>
					<dim>3</dim>
				</port>
				<port id="1">
					<dim>1</dim>
					<dim>126</dim>
					<dim>1</dim>
					<dim>1</dim>
				</port>
			</input>
			<output>
				<port id="2" precision="FP16">
					<dim>1</dim>
					<dim>126</dim>
					<dim>3</dim>
					<dim>3</dim>
				</port>
			</output>
		</layer>
		<layer id="253" name="conv15_2_mbox_conf_perm/Cast_19842_const" type="Const" version="opset1">
			<data element_type="i64" offset="3223832" shape="4" size="32"/>
			<output>
				<port id="1" precision="I64">
					<dim>4</dim>
				</port>
			</output>
		</layer>
		<layer id="254" name="conv15_2_mbox_conf_perm" type="Transpose" version="opset1">
			<input>
				<port id="0">
					<dim>1</dim>
					<dim>126</dim>
					<dim>3</dim>
					<dim>3</dim>
				</port>
				<port id="1">
					<dim>4</dim>
				</port>
			</input>
			<output>
				<port id="2" precision="FP16">
					<dim>1</dim>
					<dim>3</dim>
					<dim>3</dim>
					<dim>126</dim>
				</port>
			</output>
		</layer>
		<layer id="255" name="conv15_2_mbox_conf_flat/Cast_19798_const" type="Const" version="opset1">
			<data element_type="i64" offset="3223864" shape="2" size="16"/>
			<output>
				<port id="1" precision="I64">
					<dim>2</dim>
				</port>
			</output>
		</layer>
		<layer id="256" name="conv15_2_mbox_conf_flat" type="Reshape" version="opset1">
			<data special_zero="True"/>
			<input>
				<port id="0">
					<dim>1</dim>
					<dim>3</dim>
					<dim>3</dim>
					<dim>126</dim>
				</port>
				<port id="1">
					<dim>2</dim>
				</port>
			</input>
			<output>
				<port id="2" precision="FP16">
					<dim>1</dim>
					<dim>1134</dim>
				</port>
			</output>
		</layer>
		<layer id="257" name="142/Output_0/Data__const" type="Const" version="opset1">
			<data element_type="f16" offset="11469610" shape="126,256,1,1" size="64512"/>
			<output>
				<port id="1" precision="FP16">
					<dim>126</dim>
					<dim>256</dim>
					<dim>1</dim>
					<dim>1</dim>
				</port>
			</output>
		</layer>
		<layer id="258" name="conv16_2_mbox_conf/WithoutBiases" type="Convolution" version="opset1">
			<data dilations="1,1" output_padding="0,0" pads_begin="0,0" pads_end="0,0" strides="1,1"/>
			<input>
				<port id="0">
					<dim>1</dim>
					<dim>256</dim>
					<dim>2</dim>
					<dim>2</dim>
				</port>
				<port id="1">
					<dim>126</dim>
					<dim>256</dim>
					<dim>1</dim>
					<dim>1</dim>
				</port>
			</input>
			<output>
				<port id="2" precision="FP16">
					<dim>1</dim>
					<dim>126</dim>
					<dim>2</dim>
					<dim>2</dim>
				</port>
			</output>
		</layer>
		<layer id="259" name="conv16_2_mbox_conf/Dims24323837/EltwiseUnsqueeze3974_const" type="Const" version="opset1">
			<data element_type="f16" offset="11534122" shape="1,126,1,1" size="252"/>
			<output>
				<port id="1" precision="FP16">
					<dim>1</dim>
					<dim>126</dim>
					<dim>1</dim>
					<dim>1</dim>
				</port>
			</output>
		</layer>
		<layer id="260" name="conv16_2_mbox_conf" type="Add" version="opset1">
			<input>
				<port id="0">
					<dim>1</dim>
					<dim>126</dim>
					<dim>2</dim>
					<dim>2</dim>
				</port>
				<port id="1">
					<dim>1</dim>
					<dim>126</dim>
					<dim>1</dim>
					<dim>1</dim>
				</port>
			</input>
			<output>
				<port id="2" precision="FP16">
					<dim>1</dim>
					<dim>126</dim>
					<dim>2</dim>
					<dim>2</dim>
				</port>
			</output>
		</layer>
		<layer id="261" name="conv16_2_mbox_conf_perm/Cast_19850_const" type="Const" version="opset1">
			<data element_type="i64" offset="3223832" shape="4" size="32"/>
			<output>
				<port id="1" precision="I64">
					<dim>4</dim>
				</port>
			</output>
		</layer>
		<layer id="262" name="conv16_2_mbox_conf_perm" type="Transpose" version="opset1">
			<input>
				<port id="0">
					<dim>1</dim>
					<dim>126</dim>
					<dim>2</dim>
					<dim>2</dim>
				</port>
				<port id="1">
					<dim>4</dim>
				</port>
			</input>
			<output>
				<port id="2" precision="FP16">
					<dim>1</dim>
					<dim>2</dim>
					<dim>2</dim>
					<dim>126</dim>
				</port>
			</output>
		</layer>
		<layer id="263" name="conv16_2_mbox_conf_flat/Cast_19822_const" type="Const" version="opset1">
			<data element_type="i64" offset="3223864" shape="2" size="16"/>
			<output>
				<port id="1" precision="I64">
					<dim>2</dim>
				</port>
			</output>
		</layer>
		<layer id="264" name="conv16_2_mbox_conf_flat" type="Reshape" version="opset1">
			<data special_zero="True"/>
			<input>
				<port id="0">
					<dim>1</dim>
					<dim>2</dim>
					<dim>2</dim>
					<dim>126</dim>
				</port>
				<port id="1">
					<dim>2</dim>
				</port>
			</input>
			<output>
				<port id="2" precision="FP16">
					<dim>1</dim>
					<dim>504</dim>
				</port>
			</output>
		</layer>
		<layer id="265" name="200/Output_0/Data__const" type="Const" version="opset1">
			<data element_type="f16" offset="11534374" shape="126,128,1,1" size="32256"/>
			<output>
				<port id="1" precision="FP16">
					<dim>126</dim>
					<dim>128</dim>
					<dim>1</dim>
					<dim>1</dim>
				</port>
			</output>
		</layer>
		<layer id="266" name="conv17_2_mbox_conf/WithoutBiases" type="Convolution" version="opset1">
			<data dilations="1,1" output_padding="0,0" pads_begin="0,0" pads_end="0,0" strides="1,1"/>
			<input>
				<port id="0">
					<dim>1</dim>
					<dim>128</dim>
					<dim>1</dim>
					<dim>1</dim>
				</port>
				<port id="1">
					<dim>126</dim>
					<dim>128</dim>
					<dim>1</dim>
					<dim>1</dim>
				</port>
			</input>
			<output>
				<port id="2" precision="FP16">
					<dim>1</dim>
					<dim>126</dim>
					<dim>1</dim>
					<dim>1</dim>
				</port>
			</output>
		</layer>
		<layer id="267" name="conv17_2_mbox_conf/Dims23183818/EltwiseUnsqueeze3898_const" type="Const" version="opset1">
			<data element_type="f16" offset="11566630" shape="1,126,1,1" size="252"/>
			<output>
				<port id="1" precision="FP16">
					<dim>1</dim>
					<dim>126</dim>
					<dim>1</dim>
					<dim>1</dim>
				</port>
			</output>
		</layer>
		<layer id="268" name="conv17_2_mbox_conf" type="Add" version="opset1">
			<input>
				<port id="0">
					<dim>1</dim>
					<dim>126</dim>
					<dim>1</dim>
					<dim>1</dim>
				</port>
				<port id="1">
					<dim>1</dim>
					<dim>126</dim>
					<dim>1</dim>
					<dim>1</dim>
				</port>
			</input>
			<output>
				<port id="2" precision="FP16">
					<dim>1</dim>
					<dim>126</dim>
					<dim>1</dim>
					<dim>1</dim>
				</port>
			</output>
		</layer>
		<layer id="269" name="conv17_2_mbox_conf_perm/Cast_19830_const" type="Const" version="opset1">
			<data element_type="i64" offset="3223832" shape="4" size="32"/>
			<output>
				<port id="1" precision="I64">
					<dim>4</dim>
				</port>
			</output>
		</layer>
		<layer id="270" name="conv17_2_mbox_conf_perm" type="Transpose" version="opset1">
			<input>
				<port id="0">
					<dim>1</dim>
					<dim>126</dim>
					<dim>1</dim>
					<dim>1</dim>
				</port>
				<port id="1">
					<dim>4</dim>
				</port>
			</input>
			<output>
				<port id="2" precision="FP16">
					<dim>1</dim>
					<dim>1</dim>
					<dim>1</dim>
					<dim>126</dim>
				</port>
			</output>
		</layer>
		<layer id="271" name="conv17_2_mbox_conf_flat/Cast_19852_const" type="Const" version="opset1">
			<data element_type="i64" offset="3223864" shape="2" size="16"/>
			<output>
				<port id="1" precision="I64">
					<dim>2</dim>
				</port>
			</output>
		</layer>
		<layer id="272" name="conv17_2_mbox_conf_flat" type="Reshape" version="opset1">
			<data special_zero="True"/>
			<input>
				<port id="0">
					<dim>1</dim>
					<dim>1</dim>
					<dim>1</dim>
					<dim>126</dim>
				</port>
				<port id="1">
					<dim>2</dim>
				</port>
			</input>
			<output>
				<port id="2" precision="FP16">
					<dim>1</dim>
					<dim>126</dim>
				</port>
			</output>
		</layer>
		<layer id="273" name="mbox_conf" type="Concat" version="opset1">
			<data axis="1"/>
			<input>
				<port id="0">
					<dim>1</dim>
					<dim>22743</dim>
				</port>
				<port id="1">
					<dim>1</dim>
					<dim>12600</dim>
				</port>
				<port id="2">
					<dim>1</dim>
					<dim>3150</dim>
				</port>
				<port id="3">
					<dim>1</dim>
					<dim>1134</dim>
				</port>
				<port id="4">
					<dim>1</dim>
					<dim>504</dim>
				</port>
				<port id="5">
					<dim>1</dim>
					<dim>126</dim>
				</port>
			</input>
			<output>
				<port id="6" precision="FP16">
					<dim>1</dim>
					<dim>40257</dim>
				</port>
			</output>
		</layer>
		<layer id="274" name="mbox_conf_reshape/Cast_19884_const" type="Const" version="opset1">
			<data element_type="i64" offset="11566882" shape="3" size="24"/>
			<output>
				<port id="1" precision="I64">
					<dim>3</dim>
				</port>
			</output>
		</layer>
		<layer id="275" name="mbox_conf_reshape" type="Reshape" version="opset1">
			<data special_zero="True"/>
			<input>
				<port id="0">
					<dim>1</dim>
					<dim>40257</dim>
				</port>
				<port id="1">
					<dim>3</dim>
				</port>
			</input>
			<output>
				<port id="2" precision="FP16">
					<dim>1</dim>
					<dim>1917</dim>
					<dim>21</dim>
				</port>
			</output>
		</layer>
		<layer id="276" name="mbox_conf_softmax" type="SoftMax" version="opset1">
			<data axis="2"/>
			<input>
				<port id="0">
					<dim>1</dim>
					<dim>1917</dim>
					<dim>21</dim>
				</port>
			</input>
			<output>
				<port id="1" precision="FP16">
					<dim>1</dim>
					<dim>1917</dim>
					<dim>21</dim>
				</port>
			</output>
		</layer>
		<layer id="277" name="mbox_conf_flatten/Cast_19800_const" type="Const" version="opset1">
			<data element_type="i64" offset="3223864" shape="2" size="16"/>
			<output>
				<port id="1" precision="I64">
					<dim>2</dim>
				</port>
			</output>
		</layer>
		<layer id="278" name="mbox_conf_flatten" type="Reshape" version="opset1">
			<data special_zero="True"/>
			<input>
				<port id="0">
					<dim>1</dim>
					<dim>1917</dim>
					<dim>21</dim>
				</port>
				<port id="1">
					<dim>2</dim>
				</port>
			</input>
			<output>
				<port id="2" precision="FP16">
					<dim>1</dim>
					<dim>40257</dim>
				</port>
			</output>
		</layer>
		<layer id="279" name="conv11_mbox_priorbox/0_port" type="ShapeOf" version="opset3">
			<data output_type="i64"/>
			<input>
				<port id="0">
					<dim>1</dim>
					<dim>512</dim>
					<dim>19</dim>
					<dim>19</dim>
				</port>
			</input>
			<output>
				<port id="1" precision="I64">
					<dim>4</dim>
				</port>
			</output>
		</layer>
		<layer id="280" name="conv11_mbox_priorbox/ss_0_port/Cast_19824_const" type="Const" version="opset1">
			<data element_type="i64" offset="11566906" shape="1" size="8"/>
			<output>
				<port id="1" precision="I64">
					<dim>1</dim>
				</port>
			</output>
		</layer>
		<layer id="281" name="conv11_mbox_priorbox/ss_0_port/Cast_29826_const" type="Const" version="opset1">
			<data element_type="i64" offset="11566914" shape="1" size="8"/>
			<output>
				<port id="1" precision="I64">
					<dim>1</dim>
				</port>
			</output>
		</layer>
		<layer id="282" name="conv11_mbox_priorbox/ss_0_port/Cast_39828_const" type="Const" version="opset1">
			<data element_type="i64" offset="11566922" shape="1" size="8"/>
			<output>
				<port id="1" precision="I64">
					<dim>1</dim>
				</port>
			</output>
		</layer>
		<layer id="283" name="conv11_mbox_priorbox/ss_0_port" type="StridedSlice" version="opset1">
			<data begin_mask="0" ellipsis_mask="0" end_mask="1" new_axis_mask="0" shrink_axis_mask="0"/>
			<input>
				<port id="0">
					<dim>4</dim>
				</port>
				<port id="1">
					<dim>1</dim>
				</port>
				<port id="2">
					<dim>1</dim>
				</port>
				<port id="3">
					<dim>1</dim>
				</port>
			</input>
			<output>
				<port id="4" precision="I64">
					<dim>2</dim>
				</port>
			</output>
		</layer>
		<layer id="284" name="conv11_mbox_priorbox/1_port" type="ShapeOf" version="opset3">
			<data output_type="i64"/>
			<input>
				<port id="0">
					<dim>1</dim>
					<dim>3</dim>
					<dim>300</dim>
					<dim>300</dim>
				</port>
			</input>
			<output>
				<port id="1" precision="I64">
					<dim>4</dim>
				</port>
			</output>
		</layer>
		<layer id="285" name="conv11_mbox_priorbox/ss_1_port/Cast_19878_const" type="Const" version="opset1">
			<data element_type="i64" offset="11566906" shape="1" size="8"/>
			<output>
				<port id="1" precision="I64">
					<dim>1</dim>
				</port>
			</output>
		</layer>
		<layer id="286" name="conv11_mbox_priorbox/ss_1_port/Cast_29880_const" type="Const" version="opset1">
			<data element_type="i64" offset="11566914" shape="1" size="8"/>
			<output>
				<port id="1" precision="I64">
					<dim>1</dim>
				</port>
			</output>
		</layer>
		<layer id="287" name="conv11_mbox_priorbox/ss_1_port/Cast_39882_const" type="Const" version="opset1">
			<data element_type="i64" offset="11566922" shape="1" size="8"/>
			<output>
				<port id="1" precision="I64">
					<dim>1</dim>
				</port>
			</output>
		</layer>
		<layer id="288" name="conv11_mbox_priorbox/ss_1_port" type="StridedSlice" version="opset1">
			<data begin_mask="0" ellipsis_mask="0" end_mask="1" new_axis_mask="0" shrink_axis_mask="0"/>
			<input>
				<port id="0">
					<dim>4</dim>
				</port>
				<port id="1">
					<dim>1</dim>
				</port>
				<port id="2">
					<dim>1</dim>
				</port>
				<port id="3">
					<dim>1</dim>
				</port>
			</input>
			<output>
				<port id="4" precision="I64">
					<dim>2</dim>
				</port>
			</output>
		</layer>
		<layer id="289" name="conv11_mbox_priorbox/naked_not_unsqueezed" type="PriorBox" version="opset1">
			<data aspect_ratio="2.0" clip="0" density="" fixed_ratio="" fixed_size="" flip="1" max_size="" min_size="60.0" offset="0.5" variance="0.10000000149011612,0.10000000149011612,0.20000000298023224,0.20000000298023224"/>
			<input>
				<port id="0">
					<dim>2</dim>
				</port>
				<port id="1">
					<dim>2</dim>
				</port>
			</input>
			<output>
				<port id="2" precision="FP32">
					<dim>2</dim>
					<dim>4332</dim>
				</port>
			</output>
		</layer>
		<layer id="290" name="conv11_mbox_priorbox/unsqueeze/value5931_const" type="Const" version="opset1">
			<data element_type="i64" offset="11566930" shape="1" size="8"/>
			<output>
				<port id="1" precision="I64">
					<dim>1</dim>
				</port>
			</output>
		</layer>
		<layer id="291" name="conv11_mbox_priorbox" type="Unsqueeze" version="opset1">
			<input>
				<port id="0">
					<dim>2</dim>
					<dim>4332</dim>
				</port>
				<port id="1">
					<dim>1</dim>
				</port>
			</input>
			<output>
				<port id="2" precision="FP32">
					<dim>1</dim>
					<dim>2</dim>
					<dim>4332</dim>
				</port>
			</output>
		</layer>
		<layer id="292" name="conv13_mbox_priorbox/0_port" type="ShapeOf" version="opset3">
			<data output_type="i64"/>
			<input>
				<port id="0">
					<dim>1</dim>
					<dim>1024</dim>
					<dim>10</dim>
					<dim>10</dim>
				</port>
			</input>
			<output>
				<port id="1" precision="I64">
					<dim>4</dim>
				</port>
			</output>
		</layer>
		<layer id="293" name="conv13_mbox_priorbox/ss_0_port/Cast_19832_const" type="Const" version="opset1">
			<data element_type="i64" offset="11566906" shape="1" size="8"/>
			<output>
				<port id="1" precision="I64">
					<dim>1</dim>
				</port>
			</output>
		</layer>
		<layer id="294" name="conv13_mbox_priorbox/ss_0_port/Cast_29834_const" type="Const" version="opset1">
			<data element_type="i64" offset="11566914" shape="1" size="8"/>
			<output>
				<port id="1" precision="I64">
					<dim>1</dim>
				</port>
			</output>
		</layer>
		<layer id="295" name="conv13_mbox_priorbox/ss_0_port/Cast_39836_const" type="Const" version="opset1">
			<data element_type="i64" offset="11566922" shape="1" size="8"/>
			<output>
				<port id="1" precision="I64">
					<dim>1</dim>
				</port>
			</output>
		</layer>
		<layer id="296" name="conv13_mbox_priorbox/ss_0_port" type="StridedSlice" version="opset1">
			<data begin_mask="0" ellipsis_mask="0" end_mask="1" new_axis_mask="0" shrink_axis_mask="0"/>
			<input>
				<port id="0">
					<dim>4</dim>
				</port>
				<port id="1">
					<dim>1</dim>
				</port>
				<port id="2">
					<dim>1</dim>
				</port>
				<port id="3">
					<dim>1</dim>
				</port>
			</input>
			<output>
				<port id="4" precision="I64">
					<dim>2</dim>
				</port>
			</output>
		</layer>
		<layer id="297" name="conv13_mbox_priorbox/1_port" type="ShapeOf" version="opset3">
			<data output_type="i64"/>
			<input>
				<port id="0">
					<dim>1</dim>
					<dim>3</dim>
					<dim>300</dim>
					<dim>300</dim>
				</port>
			</input>
			<output>
				<port id="1" precision="I64">
					<dim>4</dim>
				</port>
			</output>
		</layer>
		<layer id="298" name="conv13_mbox_priorbox/ss_1_port/Cast_19792_const" type="Const" version="opset1">
			<data element_type="i64" offset="11566906" shape="1" size="8"/>
			<output>
				<port id="1" precision="I64">
					<dim>1</dim>
				</port>
			</output>
		</layer>
		<layer id="299" name="conv13_mbox_priorbox/ss_1_port/Cast_29794_const" type="Const" version="opset1">
			<data element_type="i64" offset="11566914" shape="1" size="8"/>
			<output>
				<port id="1" precision="I64">
					<dim>1</dim>
				</port>
			</output>
		</layer>
		<layer id="300" name="conv13_mbox_priorbox/ss_1_port/Cast_39796_const" type="Const" version="opset1">
			<data element_type="i64" offset="11566922" shape="1" size="8"/>
			<output>
				<port id="1" precision="I64">
					<dim>1</dim>
				</port>
			</output>
		</layer>
		<layer id="301" name="conv13_mbox_priorbox/ss_1_port" type="StridedSlice" version="opset1">
			<data begin_mask="0" ellipsis_mask="0" end_mask="1" new_axis_mask="0" shrink_axis_mask="0"/>
			<input>
				<port id="0">
					<dim>4</dim>
				</port>
				<port id="1">
					<dim>1</dim>
				</port>
				<port id="2">
					<dim>1</dim>
				</port>
				<port id="3">
					<dim>1</dim>
				</port>
			</input>
			<output>
				<port id="4" precision="I64">
					<dim>2</dim>
				</port>
			</output>
		</layer>
		<layer id="302" name="conv13_mbox_priorbox/naked_not_unsqueezed" type="PriorBox" version="opset1">
			<data aspect_ratio="2.0,3.0" clip="0" density="" fixed_ratio="" fixed_size="" flip="1" max_size="150.0" min_size="105.0" offset="0.5" variance="0.10000000149011612,0.10000000149011612,0.20000000298023224,0.20000000298023224"/>
			<input>
				<port id="0">
					<dim>2</dim>
				</port>
				<port id="1">
					<dim>2</dim>
				</port>
			</input>
			<output>
				<port id="2" precision="FP32">
					<dim>2</dim>
					<dim>2400</dim>
				</port>
			</output>
		</layer>
		<layer id="303" name="conv13_mbox_priorbox/unsqueeze/value5859_const" type="Const" version="opset1">
			<data element_type="i64" offset="11566930" shape="1" size="8"/>
			<output>
				<port id="1" precision="I64">
					<dim>1</dim>
				</port>
			</output>
		</layer>
		<layer id="304" name="conv13_mbox_priorbox" type="Unsqueeze" version="opset1">
			<input>
				<port id="0">
					<dim>2</dim>
					<dim>2400</dim>
				</port>
				<port id="1">
					<dim>1</dim>
				</port>
			</input>
			<output>
				<port id="2" precision="FP32">
					<dim>1</dim>
					<dim>2</dim>
					<dim>2400</dim>
				</port>
			</output>
		</layer>
		<layer id="305" name="conv14_2_mbox_priorbox/0_port" type="ShapeOf" version="opset3">
			<data output_type="i64"/>
			<input>
				<port id="0">
					<dim>1</dim>
					<dim>512</dim>
					<dim>5</dim>
					<dim>5</dim>
				</port>
			</input>
			<output>
				<port id="1" precision="I64">
					<dim>4</dim>
				</port>
			</output>
		</layer>
		<layer id="306" name="conv14_2_mbox_priorbox/ss_0_port/Cast_19804_const" type="Const" version="opset1">
			<data element_type="i64" offset="11566906" shape="1" size="8"/>
			<output>
				<port id="1" precision="I64">
					<dim>1</dim>
				</port>
			</output>
		</layer>
		<layer id="307" name="conv14_2_mbox_priorbox/ss_0_port/Cast_29806_const" type="Const" version="opset1">
			<data element_type="i64" offset="11566914" shape="1" size="8"/>
			<output>
				<port id="1" precision="I64">
					<dim>1</dim>
				</port>
			</output>
		</layer>
		<layer id="308" name="conv14_2_mbox_priorbox/ss_0_port/Cast_39808_const" type="Const" version="opset1">
			<data element_type="i64" offset="11566922" shape="1" size="8"/>
			<output>
				<port id="1" precision="I64">
					<dim>1</dim>
				</port>
			</output>
		</layer>
		<layer id="309" name="conv14_2_mbox_priorbox/ss_0_port" type="StridedSlice" version="opset1">
			<data begin_mask="0" ellipsis_mask="0" end_mask="1" new_axis_mask="0" shrink_axis_mask="0"/>
			<input>
				<port id="0">
					<dim>4</dim>
				</port>
				<port id="1">
					<dim>1</dim>
				</port>
				<port id="2">
					<dim>1</dim>
				</port>
				<port id="3">
					<dim>1</dim>
				</port>
			</input>
			<output>
				<port id="4" precision="I64">
					<dim>2</dim>
				</port>
			</output>
		</layer>
		<layer id="310" name="conv14_2_mbox_priorbox/1_port" type="ShapeOf" version="opset3">
			<data output_type="i64"/>
			<input>
				<port id="0">
					<dim>1</dim>
					<dim>3</dim>
					<dim>300</dim>
					<dim>300</dim>
				</port>
			</input>
			<output>
				<port id="1" precision="I64">
					<dim>4</dim>
				</port>
			</output>
		</layer>
		<layer id="311" name="conv14_2_mbox_priorbox/ss_1_port/Cast_19862_const" type="Const" version="opset1">
			<data element_type="i64" offset="11566906" shape="1" size="8"/>
			<output>
				<port id="1" precision="I64">
					<dim>1</dim>
				</port>
			</output>
		</layer>
		<layer id="312" name="conv14_2_mbox_priorbox/ss_1_port/Cast_29864_const" type="Const" version="opset1">
			<data element_type="i64" offset="11566914" shape="1" size="8"/>
			<output>
				<port id="1" precision="I64">
					<dim>1</dim>
				</port>
			</output>
		</layer>
		<layer id="313" name="conv14_2_mbox_priorbox/ss_1_port/Cast_39866_const" type="Const" version="opset1">
			<data element_type="i64" offset="11566922" shape="1" size="8"/>
			<output>
				<port id="1" precision="I64">
					<dim>1</dim>
				</port>
			</output>
		</layer>
		<layer id="314" name="conv14_2_mbox_priorbox/ss_1_port" type="StridedSlice" version="opset1">
			<data begin_mask="0" ellipsis_mask="0" end_mask="1" new_axis_mask="0" shrink_axis_mask="0"/>
			<input>
				<port id="0">
					<dim>4</dim>
				</port>
				<port id="1">
					<dim>1</dim>
				</port>
				<port id="2">
					<dim>1</dim>
				</port>
				<port id="3">
					<dim>1</dim>
				</port>
			</input>
			<output>
				<port id="4" precision="I64">
					<dim>2</dim>
				</port>
			</output>
		</layer>
		<layer id="315" name="conv14_2_mbox_priorbox/naked_not_unsqueezed" type="PriorBox" version="opset1">
			<data aspect_ratio="2.0,3.0" clip="0" density="" fixed_ratio="" fixed_size="" flip="1" max_size="195.0" min_size="150.0" offset="0.5" variance="0.10000000149011612,0.10000000149011612,0.20000000298023224,0.20000000298023224"/>
			<input>
				<port id="0">
					<dim>2</dim>
				</port>
				<port id="1">
					<dim>2</dim>
				</port>
			</input>
			<output>
				<port id="2" precision="FP32">
					<dim>2</dim>
					<dim>600</dim>
				</port>
			</output>
		</layer>
		<layer id="316" name="conv14_2_mbox_priorbox/unsqueeze/value5913_const" type="Const" version="opset1">
			<data element_type="i64" offset="11566930" shape="1" size="8"/>
			<output>
				<port id="1" precision="I64">
					<dim>1</dim>
				</port>
			</output>
		</layer>
		<layer id="317" name="conv14_2_mbox_priorbox" type="Unsqueeze" version="opset1">
			<input>
				<port id="0">
					<dim>2</dim>
					<dim>600</dim>
				</port>
				<port id="1">
					<dim>1</dim>
				</port>
			</input>
			<output>
				<port id="2" precision="FP32">
					<dim>1</dim>
					<dim>2</dim>
					<dim>600</dim>
				</port>
			</output>
		</layer>
		<layer id="318" name="conv15_2_mbox_priorbox/0_port" type="ShapeOf" version="opset3">
			<data output_type="i64"/>
			<input>
				<port id="0">
					<dim>1</dim>
					<dim>256</dim>
					<dim>3</dim>
					<dim>3</dim>
				</port>
			</input>
			<output>
				<port id="1" precision="I64">
					<dim>4</dim>
				</port>
			</output>
		</layer>
		<layer id="319" name="conv15_2_mbox_priorbox/ss_0_port/Cast_19856_const" type="Const" version="opset1">
			<data element_type="i64" offset="11566906" shape="1" size="8"/>
			<output>
				<port id="1" precision="I64">
					<dim>1</dim>
				</port>
			</output>
		</layer>
		<layer id="320" name="conv15_2_mbox_priorbox/ss_0_port/Cast_29858_const" type="Const" version="opset1">
			<data element_type="i64" offset="11566914" shape="1" size="8"/>
			<output>
				<port id="1" precision="I64">
					<dim>1</dim>
				</port>
			</output>
		</layer>
		<layer id="321" name="conv15_2_mbox_priorbox/ss_0_port/Cast_39860_const" type="Const" version="opset1">
			<data element_type="i64" offset="11566922" shape="1" size="8"/>
			<output>
				<port id="1" precision="I64">
					<dim>1</dim>
				</port>
			</output>
		</layer>
		<layer id="322" name="conv15_2_mbox_priorbox/ss_0_port" type="StridedSlice" version="opset1">
			<data begin_mask="0" ellipsis_mask="0" end_mask="1" new_axis_mask="0" shrink_axis_mask="0"/>
			<input>
				<port id="0">
					<dim>4</dim>
				</port>
				<port id="1">
					<dim>1</dim>
				</port>
				<port id="2">
					<dim>1</dim>
				</port>
				<port id="3">
					<dim>1</dim>
				</port>
			</input>
			<output>
				<port id="4" precision="I64">
					<dim>2</dim>
				</port>
			</output>
		</layer>
		<layer id="323" name="conv15_2_mbox_priorbox/1_port" type="ShapeOf" version="opset3">
			<data output_type="i64"/>
			<input>
				<port id="0">
					<dim>1</dim>
					<dim>3</dim>
					<dim>300</dim>
					<dim>300</dim>
				</port>
			</input>
			<output>
				<port id="1" precision="I64">
					<dim>4</dim>
				</port>
			</output>
		</layer>
		<layer id="324" name="conv15_2_mbox_priorbox/ss_1_port/Cast_19870_const" type="Const" version="opset1">
			<data element_type="i64" offset="11566906" shape="1" size="8"/>
			<output>
				<port id="1" precision="I64">
					<dim>1</dim>
				</port>
			</output>
		</layer>
		<layer id="325" name="conv15_2_mbox_priorbox/ss_1_port/Cast_29872_const" type="Const" version="opset1">
			<data element_type="i64" offset="11566914" shape="1" size="8"/>
			<output>
				<port id="1" precision="I64">
					<dim>1</dim>
				</port>
			</output>
		</layer>
		<layer id="326" name="conv15_2_mbox_priorbox/ss_1_port/Cast_39874_const" type="Const" version="opset1">
			<data element_type="i64" offset="11566922" shape="1" size="8"/>
			<output>
				<port id="1" precision="I64">
					<dim>1</dim>
				</port>
			</output>
		</layer>
		<layer id="327" name="conv15_2_mbox_priorbox/ss_1_port" type="StridedSlice" version="opset1">
			<data begin_mask="0" ellipsis_mask="0" end_mask="1" new_axis_mask="0" shrink_axis_mask="0"/>
			<input>
				<port id="0">
					<dim>4</dim>
				</port>
				<port id="1">
					<dim>1</dim>
				</port>
				<port id="2">
					<dim>1</dim>
				</port>
				<port id="3">
					<dim>1</dim>
				</port>
			</input>
			<output>
				<port id="4" precision="I64">
					<dim>2</dim>
				</port>
			</output>
		</layer>
		<layer id="328" name="conv15_2_mbox_priorbox/naked_not_unsqueezed" type="PriorBox" version="opset1">
			<data aspect_ratio="2.0,3.0" clip="0" density="" fixed_ratio="" fixed_size="" flip="1" max_size="240.0" min_size="195.0" offset="0.5" variance="0.10000000149011612,0.10000000149011612,0.20000000298023224,0.20000000298023224"/>
			<input>
				<port id="0">
					<dim>2</dim>
				</port>
				<port id="1">
					<dim>2</dim>
				</port>
			</input>
			<output>
				<port id="2" precision="FP32">
					<dim>2</dim>
					<dim>216</dim>
				</port>
			</output>
		</layer>
		<layer id="329" name="conv15_2_mbox_priorbox/unsqueeze/value5949_const" type="Const" version="opset1">
			<data element_type="i64" offset="11566930" shape="1" size="8"/>
			<output>
				<port id="1" precision="I64">
					<dim>1</dim>
				</port>
			</output>
		</layer>
		<layer id="330" name="conv15_2_mbox_priorbox" type="Unsqueeze" version="opset1">
			<input>
				<port id="0">
					<dim>2</dim>
					<dim>216</dim>
				</port>
				<port id="1">
					<dim>1</dim>
				</port>
			</input>
			<output>
				<port id="2" precision="FP32">
					<dim>1</dim>
					<dim>2</dim>
					<dim>216</dim>
				</port>
			</output>
		</layer>
		<layer id="331" name="conv16_2_mbox_priorbox/0_port" type="ShapeOf" version="opset3">
			<data output_type="i64"/>
			<input>
				<port id="0">
					<dim>1</dim>
					<dim>256</dim>
					<dim>2</dim>
					<dim>2</dim>
				</port>
			</input>
			<output>
				<port id="1" precision="I64">
					<dim>4</dim>
				</port>
			</output>
		</layer>
		<layer id="332" name="conv16_2_mbox_priorbox/ss_0_port/Cast_19786_const" type="Const" version="opset1">
			<data element_type="i64" offset="11566906" shape="1" size="8"/>
			<output>
				<port id="1" precision="I64">
					<dim>1</dim>
				</port>
			</output>
		</layer>
		<layer id="333" name="conv16_2_mbox_priorbox/ss_0_port/Cast_29788_const" type="Const" version="opset1">
			<data element_type="i64" offset="11566914" shape="1" size="8"/>
			<output>
				<port id="1" precision="I64">
					<dim>1</dim>
				</port>
			</output>
		</layer>
		<layer id="334" name="conv16_2_mbox_priorbox/ss_0_port/Cast_39790_const" type="Const" version="opset1">
			<data element_type="i64" offset="11566922" shape="1" size="8"/>
			<output>
				<port id="1" precision="I64">
					<dim>1</dim>
				</port>
			</output>
		</layer>
		<layer id="335" name="conv16_2_mbox_priorbox/ss_0_port" type="StridedSlice" version="opset1">
			<data begin_mask="0" ellipsis_mask="0" end_mask="1" new_axis_mask="0" shrink_axis_mask="0"/>
			<input>
				<port id="0">
					<dim>4</dim>
				</port>
				<port id="1">
					<dim>1</dim>
				</port>
				<port id="2">
					<dim>1</dim>
				</port>
				<port id="3">
					<dim>1</dim>
				</port>
			</input>
			<output>
				<port id="4" precision="I64">
					<dim>2</dim>
				</port>
			</output>
		</layer>
		<layer id="336" name="conv16_2_mbox_priorbox/1_port" type="ShapeOf" version="opset3">
			<data output_type="i64"/>
			<input>
				<port id="0">
					<dim>1</dim>
					<dim>3</dim>
					<dim>300</dim>
					<dim>300</dim>
				</port>
			</input>
			<output>
				<port id="1" precision="I64">
					<dim>4</dim>
				</port>
			</output>
		</layer>
		<layer id="337" name="conv16_2_mbox_priorbox/ss_1_port/Cast_19888_const" type="Const" version="opset1">
			<data element_type="i64" offset="11566906" shape="1" size="8"/>
			<output>
				<port id="1" precision="I64">
					<dim>1</dim>
				</port>
			</output>
		</layer>
		<layer id="338" name="conv16_2_mbox_priorbox/ss_1_port/Cast_29890_const" type="Const" version="opset1">
			<data element_type="i64" offset="11566914" shape="1" size="8"/>
			<output>
				<port id="1" precision="I64">
					<dim>1</dim>
				</port>
			</output>
		</layer>
		<layer id="339" name="conv16_2_mbox_priorbox/ss_1_port/Cast_39892_const" type="Const" version="opset1">
			<data element_type="i64" offset="11566922" shape="1" size="8"/>
			<output>
				<port id="1" precision="I64">
					<dim>1</dim>
				</port>
			</output>
		</layer>
		<layer id="340" name="conv16_2_mbox_priorbox/ss_1_port" type="StridedSlice" version="opset1">
			<data begin_mask="0" ellipsis_mask="0" end_mask="1" new_axis_mask="0" shrink_axis_mask="0"/>
			<input>
				<port id="0">
					<dim>4</dim>
				</port>
				<port id="1">
					<dim>1</dim>
				</port>
				<port id="2">
					<dim>1</dim>
				</port>
				<port id="3">
					<dim>1</dim>
				</port>
			</input>
			<output>
				<port id="4" precision="I64">
					<dim>2</dim>
				</port>
			</output>
		</layer>
		<layer id="341" name="conv16_2_mbox_priorbox/naked_not_unsqueezed" type="PriorBox" version="opset1">
			<data aspect_ratio="2.0,3.0" clip="0" density="" fixed_ratio="" fixed_size="" flip="1" max_size="285.0" min_size="240.0" offset="0.5" variance="0.10000000149011612,0.10000000149011612,0.20000000298023224,0.20000000298023224"/>
			<input>
				<port id="0">
					<dim>2</dim>
				</port>
				<port id="1">
					<dim>2</dim>
				</port>
			</input>
			<output>
				<port id="2" precision="FP32">
					<dim>2</dim>
					<dim>96</dim>
				</port>
			</output>
		</layer>
		<layer id="342" name="conv16_2_mbox_priorbox/unsqueeze/value5877_const" type="Const" version="opset1">
			<data element_type="i64" offset="11566930" shape="1" size="8"/>
			<output>
				<port id="1" precision="I64">
					<dim>1</dim>
				</port>
			</output>
		</layer>
		<layer id="343" name="conv16_2_mbox_priorbox" type="Unsqueeze" version="opset1">
			<input>
				<port id="0">
					<dim>2</dim>
					<dim>96</dim>
				</port>
				<port id="1">
					<dim>1</dim>
				</port>
			</input>
			<output>
				<port id="2" precision="FP32">
					<dim>1</dim>
					<dim>2</dim>
					<dim>96</dim>
				</port>
			</output>
		</layer>
		<layer id="344" name="conv17_2_mbox_priorbox/0_port" type="ShapeOf" version="opset3">
			<data output_type="i64"/>
			<input>
				<port id="0">
					<dim>1</dim>
					<dim>128</dim>
					<dim>1</dim>
					<dim>1</dim>
				</port>
			</input>
			<output>
				<port id="1" precision="I64">
					<dim>4</dim>
				</port>
			</output>
		</layer>
		<layer id="345" name="conv17_2_mbox_priorbox/ss_0_port/Cast_19810_const" type="Const" version="opset1">
			<data element_type="i64" offset="11566906" shape="1" size="8"/>
			<output>
				<port id="1" precision="I64">
					<dim>1</dim>
				</port>
			</output>
		</layer>
		<layer id="346" name="conv17_2_mbox_priorbox/ss_0_port/Cast_29812_const" type="Const" version="opset1">
			<data element_type="i64" offset="11566914" shape="1" size="8"/>
			<output>
				<port id="1" precision="I64">
					<dim>1</dim>
				</port>
			</output>
		</layer>
		<layer id="347" name="conv17_2_mbox_priorbox/ss_0_port/Cast_39814_const" type="Const" version="opset1">
			<data element_type="i64" offset="11566922" shape="1" size="8"/>
			<output>
				<port id="1" precision="I64">
					<dim>1</dim>
				</port>
			</output>
		</layer>
		<layer id="348" name="conv17_2_mbox_priorbox/ss_0_port" type="StridedSlice" version="opset1">
			<data begin_mask="0" ellipsis_mask="0" end_mask="1" new_axis_mask="0" shrink_axis_mask="0"/>
			<input>
				<port id="0">
					<dim>4</dim>
				</port>
				<port id="1">
					<dim>1</dim>
				</port>
				<port id="2">
					<dim>1</dim>
				</port>
				<port id="3">
					<dim>1</dim>
				</port>
			</input>
			<output>
				<port id="4" precision="I64">
					<dim>2</dim>
				</port>
			</output>
		</layer>
		<layer id="349" name="conv17_2_mbox_priorbox/1_port" type="ShapeOf" version="opset3">
			<data output_type="i64"/>
			<input>
				<port id="0">
					<dim>1</dim>
					<dim>3</dim>
					<dim>300</dim>
					<dim>300</dim>
				</port>
			</input>
			<output>
				<port id="1" precision="I64">
					<dim>4</dim>
				</port>
			</output>
		</layer>
		<layer id="350" name="conv17_2_mbox_priorbox/ss_1_port/Cast_19774_const" type="Const" version="opset1">
			<data element_type="i64" offset="11566906" shape="1" size="8"/>
			<output>
				<port id="1" precision="I64">
					<dim>1</dim>
				</port>
			</output>
		</layer>
		<layer id="351" name="conv17_2_mbox_priorbox/ss_1_port/Cast_29776_const" type="Const" version="opset1">
			<data element_type="i64" offset="11566914" shape="1" size="8"/>
			<output>
				<port id="1" precision="I64">
					<dim>1</dim>
				</port>
			</output>
		</layer>
		<layer id="352" name="conv17_2_mbox_priorbox/ss_1_port/Cast_39778_const" type="Const" version="opset1">
			<data element_type="i64" offset="11566922" shape="1" size="8"/>
			<output>
				<port id="1" precision="I64">
					<dim>1</dim>
				</port>
			</output>
		</layer>
		<layer id="353" name="conv17_2_mbox_priorbox/ss_1_port" type="StridedSlice" version="opset1">
			<data begin_mask="0" ellipsis_mask="0" end_mask="1" new_axis_mask="0" shrink_axis_mask="0"/>
			<input>
				<port id="0">
					<dim>4</dim>
				</port>
				<port id="1">
					<dim>1</dim>
				</port>
				<port id="2">
					<dim>1</dim>
				</port>
				<port id="3">
					<dim>1</dim>
				</port>
			</input>
			<output>
				<port id="4" precision="I64">
					<dim>2</dim>
				</port>
			</output>
		</layer>
		<layer id="354" name="conv17_2_mbox_priorbox/naked_not_unsqueezed" type="PriorBox" version="opset1">
			<data aspect_ratio="2.0,3.0" clip="0" density="" fixed_ratio="" fixed_size="" flip="1" max_size="300.0" min_size="285.0" offset="0.5" variance="0.10000000149011612,0.10000000149011612,0.20000000298023224,0.20000000298023224"/>
			<input>
				<port id="0">
					<dim>2</dim>
				</port>
				<port id="1">
					<dim>2</dim>
				</port>
			</input>
			<output>
				<port id="2" precision="FP32">
					<dim>2</dim>
					<dim>24</dim>
				</port>
			</output>
		</layer>
		<layer id="355" name="conv17_2_mbox_priorbox/unsqueeze/value5895_const" type="Const" version="opset1">
			<data element_type="i64" offset="11566930" shape="1" size="8"/>
			<output>
				<port id="1" precision="I64">
					<dim>1</dim>
				</port>
			</output>
		</layer>
		<layer id="356" name="conv17_2_mbox_priorbox" type="Unsqueeze" version="opset1">
			<input>
				<port id="0">
					<dim>2</dim>
					<dim>24</dim>
				</port>
				<port id="1">
					<dim>1</dim>
				</port>
			</input>
			<output>
				<port id="2" precision="FP32">
					<dim>1</dim>
					<dim>2</dim>
					<dim>24</dim>
				</port>
			</output>
		</layer>
		<layer id="357" name="mbox_priorbox" type="Concat" version="opset1">
			<data axis="2"/>
			<input>
				<port id="0">
					<dim>1</dim>
					<dim>2</dim>
					<dim>4332</dim>
				</port>
				<port id="1">
					<dim>1</dim>
					<dim>2</dim>
					<dim>2400</dim>
				</port>
				<port id="2">
					<dim>1</dim>
					<dim>2</dim>
					<dim>600</dim>
				</port>
				<port id="3">
					<dim>1</dim>
					<dim>2</dim>
					<dim>216</dim>
				</port>
				<port id="4">
					<dim>1</dim>
					<dim>2</dim>
					<dim>96</dim>
				</port>
				<port id="5">
					<dim>1</dim>
					<dim>2</dim>
					<dim>24</dim>
				</port>
			</input>
			<output>
				<port id="6" precision="FP32">
					<dim>1</dim>
					<dim>2</dim>
					<dim>7668</dim>
				</port>
			</output>
		</layer>
		<layer id="358" name="detection_out" type="DetectionOutput" version="opset1">
			<data background_label_id="0" code_type="caffe.PriorBoxParameter.CENTER_SIZE" confidence_threshold="0.25" eta="1.0" input_height="1" input_width="1" keep_top_k="100" nms_threshold="0.44999998807907104" normalized="1" num_classes="21" share_location="1" top_k="100" variance_encoded_in_target="0" visualize="False"/>
			<input>
				<port id="0">
					<dim>1</dim>
					<dim>7668</dim>
				</port>
				<port id="1">
					<dim>1</dim>
					<dim>40257</dim>
				</port>
				<port id="2">
					<dim>1</dim>
					<dim>2</dim>
					<dim>7668</dim>
				</port>
			</input>
			<output>
				<port id="3" precision="FP32">
					<dim>1</dim>
					<dim>1</dim>
					<dim>100</dim>
					<dim>7</dim>
				</port>
			</output>
		</layer>
		<layer id="359" name="detection_out/sink_port_0" type="Result" version="opset1">
			<input>
				<port id="0">
					<dim>1</dim>
					<dim>1</dim>
					<dim>100</dim>
					<dim>7</dim>
				</port>
			</input>
		</layer>
	</layers>
	<edges>
		<edge from-layer="0" from-port="0" to-layer="2" to-port="0"/>
		<edge from-layer="1" from-port="1" to-layer="2" to-port="1"/>
		<edge from-layer="2" from-port="2" to-layer="4" to-port="0"/>
		<edge from-layer="3" from-port="1" to-layer="4" to-port="1"/>
		<edge from-layer="4" from-port="2" to-layer="5" to-port="0"/>
		<edge from-layer="5" from-port="1" to-layer="7" to-port="0"/>
		<edge from-layer="6" from-port="1" to-layer="7" to-port="1"/>
		<edge from-layer="7" from-port="2" to-layer="9" to-port="0"/>
		<edge from-layer="8" from-port="1" to-layer="9" to-port="1"/>
		<edge from-layer="9" from-port="2" to-layer="10" to-port="0"/>
		<edge from-layer="10" from-port="1" to-layer="12" to-port="0"/>
		<edge from-layer="11" from-port="1" to-layer="12" to-port="1"/>
		<edge from-layer="12" from-port="2" to-layer="14" to-port="0"/>
		<edge from-layer="13" from-port="1" to-layer="14" to-port="1"/>
		<edge from-layer="14" from-port="2" to-layer="15" to-port="0"/>
		<edge from-layer="15" from-port="1" to-layer="17" to-port="0"/>
		<edge from-layer="16" from-port="1" to-layer="17" to-port="1"/>
		<edge from-layer="17" from-port="2" to-layer="19" to-port="0"/>
		<edge from-layer="18" from-port="1" to-layer="19" to-port="1"/>
		<edge from-layer="19" from-port="2" to-layer="20" to-port="0"/>
		<edge from-layer="20" from-port="1" to-layer="22" to-port="0"/>
		<edge from-layer="21" from-port="1" to-layer="22" to-port="1"/>
		<edge from-layer="22" from-port="2" to-layer="24" to-port="0"/>
		<edge from-layer="23" from-port="1" to-layer="24" to-port="1"/>
		<edge from-layer="24" from-port="2" to-layer="25" to-port="0"/>
		<edge from-layer="25" from-port="1" to-layer="27" to-port="0"/>
		<edge from-layer="26" from-port="1" to-layer="27" to-port="1"/>
		<edge from-layer="27" from-port="2" to-layer="29" to-port="0"/>
		<edge from-layer="28" from-port="1" to-layer="29" to-port="1"/>
		<edge from-layer="29" from-port="2" to-layer="30" to-port="0"/>
		<edge from-layer="30" from-port="1" to-layer="32" to-port="0"/>
		<edge from-layer="31" from-port="1" to-layer="32" to-port="1"/>
		<edge from-layer="32" from-port="2" to-layer="34" to-port="0"/>
		<edge from-layer="33" from-port="1" to-layer="34" to-port="1"/>
		<edge from-layer="34" from-port="2" to-layer="35" to-port="0"/>
		<edge from-layer="35" from-port="1" to-layer="37" to-port="0"/>
		<edge from-layer="36" from-port="1" to-layer="37" to-port="1"/>
		<edge from-layer="37" from-port="2" to-layer="39" to-port="0"/>
		<edge from-layer="38" from-port="1" to-layer="39" to-port="1"/>
		<edge from-layer="39" from-port="2" to-layer="40" to-port="0"/>
		<edge from-layer="40" from-port="1" to-layer="42" to-port="0"/>
		<edge from-layer="41" from-port="1" to-layer="42" to-port="1"/>
		<edge from-layer="42" from-port="2" to-layer="44" to-port="0"/>
		<edge from-layer="43" from-port="1" to-layer="44" to-port="1"/>
		<edge from-layer="44" from-port="2" to-layer="45" to-port="0"/>
		<edge from-layer="45" from-port="1" to-layer="47" to-port="0"/>
		<edge from-layer="46" from-port="1" to-layer="47" to-port="1"/>
		<edge from-layer="47" from-port="2" to-layer="49" to-port="0"/>
		<edge from-layer="48" from-port="1" to-layer="49" to-port="1"/>
		<edge from-layer="49" from-port="2" to-layer="50" to-port="0"/>
		<edge from-layer="50" from-port="1" to-layer="52" to-port="0"/>
		<edge from-layer="51" from-port="1" to-layer="52" to-port="1"/>
		<edge from-layer="52" from-port="2" to-layer="54" to-port="0"/>
		<edge from-layer="53" from-port="1" to-layer="54" to-port="1"/>
		<edge from-layer="54" from-port="2" to-layer="55" to-port="0"/>
		<edge from-layer="55" from-port="1" to-layer="57" to-port="0"/>
		<edge from-layer="56" from-port="1" to-layer="57" to-port="1"/>
		<edge from-layer="57" from-port="2" to-layer="59" to-port="0"/>
		<edge from-layer="58" from-port="1" to-layer="59" to-port="1"/>
		<edge from-layer="59" from-port="2" to-layer="60" to-port="0"/>
		<edge from-layer="60" from-port="1" to-layer="62" to-port="0"/>
		<edge from-layer="61" from-port="1" to-layer="62" to-port="1"/>
		<edge from-layer="62" from-port="2" to-layer="64" to-port="0"/>
		<edge from-layer="63" from-port="1" to-layer="64" to-port="1"/>
		<edge from-layer="64" from-port="2" to-layer="65" to-port="0"/>
		<edge from-layer="65" from-port="1" to-layer="67" to-port="0"/>
		<edge from-layer="66" from-port="1" to-layer="67" to-port="1"/>
		<edge from-layer="67" from-port="2" to-layer="69" to-port="0"/>
		<edge from-layer="68" from-port="1" to-layer="69" to-port="1"/>
		<edge from-layer="69" from-port="2" to-layer="70" to-port="0"/>
		<edge from-layer="70" from-port="1" to-layer="72" to-port="0"/>
		<edge from-layer="71" from-port="1" to-layer="72" to-port="1"/>
		<edge from-layer="72" from-port="2" to-layer="74" to-port="0"/>
		<edge from-layer="73" from-port="1" to-layer="74" to-port="1"/>
		<edge from-layer="74" from-port="2" to-layer="75" to-port="0"/>
		<edge from-layer="75" from-port="1" to-layer="77" to-port="0"/>
		<edge from-layer="76" from-port="1" to-layer="77" to-port="1"/>
		<edge from-layer="77" from-port="2" to-layer="79" to-port="0"/>
		<edge from-layer="78" from-port="1" to-layer="79" to-port="1"/>
		<edge from-layer="79" from-port="2" to-layer="80" to-port="0"/>
		<edge from-layer="80" from-port="1" to-layer="82" to-port="0"/>
		<edge from-layer="81" from-port="1" to-layer="82" to-port="1"/>
		<edge from-layer="82" from-port="2" to-layer="84" to-port="0"/>
		<edge from-layer="83" from-port="1" to-layer="84" to-port="1"/>
		<edge from-layer="84" from-port="2" to-layer="85" to-port="0"/>
		<edge from-layer="85" from-port="1" to-layer="87" to-port="0"/>
		<edge from-layer="86" from-port="1" to-layer="87" to-port="1"/>
		<edge from-layer="87" from-port="2" to-layer="89" to-port="0"/>
		<edge from-layer="88" from-port="1" to-layer="89" to-port="1"/>
		<edge from-layer="89" from-port="2" to-layer="90" to-port="0"/>
		<edge from-layer="90" from-port="1" to-layer="92" to-port="0"/>
		<edge from-layer="91" from-port="1" to-layer="92" to-port="1"/>
		<edge from-layer="92" from-port="2" to-layer="94" to-port="0"/>
		<edge from-layer="93" from-port="1" to-layer="94" to-port="1"/>
		<edge from-layer="94" from-port="2" to-layer="95" to-port="0"/>
		<edge from-layer="95" from-port="1" to-layer="97" to-port="0"/>
		<edge from-layer="96" from-port="1" to-layer="97" to-port="1"/>
		<edge from-layer="97" from-port="2" to-layer="99" to-port="0"/>
		<edge from-layer="98" from-port="1" to-layer="99" to-port="1"/>
		<edge from-layer="99" from-port="2" to-layer="100" to-port="0"/>
		<edge from-layer="100" from-port="1" to-layer="102" to-port="0"/>
		<edge from-layer="101" from-port="1" to-layer="102" to-port="1"/>
		<edge from-layer="102" from-port="2" to-layer="104" to-port="0"/>
		<edge from-layer="103" from-port="1" to-layer="104" to-port="1"/>
		<edge from-layer="104" from-port="2" to-layer="105" to-port="0"/>
		<edge from-layer="105" from-port="1" to-layer="107" to-port="0"/>
		<edge from-layer="106" from-port="1" to-layer="107" to-port="1"/>
		<edge from-layer="107" from-port="2" to-layer="109" to-port="0"/>
		<edge from-layer="108" from-port="1" to-layer="109" to-port="1"/>
		<edge from-layer="109" from-port="2" to-layer="110" to-port="0"/>
		<edge from-layer="110" from-port="1" to-layer="112" to-port="0"/>
		<edge from-layer="111" from-port="1" to-layer="112" to-port="1"/>
		<edge from-layer="112" from-port="2" to-layer="114" to-port="0"/>
		<edge from-layer="113" from-port="1" to-layer="114" to-port="1"/>
		<edge from-layer="114" from-port="2" to-layer="115" to-port="0"/>
		<edge from-layer="115" from-port="1" to-layer="117" to-port="0"/>
		<edge from-layer="116" from-port="1" to-layer="117" to-port="1"/>
		<edge from-layer="117" from-port="2" to-layer="119" to-port="0"/>
		<edge from-layer="118" from-port="1" to-layer="119" to-port="1"/>
		<edge from-layer="119" from-port="2" to-layer="121" to-port="0"/>
		<edge from-layer="120" from-port="1" to-layer="121" to-port="1"/>
		<edge from-layer="121" from-port="2" to-layer="123" to-port="0"/>
		<edge from-layer="122" from-port="1" to-layer="123" to-port="1"/>
		<edge from-layer="115" from-port="1" to-layer="125" to-port="0"/>
		<edge from-layer="124" from-port="1" to-layer="125" to-port="1"/>
		<edge from-layer="125" from-port="2" to-layer="127" to-port="0"/>
		<edge from-layer="126" from-port="1" to-layer="127" to-port="1"/>
		<edge from-layer="127" from-port="2" to-layer="128" to-port="0"/>
		<edge from-layer="128" from-port="1" to-layer="130" to-port="0"/>
		<edge from-layer="129" from-port="1" to-layer="130" to-port="1"/>
		<edge from-layer="130" from-port="2" to-layer="132" to-port="0"/>
		<edge from-layer="131" from-port="1" to-layer="132" to-port="1"/>
		<edge from-layer="132" from-port="2" to-layer="133" to-port="0"/>
		<edge from-layer="133" from-port="1" to-layer="135" to-port="0"/>
		<edge from-layer="134" from-port="1" to-layer="135" to-port="1"/>
		<edge from-layer="135" from-port="2" to-layer="137" to-port="0"/>
		<edge from-layer="136" from-port="1" to-layer="137" to-port="1"/>
		<edge from-layer="137" from-port="2" to-layer="138" to-port="0"/>
		<edge from-layer="138" from-port="1" to-layer="140" to-port="0"/>
		<edge from-layer="139" from-port="1" to-layer="140" to-port="1"/>
		<edge from-layer="140" from-port="2" to-layer="142" to-port="0"/>
		<edge from-layer="141" from-port="1" to-layer="142" to-port="1"/>
		<edge from-layer="142" from-port="2" to-layer="143" to-port="0"/>
		<edge from-layer="143" from-port="1" to-layer="145" to-port="0"/>
		<edge from-layer="144" from-port="1" to-layer="145" to-port="1"/>
		<edge from-layer="145" from-port="2" to-layer="147" to-port="0"/>
		<edge from-layer="146" from-port="1" to-layer="147" to-port="1"/>
		<edge from-layer="147" from-port="2" to-layer="149" to-port="0"/>
		<edge from-layer="148" from-port="1" to-layer="149" to-port="1"/>
		<edge from-layer="149" from-port="2" to-layer="151" to-port="0"/>
		<edge from-layer="150" from-port="1" to-layer="151" to-port="1"/>
		<edge from-layer="143" from-port="1" to-layer="153" to-port="0"/>
		<edge from-layer="152" from-port="1" to-layer="153" to-port="1"/>
		<edge from-layer="153" from-port="2" to-layer="155" to-port="0"/>
		<edge from-layer="154" from-port="1" to-layer="155" to-port="1"/>
		<edge from-layer="155" from-port="2" to-layer="156" to-port="0"/>
		<edge from-layer="156" from-port="1" to-layer="158" to-port="0"/>
		<edge from-layer="157" from-port="1" to-layer="158" to-port="1"/>
		<edge from-layer="158" from-port="2" to-layer="160" to-port="0"/>
		<edge from-layer="159" from-port="1" to-layer="160" to-port="1"/>
		<edge from-layer="160" from-port="2" to-layer="161" to-port="0"/>
		<edge from-layer="161" from-port="1" to-layer="163" to-port="0"/>
		<edge from-layer="162" from-port="1" to-layer="163" to-port="1"/>
		<edge from-layer="163" from-port="2" to-layer="165" to-port="0"/>
		<edge from-layer="164" from-port="1" to-layer="165" to-port="1"/>
		<edge from-layer="165" from-port="2" to-layer="167" to-port="0"/>
		<edge from-layer="166" from-port="1" to-layer="167" to-port="1"/>
		<edge from-layer="167" from-port="2" to-layer="169" to-port="0"/>
		<edge from-layer="168" from-port="1" to-layer="169" to-port="1"/>
		<edge from-layer="161" from-port="1" to-layer="171" to-port="0"/>
		<edge from-layer="170" from-port="1" to-layer="171" to-port="1"/>
		<edge from-layer="171" from-port="2" to-layer="173" to-port="0"/>
		<edge from-layer="172" from-port="1" to-layer="173" to-port="1"/>
		<edge from-layer="173" from-port="2" to-layer="174" to-port="0"/>
		<edge from-layer="174" from-port="1" to-layer="176" to-port="0"/>
		<edge from-layer="175" from-port="1" to-layer="176" to-port="1"/>
		<edge from-layer="176" from-port="2" to-layer="178" to-port="0"/>
		<edge from-layer="177" from-port="1" to-layer="178" to-port="1"/>
		<edge from-layer="178" from-port="2" to-layer="179" to-port="0"/>
		<edge from-layer="179" from-port="1" to-layer="181" to-port="0"/>
		<edge from-layer="180" from-port="1" to-layer="181" to-port="1"/>
		<edge from-layer="181" from-port="2" to-layer="183" to-port="0"/>
		<edge from-layer="182" from-port="1" to-layer="183" to-port="1"/>
		<edge from-layer="183" from-port="2" to-layer="185" to-port="0"/>
		<edge from-layer="184" from-port="1" to-layer="185" to-port="1"/>
		<edge from-layer="185" from-port="2" to-layer="187" to-port="0"/>
		<edge from-layer="186" from-port="1" to-layer="187" to-port="1"/>
		<edge from-layer="179" from-port="1" to-layer="189" to-port="0"/>
		<edge from-layer="188" from-port="1" to-layer="189" to-port="1"/>
		<edge from-layer="189" from-port="2" to-layer="191" to-port="0"/>
		<edge from-layer="190" from-port="1" to-layer="191" to-port="1"/>
		<edge from-layer="191" from-port="2" to-layer="192" to-port="0"/>
		<edge from-layer="192" from-port="1" to-layer="194" to-port="0"/>
		<edge from-layer="193" from-port="1" to-layer="194" to-port="1"/>
		<edge from-layer="194" from-port="2" to-layer="196" to-port="0"/>
		<edge from-layer="195" from-port="1" to-layer="196" to-port="1"/>
		<edge from-layer="196" from-port="2" to-layer="197" to-port="0"/>
		<edge from-layer="197" from-port="1" to-layer="199" to-port="0"/>
		<edge from-layer="198" from-port="1" to-layer="199" to-port="1"/>
		<edge from-layer="199" from-port="2" to-layer="201" to-port="0"/>
		<edge from-layer="200" from-port="1" to-layer="201" to-port="1"/>
		<edge from-layer="201" from-port="2" to-layer="203" to-port="0"/>
		<edge from-layer="202" from-port="1" to-layer="203" to-port="1"/>
		<edge from-layer="203" from-port="2" to-layer="205" to-port="0"/>
		<edge from-layer="204" from-port="1" to-layer="205" to-port="1"/>
		<edge from-layer="197" from-port="1" to-layer="207" to-port="0"/>
		<edge from-layer="206" from-port="1" to-layer="207" to-port="1"/>
		<edge from-layer="207" from-port="2" to-layer="209" to-port="0"/>
		<edge from-layer="208" from-port="1" to-layer="209" to-port="1"/>
		<edge from-layer="209" from-port="2" to-layer="210" to-port="0"/>
		<edge from-layer="210" from-port="1" to-layer="212" to-port="0"/>
		<edge from-layer="211" from-port="1" to-layer="212" to-port="1"/>
		<edge from-layer="212" from-port="2" to-layer="214" to-port="0"/>
		<edge from-layer="213" from-port="1" to-layer="214" to-port="1"/>
		<edge from-layer="214" from-port="2" to-layer="215" to-port="0"/>
		<edge from-layer="215" from-port="1" to-layer="217" to-port="0"/>
		<edge from-layer="216" from-port="1" to-layer="217" to-port="1"/>
		<edge from-layer="217" from-port="2" to-layer="219" to-port="0"/>
		<edge from-layer="218" from-port="1" to-layer="219" to-port="1"/>
		<edge from-layer="219" from-port="2" to-layer="221" to-port="0"/>
		<edge from-layer="220" from-port="1" to-layer="221" to-port="1"/>
		<edge from-layer="221" from-port="2" to-layer="223" to-port="0"/>
		<edge from-layer="222" from-port="1" to-layer="223" to-port="1"/>
		<edge from-layer="123" from-port="2" to-layer="224" to-port="0"/>
		<edge from-layer="151" from-port="2" to-layer="224" to-port="1"/>
		<edge from-layer="169" from-port="2" to-layer="224" to-port="2"/>
		<edge from-layer="187" from-port="2" to-layer="224" to-port="3"/>
		<edge from-layer="205" from-port="2" to-layer="224" to-port="4"/>
		<edge from-layer="223" from-port="2" to-layer="224" to-port="5"/>
		<edge from-layer="115" from-port="1" to-layer="226" to-port="0"/>
		<edge from-layer="225" from-port="1" to-layer="226" to-port="1"/>
		<edge from-layer="226" from-port="2" to-layer="228" to-port="0"/>
		<edge from-layer="227" from-port="1" to-layer="228" to-port="1"/>
		<edge from-layer="228" from-port="2" to-layer="230" to-port="0"/>
		<edge from-layer="229" from-port="1" to-layer="230" to-port="1"/>
		<edge from-layer="230" from-port="2" to-layer="232" to-port="0"/>
		<edge from-layer="231" from-port="1" to-layer="232" to-port="1"/>
		<edge from-layer="143" from-port="1" to-layer="234" to-port="0"/>
		<edge from-layer="233" from-port="1" to-layer="234" to-port="1"/>
		<edge from-layer="234" from-port="2" to-layer="236" to-port="0"/>
		<edge from-layer="235" from-port="1" to-layer="236" to-port="1"/>
		<edge from-layer="236" from-port="2" to-layer="238" to-port="0"/>
		<edge from-layer="237" from-port="1" to-layer="238" to-port="1"/>
		<edge from-layer="238" from-port="2" to-layer="240" to-port="0"/>
		<edge from-layer="239" from-port="1" to-layer="240" to-port="1"/>
		<edge from-layer="161" from-port="1" to-layer="242" to-port="0"/>
		<edge from-layer="241" from-port="1" to-layer="242" to-port="1"/>
		<edge from-layer="242" from-port="2" to-layer="244" to-port="0"/>
		<edge from-layer="243" from-port="1" to-layer="244" to-port="1"/>
		<edge from-layer="244" from-port="2" to-layer="246" to-port="0"/>
		<edge from-layer="245" from-port="1" to-layer="246" to-port="1"/>
		<edge from-layer="246" from-port="2" to-layer="248" to-port="0"/>
		<edge from-layer="247" from-port="1" to-layer="248" to-port="1"/>
		<edge from-layer="179" from-port="1" to-layer="250" to-port="0"/>
		<edge from-layer="249" from-port="1" to-layer="250" to-port="1"/>
		<edge from-layer="250" from-port="2" to-layer="252" to-port="0"/>
		<edge from-layer="251" from-port="1" to-layer="252" to-port="1"/>
		<edge from-layer="252" from-port="2" to-layer="254" to-port="0"/>
		<edge from-layer="253" from-port="1" to-layer="254" to-port="1"/>
		<edge from-layer="254" from-port="2" to-layer="256" to-port="0"/>
		<edge from-layer="255" from-port="1" to-layer="256" to-port="1"/>
		<edge from-layer="197" from-port="1" to-layer="258" to-port="0"/>
		<edge from-layer="257" from-port="1" to-layer="258" to-port="1"/>
		<edge from-layer="258" from-port="2" to-layer="260" to-port="0"/>
		<edge from-layer="259" from-port="1" to-layer="260" to-port="1"/>
		<edge from-layer="260" from-port="2" to-layer="262" to-port="0"/>
		<edge from-layer="261" from-port="1" to-layer="262" to-port="1"/>
		<edge from-layer="262" from-port="2" to-layer="264" to-port="0"/>
		<edge from-layer="263" from-port="1" to-layer="264" to-port="1"/>
		<edge from-layer="215" from-port="1" to-layer="266" to-port="0"/>
		<edge from-layer="265" from-port="1" to-layer="266" to-port="1"/>
		<edge from-layer="266" from-port="2" to-layer="268" to-port="0"/>
		<edge from-layer="267" from-port="1" to-layer="268" to-port="1"/>
		<edge from-layer="268" from-port="2" to-layer="270" to-port="0"/>
		<edge from-layer="269" from-port="1" to-layer="270" to-port="1"/>
		<edge from-layer="270" from-port="2" to-layer="272" to-port="0"/>
		<edge from-layer="271" from-port="1" to-layer="272" to-port="1"/>
		<edge from-layer="232" from-port="2" to-layer="273" to-port="0"/>
		<edge from-layer="240" from-port="2" to-layer="273" to-port="1"/>
		<edge from-layer="248" from-port="2" to-layer="273" to-port="2"/>
		<edge from-layer="256" from-port="2" to-layer="273" to-port="3"/>
		<edge from-layer="264" from-port="2" to-layer="273" to-port="4"/>
		<edge from-layer="272" from-port="2" to-layer="273" to-port="5"/>
		<edge from-layer="273" from-port="6" to-layer="275" to-port="0"/>
		<edge from-layer="274" from-port="1" to-layer="275" to-port="1"/>
		<edge from-layer="275" from-port="2" to-layer="276" to-port="0"/>
		<edge from-layer="276" from-port="1" to-layer="278" to-port="0"/>
		<edge from-layer="277" from-port="1" to-layer="278" to-port="1"/>
		<edge from-layer="115" from-port="1" to-layer="279" to-port="0"/>
		<edge from-layer="279" from-port="1" to-layer="283" to-port="0"/>
		<edge from-layer="280" from-port="1" to-layer="283" to-port="1"/>
		<edge from-layer="281" from-port="1" to-layer="283" to-port="2"/>
		<edge from-layer="282" from-port="1" to-layer="283" to-port="3"/>
		<edge from-layer="0" from-port="0" to-layer="284" to-port="0"/>
		<edge from-layer="284" from-port="1" to-layer="288" to-port="0"/>
		<edge from-layer="285" from-port="1" to-layer="288" to-port="1"/>
		<edge from-layer="286" from-port="1" to-layer="288" to-port="2"/>
		<edge from-layer="287" from-port="1" to-layer="288" to-port="3"/>
		<edge from-layer="283" from-port="4" to-layer="289" to-port="0"/>
		<edge from-layer="288" from-port="4" to-layer="289" to-port="1"/>
		<edge from-layer="289" from-port="2" to-layer="291" to-port="0"/>
		<edge from-layer="290" from-port="1" to-layer="291" to-port="1"/>
		<edge from-layer="143" from-port="1" to-layer="292" to-port="0"/>
		<edge from-layer="292" from-port="1" to-layer="296" to-port="0"/>
		<edge from-layer="293" from-port="1" to-layer="296" to-port="1"/>
		<edge from-layer="294" from-port="1" to-layer="296" to-port="2"/>
		<edge from-layer="295" from-port="1" to-layer="296" to-port="3"/>
		<edge from-layer="0" from-port="0" to-layer="297" to-port="0"/>
		<edge from-layer="297" from-port="1" to-layer="301" to-port="0"/>
		<edge from-layer="298" from-port="1" to-layer="301" to-port="1"/>
		<edge from-layer="299" from-port="1" to-layer="301" to-port="2"/>
		<edge from-layer="300" from-port="1" to-layer="301" to-port="3"/>
		<edge from-layer="296" from-port="4" to-layer="302" to-port="0"/>
		<edge from-layer="301" from-port="4" to-layer="302" to-port="1"/>
		<edge from-layer="302" from-port="2" to-layer="304" to-port="0"/>
		<edge from-layer="303" from-port="1" to-layer="304" to-port="1"/>
		<edge from-layer="161" from-port="1" to-layer="305" to-port="0"/>
		<edge from-layer="305" from-port="1" to-layer="309" to-port="0"/>
		<edge from-layer="306" from-port="1" to-layer="309" to-port="1"/>
		<edge from-layer="307" from-port="1" to-layer="309" to-port="2"/>
		<edge from-layer="308" from-port="1" to-layer="309" to-port="3"/>
		<edge from-layer="0" from-port="0" to-layer="310" to-port="0"/>
		<edge from-layer="310" from-port="1" to-layer="314" to-port="0"/>
		<edge from-layer="311" from-port="1" to-layer="314" to-port="1"/>
		<edge from-layer="312" from-port="1" to-layer="314" to-port="2"/>
		<edge from-layer="313" from-port="1" to-layer="314" to-port="3"/>
		<edge from-layer="309" from-port="4" to-layer="315" to-port="0"/>
		<edge from-layer="314" from-port="4" to-layer="315" to-port="1"/>
		<edge from-layer="315" from-port="2" to-layer="317" to-port="0"/>
		<edge from-layer="316" from-port="1" to-layer="317" to-port="1"/>
		<edge from-layer="179" from-port="1" to-layer="318" to-port="0"/>
		<edge from-layer="318" from-port="1" to-layer="322" to-port="0"/>
		<edge from-layer="319" from-port="1" to-layer="322" to-port="1"/>
		<edge from-layer="320" from-port="1" to-layer="322" to-port="2"/>
		<edge from-layer="321" from-port="1" to-layer="322" to-port="3"/>
		<edge from-layer="0" from-port="0" to-layer="323" to-port="0"/>
		<edge from-layer="323" from-port="1" to-layer="327" to-port="0"/>
		<edge from-layer="324" from-port="1" to-layer="327" to-port="1"/>
		<edge from-layer="325" from-port="1" to-layer="327" to-port="2"/>
		<edge from-layer="326" from-port="1" to-layer="327" to-port="3"/>
		<edge from-layer="322" from-port="4" to-layer="328" to-port="0"/>
		<edge from-layer="327" from-port="4" to-layer="328" to-port="1"/>
		<edge from-layer="328" from-port="2" to-layer="330" to-port="0"/>
		<edge from-layer="329" from-port="1" to-layer="330" to-port="1"/>
		<edge from-layer="197" from-port="1" to-layer="331" to-port="0"/>
		<edge from-layer="331" from-port="1" to-layer="335" to-port="0"/>
		<edge from-layer="332" from-port="1" to-layer="335" to-port="1"/>
		<edge from-layer="333" from-port="1" to-layer="335" to-port="2"/>
		<edge from-layer="334" from-port="1" to-layer="335" to-port="3"/>
		<edge from-layer="0" from-port="0" to-layer="336" to-port="0"/>
		<edge from-layer="336" from-port="1" to-layer="340" to-port="0"/>
		<edge from-layer="337" from-port="1" to-layer="340" to-port="1"/>
		<edge from-layer="338" from-port="1" to-layer="340" to-port="2"/>
		<edge from-layer="339" from-port="1" to-layer="340" to-port="3"/>
		<edge from-layer="335" from-port="4" to-layer="341" to-port="0"/>
		<edge from-layer="340" from-port="4" to-layer="341" to-port="1"/>
		<edge from-layer="341" from-port="2" to-layer="343" to-port="0"/>
		<edge from-layer="342" from-port="1" to-layer="343" to-port="1"/>
		<edge from-layer="215" from-port="1" to-layer="344" to-port="0"/>
		<edge from-layer="344" from-port="1" to-layer="348" to-port="0"/>
		<edge from-layer="345" from-port="1" to-layer="348" to-port="1"/>
		<edge from-layer="346" from-port="1" to-layer="348" to-port="2"/>
		<edge from-layer="347" from-port="1" to-layer="348" to-port="3"/>
		<edge from-layer="0" from-port="0" to-layer="349" to-port="0"/>
		<edge from-layer="349" from-port="1" to-layer="353" to-port="0"/>
		<edge from-layer="350" from-port="1" to-layer="353" to-port="1"/>
		<edge from-layer="351" from-port="1" to-layer="353" to-port="2"/>
		<edge from-layer="352" from-port="1" to-layer="353" to-port="3"/>
		<edge from-layer="348" from-port="4" to-layer="354" to-port="0"/>
		<edge from-layer="353" from-port="4" to-layer="354" to-port="1"/>
		<edge from-layer="354" from-port="2" to-layer="356" to-port="0"/>
		<edge from-layer="355" from-port="1" to-layer="356" to-port="1"/>
		<edge from-layer="291" from-port="2" to-layer="357" to-port="0"/>
		<edge from-layer="304" from-port="2" to-layer="357" to-port="1"/>
		<edge from-layer="317" from-port="2" to-layer="357" to-port="2"/>
		<edge from-layer="330" from-port="2" to-layer="357" to-port="3"/>
		<edge from-layer="343" from-port="2" to-layer="357" to-port="4"/>
		<edge from-layer="356" from-port="2" to-layer="357" to-port="5"/>
		<edge from-layer="224" from-port="6" to-layer="358" to-port="0"/>
		<edge from-layer="278" from-port="2" to-layer="358" to-port="1"/>
		<edge from-layer="357" from-port="6" to-layer="358" to-port="2"/>
		<edge from-layer="358" from-port="3" to-layer="359" to-port="0"/>
	</edges>
	<meta_data>
		<MO_version value="2021.2.0-1877-176bdf51370-releases/2021/2"/>
		<cli_parameters>
			<caffe_parser_path value="DIR"/>
			<data_type value="FP16"/>
			<disable_nhwc_to_nchw value="False"/>
			<disable_omitting_optional value="False"/>
			<disable_resnet_optimization value="False"/>
			<disable_weights_compression value="False"/>
			<enable_concat_optimization value="False"/>
			<enable_flattening_nested_params value="False"/>
			<enable_ssd_gluoncv value="False"/>
			<extensions value="DIR"/>
			<framework value="caffe"/>
			<freeze_placeholder_with_value value="{}"/>
			<generate_deprecated_IR_V7 value="False"/>
			<input_model value="DIR/mobilenet-ssd.caffemodel"/>
			<input_model_is_text value="False"/>
			<input_proto value="DIR/mobilenet-ssd.prototxt"/>
			<k value="DIR/CustomLayersMapping.xml"/>
			<keep_shape_ops value="True"/>
			<legacy_mxnet_model value="False"/>
			<log_level value="ERROR"/>
			<mean_scale_values value="{}"/>
			<mean_values value="()"/>
			<model_name value="mobilenet-ssd-fp16"/>
			<output_dir value="DIR"/>
			<placeholder_data_types value="{}"/>
			<progress value="False"/>
			<remove_memory value="False"/>
			<remove_output_softmax value="False"/>
			<reverse_input_channels value="False"/>
			<save_params_from_nd value="False"/>
			<scale_values value="()"/>
			<silent value="False"/>
			<static_shape value="False"/>
			<stream_output value="False"/>
			<unset unset_cli_parameters="batch, counts, disable_fusing, disable_gfusing, finegrain_fusing, input, input_checkpoint, input_meta_graph, input_shape, input_symbol, mean_file, mean_file_offsets, move_to_preprocess, nd_prefix_name, output, placeholder_shapes, pretrained_model_name, saved_model_dir, saved_model_tags, scale, tensorboard_logdir, tensorflow_custom_layer_libraries, tensorflow_custom_operations_config_update, tensorflow_object_detection_api_pipeline_config, tensorflow_use_custom_operations_config, transformations_config"/>
		</cli_parameters>
	</meta_data>
</net>
