<?xml version="1.0" ?>
<net name="osnet_x1_0_fp16" version="10">
	<layers>
		<layer id="0" name="image" type="Parameter" version="opset1">
			<data element_type="f16" shape="1,3,256,128"/>
			<output>
				<port id="0" precision="FP16">
					<dim>1</dim>
					<dim>3</dim>
					<dim>256</dim>
					<dim>128</dim>
				</port>
			</output>
		</layer>
		<layer id="1" name="1048/Output_0/Data__const" type="Const" version="opset1">
			<data element_type="f16" offset="0" shape="64,3,7,7" size="18816"/>
			<output>
				<port id="1" precision="FP16">
					<dim>64</dim>
					<dim>3</dim>
					<dim>7</dim>
					<dim>7</dim>
				</port>
			</output>
		</layer>
		<layer id="2" name="Conv_0/WithoutBiases" type="Convolution" version="opset1">
			<data dilations="1,1" output_padding="0,0" pads_begin="3,3" pads_end="3,3" strides="2,2"/>
			<input>
				<port id="0">
					<dim>1</dim>
					<dim>3</dim>
					<dim>256</dim>
					<dim>128</dim>
				</port>
				<port id="1">
					<dim>64</dim>
					<dim>3</dim>
					<dim>7</dim>
					<dim>7</dim>
				</port>
			</input>
			<output>
				<port id="2" precision="FP16">
					<dim>1</dim>
					<dim>64</dim>
					<dim>128</dim>
					<dim>64</dim>
				</port>
			</output>
		</layer>
		<layer id="3" name="Conv_0/Dims765512813/EltwiseUnsqueeze13110_const" type="Const" version="opset1">
			<data element_type="f16" offset="18816" shape="1,64,1,1" size="128"/>
			<output>
				<port id="1" precision="FP16">
					<dim>1</dim>
					<dim>64</dim>
					<dim>1</dim>
					<dim>1</dim>
				</port>
			</output>
		</layer>
		<layer id="4" name="Conv_0" type="Add" version="opset1">
			<input>
				<port id="0">
					<dim>1</dim>
					<dim>64</dim>
					<dim>128</dim>
					<dim>64</dim>
				</port>
				<port id="1">
					<dim>1</dim>
					<dim>64</dim>
					<dim>1</dim>
					<dim>1</dim>
				</port>
			</input>
			<output>
				<port id="2" precision="FP16">
					<dim>1</dim>
					<dim>64</dim>
					<dim>128</dim>
					<dim>64</dim>
				</port>
			</output>
		</layer>
		<layer id="5" name="Relu_1" type="ReLU" version="opset1">
			<input>
				<port id="0">
					<dim>1</dim>
					<dim>64</dim>
					<dim>128</dim>
					<dim>64</dim>
				</port>
			</input>
			<output>
				<port id="1" precision="FP16">
					<dim>1</dim>
					<dim>64</dim>
					<dim>128</dim>
					<dim>64</dim>
				</port>
			</output>
		</layer>
		<layer id="6" name="MaxPool_2" type="MaxPool" version="opset1">
			<data kernel="3,3" pads_begin="1,1" pads_end="1,1" rounding_type="floor" strides="2,2"/>
			<input>
				<port id="0">
					<dim>1</dim>
					<dim>64</dim>
					<dim>128</dim>
					<dim>64</dim>
				</port>
			</input>
			<output>
				<port id="1" precision="FP16">
					<dim>1</dim>
					<dim>64</dim>
					<dim>64</dim>
					<dim>32</dim>
				</port>
			</output>
		</layer>
		<layer id="7" name="1051/Output_0/Data__const" type="Const" version="opset1">
			<data element_type="f16" offset="18944" shape="64,64,1,1" size="8192"/>
			<output>
				<port id="1" precision="FP16">
					<dim>64</dim>
					<dim>64</dim>
					<dim>1</dim>
					<dim>1</dim>
				</port>
			</output>
		</layer>
		<layer id="8" name="Conv_3/WithoutBiases" type="Convolution" version="opset1">
			<data dilations="1,1" output_padding="0,0" pads_begin="0,0" pads_end="0,0" strides="1,1"/>
			<input>
				<port id="0">
					<dim>1</dim>
					<dim>64</dim>
					<dim>64</dim>
					<dim>32</dim>
				</port>
				<port id="1">
					<dim>64</dim>
					<dim>64</dim>
					<dim>1</dim>
					<dim>1</dim>
				</port>
			</input>
			<output>
				<port id="2" precision="FP16">
					<dim>1</dim>
					<dim>64</dim>
					<dim>64</dim>
					<dim>32</dim>
				</port>
			</output>
		</layer>
		<layer id="9" name="Conv_3/Dims737312766/EltwiseUnsqueeze12922_const" type="Const" version="opset1">
			<data element_type="f16" offset="27136" shape="1,64,1,1" size="128"/>
			<output>
				<port id="1" precision="FP16">
					<dim>1</dim>
					<dim>64</dim>
					<dim>1</dim>
					<dim>1</dim>
				</port>
			</output>
		</layer>
		<layer id="10" name="Conv_3" type="Add" version="opset1">
			<input>
				<port id="0">
					<dim>1</dim>
					<dim>64</dim>
					<dim>64</dim>
					<dim>32</dim>
				</port>
				<port id="1">
					<dim>1</dim>
					<dim>64</dim>
					<dim>1</dim>
					<dim>1</dim>
				</port>
			</input>
			<output>
				<port id="2" precision="FP16">
					<dim>1</dim>
					<dim>64</dim>
					<dim>64</dim>
					<dim>32</dim>
				</port>
			</output>
		</layer>
		<layer id="11" name="Relu_4" type="ReLU" version="opset1">
			<input>
				<port id="0">
					<dim>1</dim>
					<dim>64</dim>
					<dim>64</dim>
					<dim>32</dim>
				</port>
			</input>
			<output>
				<port id="1" precision="FP16">
					<dim>1</dim>
					<dim>64</dim>
					<dim>64</dim>
					<dim>32</dim>
				</port>
			</output>
		</layer>
		<layer id="12" name="conv2.0.conv2a.conv1.weight/Output_0/Data__const" type="Const" version="opset1">
			<data element_type="f16" offset="27264" shape="64,64,1,1" size="8192"/>
			<output>
				<port id="1" precision="FP16">
					<dim>64</dim>
					<dim>64</dim>
					<dim>1</dim>
					<dim>1</dim>
				</port>
			</output>
		</layer>
		<layer id="13" name="Conv_5" type="Convolution" version="opset1">
			<data dilations="1,1" output_padding="0,0" pads_begin="0,0" pads_end="0,0" strides="1,1"/>
			<input>
				<port id="0">
					<dim>1</dim>
					<dim>64</dim>
					<dim>64</dim>
					<dim>32</dim>
				</port>
				<port id="1">
					<dim>64</dim>
					<dim>64</dim>
					<dim>1</dim>
					<dim>1</dim>
				</port>
			</input>
			<output>
				<port id="2" precision="FP16">
					<dim>1</dim>
					<dim>64</dim>
					<dim>64</dim>
					<dim>32</dim>
				</port>
			</output>
		</layer>
		<layer id="14" name="2865028653_const" type="Const" version="opset1">
			<data element_type="f16" offset="35456" shape="64,1,1,3,3" size="1152"/>
			<output>
				<port id="1" precision="FP16">
					<dim>64</dim>
					<dim>1</dim>
					<dim>1</dim>
					<dim>3</dim>
					<dim>3</dim>
				</port>
			</output>
		</layer>
		<layer id="15" name="Conv_6/WithoutBiases" type="GroupConvolution" version="opset1">
			<data dilations="1,1" output_padding="0,0" pads_begin="1,1" pads_end="1,1" strides="1,1"/>
			<input>
				<port id="0">
					<dim>1</dim>
					<dim>64</dim>
					<dim>64</dim>
					<dim>32</dim>
				</port>
				<port id="1">
					<dim>64</dim>
					<dim>1</dim>
					<dim>1</dim>
					<dim>3</dim>
					<dim>3</dim>
				</port>
			</input>
			<output>
				<port id="2" precision="FP16">
					<dim>1</dim>
					<dim>64</dim>
					<dim>64</dim>
					<dim>32</dim>
				</port>
			</output>
		</layer>
		<layer id="16" name="Conv_6/Dims764912812/EltwiseUnsqueeze13106_const" type="Const" version="opset1">
			<data element_type="f16" offset="36608" shape="1,64,1,1" size="128"/>
			<output>
				<port id="1" precision="FP16">
					<dim>1</dim>
					<dim>64</dim>
					<dim>1</dim>
					<dim>1</dim>
				</port>
			</output>
		</layer>
		<layer id="17" name="Conv_6" type="Add" version="opset1">
			<input>
				<port id="0">
					<dim>1</dim>
					<dim>64</dim>
					<dim>64</dim>
					<dim>32</dim>
				</port>
				<port id="1">
					<dim>1</dim>
					<dim>64</dim>
					<dim>1</dim>
					<dim>1</dim>
				</port>
			</input>
			<output>
				<port id="2" precision="FP16">
					<dim>1</dim>
					<dim>64</dim>
					<dim>64</dim>
					<dim>32</dim>
				</port>
			</output>
		</layer>
		<layer id="18" name="Relu_7" type="ReLU" version="opset1">
			<input>
				<port id="0">
					<dim>1</dim>
					<dim>64</dim>
					<dim>64</dim>
					<dim>32</dim>
				</port>
			</input>
			<output>
				<port id="1" precision="FP16">
					<dim>1</dim>
					<dim>64</dim>
					<dim>64</dim>
					<dim>32</dim>
				</port>
			</output>
		</layer>
		<layer id="19" name="654/Output_0/Data__const" type="Const" version="opset1">
			<data element_type="i64" offset="36736" shape="" size="8"/>
			<output>
				<port id="1" precision="I64"/>
			</output>
		</layer>
		<layer id="20" name="GlobalAveragePool_35/input_rank/shape_of" type="ShapeOf" version="opset3">
			<data output_type="i64"/>
			<input>
				<port id="0">
					<dim>1</dim>
					<dim>64</dim>
					<dim>64</dim>
					<dim>32</dim>
				</port>
			</input>
			<output>
				<port id="1" precision="I64">
					<dim>4</dim>
				</port>
			</output>
		</layer>
		<layer id="21" name="GlobalAveragePool_35/input_rank/rank_of" type="ShapeOf" version="opset3">
			<data output_type="i64"/>
			<input>
				<port id="0">
					<dim>4</dim>
				</port>
			</input>
			<output>
				<port id="1" precision="I64">
					<dim>1</dim>
				</port>
			</output>
		</layer>
		<layer id="22" name="GlobalAveragePool_35/input_rank/0d_rank_of/value/Output_0/Data__const" type="Const" version="opset1">
			<data element_type="i64" offset="36744" shape="1" size="8"/>
			<output>
				<port id="1" precision="I64">
					<dim>1</dim>
				</port>
			</output>
		</layer>
		<layer id="23" name="GlobalAveragePool_35/input_rank" type="Squeeze" version="opset1">
			<input>
				<port id="0">
					<dim>1</dim>
				</port>
				<port id="1">
					<dim>1</dim>
				</port>
			</input>
			<output>
				<port id="2" precision="I64"/>
			</output>
		</layer>
		<layer id="24" name="656/Output_0/Data__const" type="Const" version="opset1">
			<data element_type="i64" offset="36752" shape="" size="8"/>
			<output>
				<port id="1" precision="I64"/>
			</output>
		</layer>
		<layer id="25" name="GlobalAveragePool_35/global_pooling_reduce_axis" type="Range" version="opset4">
			<data output_type="i64"/>
			<input>
				<port id="0"/>
				<port id="1"/>
				<port id="2"/>
			</input>
			<output>
				<port id="3" precision="I64">
					<dim>2</dim>
				</port>
			</output>
		</layer>
		<layer id="26" name="GlobalAveragePool_35/reduce" type="ReduceMean" version="opset1">
			<data keep_dims="True"/>
			<input>
				<port id="0">
					<dim>1</dim>
					<dim>64</dim>
					<dim>64</dim>
					<dim>32</dim>
				</port>
				<port id="1">
					<dim>2</dim>
				</port>
			</input>
			<output>
				<port id="2" precision="FP16">
					<dim>1</dim>
					<dim>64</dim>
					<dim>1</dim>
					<dim>1</dim>
				</port>
			</output>
		</layer>
		<layer id="27" name="Copy_conv2.0.gate.fc1.weight/Output_0/Data__const" type="Const" version="opset1">
			<data element_type="f16" offset="36760" shape="4,64,1,1" size="512"/>
			<output>
				<port id="1" precision="FP16">
					<dim>4</dim>
					<dim>64</dim>
					<dim>1</dim>
					<dim>1</dim>
				</port>
			</output>
		</layer>
		<layer id="28" name="Conv_36/WithoutBiases" type="Convolution" version="opset1">
			<data dilations="1,1" output_padding="0,0" pads_begin="0,0" pads_end="0,0" strides="1,1"/>
			<input>
				<port id="0">
					<dim>1</dim>
					<dim>64</dim>
					<dim>1</dim>
					<dim>1</dim>
				</port>
				<port id="1">
					<dim>4</dim>
					<dim>64</dim>
					<dim>1</dim>
					<dim>1</dim>
				</port>
			</input>
			<output>
				<port id="2" precision="FP16">
					<dim>1</dim>
					<dim>4</dim>
					<dim>1</dim>
					<dim>1</dim>
				</port>
			</output>
		</layer>
		<layer id="29" name="Conv_36/Dims788912852/EltwiseUnsqueeze13266_const" type="Const" version="opset1">
			<data element_type="f16" offset="37272" shape="1,4,1,1" size="8"/>
			<output>
				<port id="1" precision="FP16">
					<dim>1</dim>
					<dim>4</dim>
					<dim>1</dim>
					<dim>1</dim>
				</port>
			</output>
		</layer>
		<layer id="30" name="Conv_36" type="Add" version="opset1">
			<input>
				<port id="0">
					<dim>1</dim>
					<dim>4</dim>
					<dim>1</dim>
					<dim>1</dim>
				</port>
				<port id="1">
					<dim>1</dim>
					<dim>4</dim>
					<dim>1</dim>
					<dim>1</dim>
				</port>
			</input>
			<output>
				<port id="2" precision="FP16">
					<dim>1</dim>
					<dim>4</dim>
					<dim>1</dim>
					<dim>1</dim>
				</port>
			</output>
		</layer>
		<layer id="31" name="Relu_37" type="ReLU" version="opset1">
			<input>
				<port id="0">
					<dim>1</dim>
					<dim>4</dim>
					<dim>1</dim>
					<dim>1</dim>
				</port>
			</input>
			<output>
				<port id="1" precision="FP16">
					<dim>1</dim>
					<dim>4</dim>
					<dim>1</dim>
					<dim>1</dim>
				</port>
			</output>
		</layer>
		<layer id="32" name="Copy_conv2.0.gate.fc2.weight/Output_0/Data__const" type="Const" version="opset1">
			<data element_type="f16" offset="37280" shape="64,4,1,1" size="512"/>
			<output>
				<port id="1" precision="FP16">
					<dim>64</dim>
					<dim>4</dim>
					<dim>1</dim>
					<dim>1</dim>
				</port>
			</output>
		</layer>
		<layer id="33" name="Conv_38/WithoutBiases" type="Convolution" version="opset1">
			<data dilations="1,1" output_padding="0,0" pads_begin="0,0" pads_end="0,0" strides="1,1"/>
			<input>
				<port id="0">
					<dim>1</dim>
					<dim>4</dim>
					<dim>1</dim>
					<dim>1</dim>
				</port>
				<port id="1">
					<dim>64</dim>
					<dim>4</dim>
					<dim>1</dim>
					<dim>1</dim>
				</port>
			</input>
			<output>
				<port id="2" precision="FP16">
					<dim>1</dim>
					<dim>64</dim>
					<dim>1</dim>
					<dim>1</dim>
				</port>
			</output>
		</layer>
		<layer id="34" name="Conv_38/Dims760112804/EltwiseUnsqueeze13074_const" type="Const" version="opset1">
			<data element_type="f16" offset="37792" shape="1,64,1,1" size="128"/>
			<output>
				<port id="1" precision="FP16">
					<dim>1</dim>
					<dim>64</dim>
					<dim>1</dim>
					<dim>1</dim>
				</port>
			</output>
		</layer>
		<layer id="35" name="Conv_38" type="Add" version="opset1">
			<input>
				<port id="0">
					<dim>1</dim>
					<dim>64</dim>
					<dim>1</dim>
					<dim>1</dim>
				</port>
				<port id="1">
					<dim>1</dim>
					<dim>64</dim>
					<dim>1</dim>
					<dim>1</dim>
				</port>
			</input>
			<output>
				<port id="2" precision="FP16">
					<dim>1</dim>
					<dim>64</dim>
					<dim>1</dim>
					<dim>1</dim>
				</port>
			</output>
		</layer>
		<layer id="36" name="Sigmoid_39" type="Sigmoid" version="opset1">
			<input>
				<port id="0">
					<dim>1</dim>
					<dim>64</dim>
					<dim>1</dim>
					<dim>1</dim>
				</port>
			</input>
			<output>
				<port id="1" precision="FP16">
					<dim>1</dim>
					<dim>64</dim>
					<dim>1</dim>
					<dim>1</dim>
				</port>
			</output>
		</layer>
		<layer id="37" name="Mul_40" type="Multiply" version="opset1">
			<input>
				<port id="0">
					<dim>1</dim>
					<dim>64</dim>
					<dim>64</dim>
					<dim>32</dim>
				</port>
				<port id="1">
					<dim>1</dim>
					<dim>64</dim>
					<dim>1</dim>
					<dim>1</dim>
				</port>
			</input>
			<output>
				<port id="2" precision="FP16">
					<dim>1</dim>
					<dim>64</dim>
					<dim>64</dim>
					<dim>32</dim>
				</port>
			</output>
		</layer>
		<layer id="38" name="conv2.0.conv2b.0.conv1.weight/Output_0/Data__const" type="Const" version="opset1">
			<data element_type="f16" offset="37920" shape="64,64,1,1" size="8192"/>
			<output>
				<port id="1" precision="FP16">
					<dim>64</dim>
					<dim>64</dim>
					<dim>1</dim>
					<dim>1</dim>
				</port>
			</output>
		</layer>
		<layer id="39" name="Conv_8" type="Convolution" version="opset1">
			<data dilations="1,1" output_padding="0,0" pads_begin="0,0" pads_end="0,0" strides="1,1"/>
			<input>
				<port id="0">
					<dim>1</dim>
					<dim>64</dim>
					<dim>64</dim>
					<dim>32</dim>
				</port>
				<port id="1">
					<dim>64</dim>
					<dim>64</dim>
					<dim>1</dim>
					<dim>1</dim>
				</port>
			</input>
			<output>
				<port id="2" precision="FP16">
					<dim>1</dim>
					<dim>64</dim>
					<dim>64</dim>
					<dim>32</dim>
				</port>
			</output>
		</layer>
		<layer id="40" name="2861028613_const" type="Const" version="opset1">
			<data element_type="f16" offset="46112" shape="64,1,1,3,3" size="1152"/>
			<output>
				<port id="1" precision="FP16">
					<dim>64</dim>
					<dim>1</dim>
					<dim>1</dim>
					<dim>3</dim>
					<dim>3</dim>
				</port>
			</output>
		</layer>
		<layer id="41" name="Conv_9/WithoutBiases" type="GroupConvolution" version="opset1">
			<data dilations="1,1" output_padding="0,0" pads_begin="1,1" pads_end="1,1" strides="1,1"/>
			<input>
				<port id="0">
					<dim>1</dim>
					<dim>64</dim>
					<dim>64</dim>
					<dim>32</dim>
				</port>
				<port id="1">
					<dim>64</dim>
					<dim>1</dim>
					<dim>1</dim>
					<dim>3</dim>
					<dim>3</dim>
				</port>
			</input>
			<output>
				<port id="2" precision="FP16">
					<dim>1</dim>
					<dim>64</dim>
					<dim>64</dim>
					<dim>32</dim>
				</port>
			</output>
		</layer>
		<layer id="42" name="Conv_9/Dims753512793/EltwiseUnsqueeze13030_const" type="Const" version="opset1">
			<data element_type="f16" offset="47264" shape="1,64,1,1" size="128"/>
			<output>
				<port id="1" precision="FP16">
					<dim>1</dim>
					<dim>64</dim>
					<dim>1</dim>
					<dim>1</dim>
				</port>
			</output>
		</layer>
		<layer id="43" name="Conv_9" type="Add" version="opset1">
			<input>
				<port id="0">
					<dim>1</dim>
					<dim>64</dim>
					<dim>64</dim>
					<dim>32</dim>
				</port>
				<port id="1">
					<dim>1</dim>
					<dim>64</dim>
					<dim>1</dim>
					<dim>1</dim>
				</port>
			</input>
			<output>
				<port id="2" precision="FP16">
					<dim>1</dim>
					<dim>64</dim>
					<dim>64</dim>
					<dim>32</dim>
				</port>
			</output>
		</layer>
		<layer id="44" name="Relu_10" type="ReLU" version="opset1">
			<input>
				<port id="0">
					<dim>1</dim>
					<dim>64</dim>
					<dim>64</dim>
					<dim>32</dim>
				</port>
			</input>
			<output>
				<port id="1" precision="FP16">
					<dim>1</dim>
					<dim>64</dim>
					<dim>64</dim>
					<dim>32</dim>
				</port>
			</output>
		</layer>
		<layer id="45" name="conv2.0.conv2b.1.conv1.weight/Output_0/Data__const" type="Const" version="opset1">
			<data element_type="f16" offset="47392" shape="64,64,1,1" size="8192"/>
			<output>
				<port id="1" precision="FP16">
					<dim>64</dim>
					<dim>64</dim>
					<dim>1</dim>
					<dim>1</dim>
				</port>
			</output>
		</layer>
		<layer id="46" name="Conv_11" type="Convolution" version="opset1">
			<data dilations="1,1" output_padding="0,0" pads_begin="0,0" pads_end="0,0" strides="1,1"/>
			<input>
				<port id="0">
					<dim>1</dim>
					<dim>64</dim>
					<dim>64</dim>
					<dim>32</dim>
				</port>
				<port id="1">
					<dim>64</dim>
					<dim>64</dim>
					<dim>1</dim>
					<dim>1</dim>
				</port>
			</input>
			<output>
				<port id="2" precision="FP16">
					<dim>1</dim>
					<dim>64</dim>
					<dim>64</dim>
					<dim>32</dim>
				</port>
			</output>
		</layer>
		<layer id="47" name="2863028633_const" type="Const" version="opset1">
			<data element_type="f16" offset="55584" shape="64,1,1,3,3" size="1152"/>
			<output>
				<port id="1" precision="FP16">
					<dim>64</dim>
					<dim>1</dim>
					<dim>1</dim>
					<dim>3</dim>
					<dim>3</dim>
				</port>
			</output>
		</layer>
		<layer id="48" name="Conv_12/WithoutBiases" type="GroupConvolution" version="opset1">
			<data dilations="1,1" output_padding="0,0" pads_begin="1,1" pads_end="1,1" strides="1,1"/>
			<input>
				<port id="0">
					<dim>1</dim>
					<dim>64</dim>
					<dim>64</dim>
					<dim>32</dim>
				</port>
				<port id="1">
					<dim>64</dim>
					<dim>1</dim>
					<dim>1</dim>
					<dim>3</dim>
					<dim>3</dim>
				</port>
			</input>
			<output>
				<port id="2" precision="FP16">
					<dim>1</dim>
					<dim>64</dim>
					<dim>64</dim>
					<dim>32</dim>
				</port>
			</output>
		</layer>
		<layer id="49" name="Conv_12/Dims759512803/EltwiseUnsqueeze13070_const" type="Const" version="opset1">
			<data element_type="f16" offset="56736" shape="1,64,1,1" size="128"/>
			<output>
				<port id="1" precision="FP16">
					<dim>1</dim>
					<dim>64</dim>
					<dim>1</dim>
					<dim>1</dim>
				</port>
			</output>
		</layer>
		<layer id="50" name="Conv_12" type="Add" version="opset1">
			<input>
				<port id="0">
					<dim>1</dim>
					<dim>64</dim>
					<dim>64</dim>
					<dim>32</dim>
				</port>
				<port id="1">
					<dim>1</dim>
					<dim>64</dim>
					<dim>1</dim>
					<dim>1</dim>
				</port>
			</input>
			<output>
				<port id="2" precision="FP16">
					<dim>1</dim>
					<dim>64</dim>
					<dim>64</dim>
					<dim>32</dim>
				</port>
			</output>
		</layer>
		<layer id="51" name="Relu_13" type="ReLU" version="opset1">
			<input>
				<port id="0">
					<dim>1</dim>
					<dim>64</dim>
					<dim>64</dim>
					<dim>32</dim>
				</port>
			</input>
			<output>
				<port id="1" precision="FP16">
					<dim>1</dim>
					<dim>64</dim>
					<dim>64</dim>
					<dim>32</dim>
				</port>
			</output>
		</layer>
		<layer id="52" name="659/Output_0/Data__const" type="Const" version="opset1">
			<data element_type="i64" offset="36736" shape="" size="8"/>
			<output>
				<port id="1" precision="I64"/>
			</output>
		</layer>
		<layer id="53" name="GlobalAveragePool_41/input_rank/shape_of" type="ShapeOf" version="opset3">
			<data output_type="i64"/>
			<input>
				<port id="0">
					<dim>1</dim>
					<dim>64</dim>
					<dim>64</dim>
					<dim>32</dim>
				</port>
			</input>
			<output>
				<port id="1" precision="I64">
					<dim>4</dim>
				</port>
			</output>
		</layer>
		<layer id="54" name="GlobalAveragePool_41/input_rank/rank_of" type="ShapeOf" version="opset3">
			<data output_type="i64"/>
			<input>
				<port id="0">
					<dim>4</dim>
				</port>
			</input>
			<output>
				<port id="1" precision="I64">
					<dim>1</dim>
				</port>
			</output>
		</layer>
		<layer id="55" name="GlobalAveragePool_41/input_rank/0d_rank_of/value/Output_0/Data__const" type="Const" version="opset1">
			<data element_type="i64" offset="36744" shape="1" size="8"/>
			<output>
				<port id="1" precision="I64">
					<dim>1</dim>
				</port>
			</output>
		</layer>
		<layer id="56" name="GlobalAveragePool_41/input_rank" type="Squeeze" version="opset1">
			<input>
				<port id="0">
					<dim>1</dim>
				</port>
				<port id="1">
					<dim>1</dim>
				</port>
			</input>
			<output>
				<port id="2" precision="I64"/>
			</output>
		</layer>
		<layer id="57" name="661/Output_0/Data__const" type="Const" version="opset1">
			<data element_type="i64" offset="36752" shape="" size="8"/>
			<output>
				<port id="1" precision="I64"/>
			</output>
		</layer>
		<layer id="58" name="GlobalAveragePool_41/global_pooling_reduce_axis" type="Range" version="opset4">
			<data output_type="i64"/>
			<input>
				<port id="0"/>
				<port id="1"/>
				<port id="2"/>
			</input>
			<output>
				<port id="3" precision="I64">
					<dim>2</dim>
				</port>
			</output>
		</layer>
		<layer id="59" name="GlobalAveragePool_41/reduce" type="ReduceMean" version="opset1">
			<data keep_dims="True"/>
			<input>
				<port id="0">
					<dim>1</dim>
					<dim>64</dim>
					<dim>64</dim>
					<dim>32</dim>
				</port>
				<port id="1">
					<dim>2</dim>
				</port>
			</input>
			<output>
				<port id="2" precision="FP16">
					<dim>1</dim>
					<dim>64</dim>
					<dim>1</dim>
					<dim>1</dim>
				</port>
			</output>
		</layer>
		<layer id="60" name="Copy_conv2.0.gate.fc1.weight/Output_0/Data_2393_const" type="Const" version="opset1">
			<data element_type="f16" offset="36760" shape="4,64,1,1" size="512"/>
			<output>
				<port id="1" precision="FP16">
					<dim>4</dim>
					<dim>64</dim>
					<dim>1</dim>
					<dim>1</dim>
				</port>
			</output>
		</layer>
		<layer id="61" name="Conv_42/WithoutBiases" type="Convolution" version="opset1">
			<data dilations="1,1" output_padding="0,0" pads_begin="0,0" pads_end="0,0" strides="1,1"/>
			<input>
				<port id="0">
					<dim>1</dim>
					<dim>64</dim>
					<dim>1</dim>
					<dim>1</dim>
				</port>
				<port id="1">
					<dim>4</dim>
					<dim>64</dim>
					<dim>1</dim>
					<dim>1</dim>
				</port>
			</input>
			<output>
				<port id="2" precision="FP16">
					<dim>1</dim>
					<dim>4</dim>
					<dim>1</dim>
					<dim>1</dim>
				</port>
			</output>
		</layer>
		<layer id="62" name="Conv_42/Dims755312796/EltwiseUnsqueeze13042_const" type="Const" version="opset1">
			<data element_type="f16" offset="37272" shape="1,4,1,1" size="8"/>
			<output>
				<port id="1" precision="FP16">
					<dim>1</dim>
					<dim>4</dim>
					<dim>1</dim>
					<dim>1</dim>
				</port>
			</output>
		</layer>
		<layer id="63" name="Conv_42" type="Add" version="opset1">
			<input>
				<port id="0">
					<dim>1</dim>
					<dim>4</dim>
					<dim>1</dim>
					<dim>1</dim>
				</port>
				<port id="1">
					<dim>1</dim>
					<dim>4</dim>
					<dim>1</dim>
					<dim>1</dim>
				</port>
			</input>
			<output>
				<port id="2" precision="FP16">
					<dim>1</dim>
					<dim>4</dim>
					<dim>1</dim>
					<dim>1</dim>
				</port>
			</output>
		</layer>
		<layer id="64" name="Relu_43" type="ReLU" version="opset1">
			<input>
				<port id="0">
					<dim>1</dim>
					<dim>4</dim>
					<dim>1</dim>
					<dim>1</dim>
				</port>
			</input>
			<output>
				<port id="1" precision="FP16">
					<dim>1</dim>
					<dim>4</dim>
					<dim>1</dim>
					<dim>1</dim>
				</port>
			</output>
		</layer>
		<layer id="65" name="Copy_conv2.0.gate.fc2.weight/Output_0/Data_2401_const" type="Const" version="opset1">
			<data element_type="f16" offset="37280" shape="64,4,1,1" size="512"/>
			<output>
				<port id="1" precision="FP16">
					<dim>64</dim>
					<dim>4</dim>
					<dim>1</dim>
					<dim>1</dim>
				</port>
			</output>
		</layer>
		<layer id="66" name="Conv_44/WithoutBiases" type="Convolution" version="opset1">
			<data dilations="1,1" output_padding="0,0" pads_begin="0,0" pads_end="0,0" strides="1,1"/>
			<input>
				<port id="0">
					<dim>1</dim>
					<dim>4</dim>
					<dim>1</dim>
					<dim>1</dim>
				</port>
				<port id="1">
					<dim>64</dim>
					<dim>4</dim>
					<dim>1</dim>
					<dim>1</dim>
				</port>
			</input>
			<output>
				<port id="2" precision="FP16">
					<dim>1</dim>
					<dim>64</dim>
					<dim>1</dim>
					<dim>1</dim>
				</port>
			</output>
		</layer>
		<layer id="67" name="Conv_44/Dims771512823/EltwiseUnsqueeze13150_const" type="Const" version="opset1">
			<data element_type="f16" offset="37792" shape="1,64,1,1" size="128"/>
			<output>
				<port id="1" precision="FP16">
					<dim>1</dim>
					<dim>64</dim>
					<dim>1</dim>
					<dim>1</dim>
				</port>
			</output>
		</layer>
		<layer id="68" name="Conv_44" type="Add" version="opset1">
			<input>
				<port id="0">
					<dim>1</dim>
					<dim>64</dim>
					<dim>1</dim>
					<dim>1</dim>
				</port>
				<port id="1">
					<dim>1</dim>
					<dim>64</dim>
					<dim>1</dim>
					<dim>1</dim>
				</port>
			</input>
			<output>
				<port id="2" precision="FP16">
					<dim>1</dim>
					<dim>64</dim>
					<dim>1</dim>
					<dim>1</dim>
				</port>
			</output>
		</layer>
		<layer id="69" name="Sigmoid_45" type="Sigmoid" version="opset1">
			<input>
				<port id="0">
					<dim>1</dim>
					<dim>64</dim>
					<dim>1</dim>
					<dim>1</dim>
				</port>
			</input>
			<output>
				<port id="1" precision="FP16">
					<dim>1</dim>
					<dim>64</dim>
					<dim>1</dim>
					<dim>1</dim>
				</port>
			</output>
		</layer>
		<layer id="70" name="Mul_46" type="Multiply" version="opset1">
			<input>
				<port id="0">
					<dim>1</dim>
					<dim>64</dim>
					<dim>64</dim>
					<dim>32</dim>
				</port>
				<port id="1">
					<dim>1</dim>
					<dim>64</dim>
					<dim>1</dim>
					<dim>1</dim>
				</port>
			</input>
			<output>
				<port id="2" precision="FP16">
					<dim>1</dim>
					<dim>64</dim>
					<dim>64</dim>
					<dim>32</dim>
				</port>
			</output>
		</layer>
		<layer id="71" name="Add_47" type="Add" version="opset1">
			<input>
				<port id="0">
					<dim>1</dim>
					<dim>64</dim>
					<dim>64</dim>
					<dim>32</dim>
				</port>
				<port id="1">
					<dim>1</dim>
					<dim>64</dim>
					<dim>64</dim>
					<dim>32</dim>
				</port>
			</input>
			<output>
				<port id="2" precision="FP16">
					<dim>1</dim>
					<dim>64</dim>
					<dim>64</dim>
					<dim>32</dim>
				</port>
			</output>
		</layer>
		<layer id="72" name="conv2.0.conv2c.0.conv1.weight/Output_0/Data__const" type="Const" version="opset1">
			<data element_type="f16" offset="56864" shape="64,64,1,1" size="8192"/>
			<output>
				<port id="1" precision="FP16">
					<dim>64</dim>
					<dim>64</dim>
					<dim>1</dim>
					<dim>1</dim>
				</port>
			</output>
		</layer>
		<layer id="73" name="Conv_14" type="Convolution" version="opset1">
			<data dilations="1,1" output_padding="0,0" pads_begin="0,0" pads_end="0,0" strides="1,1"/>
			<input>
				<port id="0">
					<dim>1</dim>
					<dim>64</dim>
					<dim>64</dim>
					<dim>32</dim>
				</port>
				<port id="1">
					<dim>64</dim>
					<dim>64</dim>
					<dim>1</dim>
					<dim>1</dim>
				</port>
			</input>
			<output>
				<port id="2" precision="FP16">
					<dim>1</dim>
					<dim>64</dim>
					<dim>64</dim>
					<dim>32</dim>
				</port>
			</output>
		</layer>
		<layer id="74" name="2875828761_const" type="Const" version="opset1">
			<data element_type="f16" offset="65056" shape="64,1,1,3,3" size="1152"/>
			<output>
				<port id="1" precision="FP16">
					<dim>64</dim>
					<dim>1</dim>
					<dim>1</dim>
					<dim>3</dim>
					<dim>3</dim>
				</port>
			</output>
		</layer>
		<layer id="75" name="Conv_15/WithoutBiases" type="GroupConvolution" version="opset1">
			<data dilations="1,1" output_padding="0,0" pads_begin="1,1" pads_end="1,1" strides="1,1"/>
			<input>
				<port id="0">
					<dim>1</dim>
					<dim>64</dim>
					<dim>64</dim>
					<dim>32</dim>
				</port>
				<port id="1">
					<dim>64</dim>
					<dim>1</dim>
					<dim>1</dim>
					<dim>3</dim>
					<dim>3</dim>
				</port>
			</input>
			<output>
				<port id="2" precision="FP16">
					<dim>1</dim>
					<dim>64</dim>
					<dim>64</dim>
					<dim>32</dim>
				</port>
			</output>
		</layer>
		<layer id="76" name="Conv_15/Dims805112879/EltwiseUnsqueeze13374_const" type="Const" version="opset1">
			<data element_type="f16" offset="66208" shape="1,64,1,1" size="128"/>
			<output>
				<port id="1" precision="FP16">
					<dim>1</dim>
					<dim>64</dim>
					<dim>1</dim>
					<dim>1</dim>
				</port>
			</output>
		</layer>
		<layer id="77" name="Conv_15" type="Add" version="opset1">
			<input>
				<port id="0">
					<dim>1</dim>
					<dim>64</dim>
					<dim>64</dim>
					<dim>32</dim>
				</port>
				<port id="1">
					<dim>1</dim>
					<dim>64</dim>
					<dim>1</dim>
					<dim>1</dim>
				</port>
			</input>
			<output>
				<port id="2" precision="FP16">
					<dim>1</dim>
					<dim>64</dim>
					<dim>64</dim>
					<dim>32</dim>
				</port>
			</output>
		</layer>
		<layer id="78" name="Relu_16" type="ReLU" version="opset1">
			<input>
				<port id="0">
					<dim>1</dim>
					<dim>64</dim>
					<dim>64</dim>
					<dim>32</dim>
				</port>
			</input>
			<output>
				<port id="1" precision="FP16">
					<dim>1</dim>
					<dim>64</dim>
					<dim>64</dim>
					<dim>32</dim>
				</port>
			</output>
		</layer>
		<layer id="79" name="conv2.0.conv2c.1.conv1.weight/Output_0/Data__const" type="Const" version="opset1">
			<data element_type="f16" offset="66336" shape="64,64,1,1" size="8192"/>
			<output>
				<port id="1" precision="FP16">
					<dim>64</dim>
					<dim>64</dim>
					<dim>1</dim>
					<dim>1</dim>
				</port>
			</output>
		</layer>
		<layer id="80" name="Conv_17" type="Convolution" version="opset1">
			<data dilations="1,1" output_padding="0,0" pads_begin="0,0" pads_end="0,0" strides="1,1"/>
			<input>
				<port id="0">
					<dim>1</dim>
					<dim>64</dim>
					<dim>64</dim>
					<dim>32</dim>
				</port>
				<port id="1">
					<dim>64</dim>
					<dim>64</dim>
					<dim>1</dim>
					<dim>1</dim>
				</port>
			</input>
			<output>
				<port id="2" precision="FP16">
					<dim>1</dim>
					<dim>64</dim>
					<dim>64</dim>
					<dim>32</dim>
				</port>
			</output>
		</layer>
		<layer id="81" name="2877028773_const" type="Const" version="opset1">
			<data element_type="f16" offset="74528" shape="64,1,1,3,3" size="1152"/>
			<output>
				<port id="1" precision="FP16">
					<dim>64</dim>
					<dim>1</dim>
					<dim>1</dim>
					<dim>3</dim>
					<dim>3</dim>
				</port>
			</output>
		</layer>
		<layer id="82" name="Conv_18/WithoutBiases" type="GroupConvolution" version="opset1">
			<data dilations="1,1" output_padding="0,0" pads_begin="1,1" pads_end="1,1" strides="1,1"/>
			<input>
				<port id="0">
					<dim>1</dim>
					<dim>64</dim>
					<dim>64</dim>
					<dim>32</dim>
				</port>
				<port id="1">
					<dim>64</dim>
					<dim>1</dim>
					<dim>1</dim>
					<dim>3</dim>
					<dim>3</dim>
				</port>
			</input>
			<output>
				<port id="2" precision="FP16">
					<dim>1</dim>
					<dim>64</dim>
					<dim>64</dim>
					<dim>32</dim>
				</port>
			</output>
		</layer>
		<layer id="83" name="Conv_18/Dims806912882/EltwiseUnsqueeze13386_const" type="Const" version="opset1">
			<data element_type="f16" offset="75680" shape="1,64,1,1" size="128"/>
			<output>
				<port id="1" precision="FP16">
					<dim>1</dim>
					<dim>64</dim>
					<dim>1</dim>
					<dim>1</dim>
				</port>
			</output>
		</layer>
		<layer id="84" name="Conv_18" type="Add" version="opset1">
			<input>
				<port id="0">
					<dim>1</dim>
					<dim>64</dim>
					<dim>64</dim>
					<dim>32</dim>
				</port>
				<port id="1">
					<dim>1</dim>
					<dim>64</dim>
					<dim>1</dim>
					<dim>1</dim>
				</port>
			</input>
			<output>
				<port id="2" precision="FP16">
					<dim>1</dim>
					<dim>64</dim>
					<dim>64</dim>
					<dim>32</dim>
				</port>
			</output>
		</layer>
		<layer id="85" name="Relu_19" type="ReLU" version="opset1">
			<input>
				<port id="0">
					<dim>1</dim>
					<dim>64</dim>
					<dim>64</dim>
					<dim>32</dim>
				</port>
			</input>
			<output>
				<port id="1" precision="FP16">
					<dim>1</dim>
					<dim>64</dim>
					<dim>64</dim>
					<dim>32</dim>
				</port>
			</output>
		</layer>
		<layer id="86" name="conv2.0.conv2c.2.conv1.weight/Output_0/Data__const" type="Const" version="opset1">
			<data element_type="f16" offset="75808" shape="64,64,1,1" size="8192"/>
			<output>
				<port id="1" precision="FP16">
					<dim>64</dim>
					<dim>64</dim>
					<dim>1</dim>
					<dim>1</dim>
				</port>
			</output>
		</layer>
		<layer id="87" name="Conv_20" type="Convolution" version="opset1">
			<data dilations="1,1" output_padding="0,0" pads_begin="0,0" pads_end="0,0" strides="1,1"/>
			<input>
				<port id="0">
					<dim>1</dim>
					<dim>64</dim>
					<dim>64</dim>
					<dim>32</dim>
				</port>
				<port id="1">
					<dim>64</dim>
					<dim>64</dim>
					<dim>1</dim>
					<dim>1</dim>
				</port>
			</input>
			<output>
				<port id="2" precision="FP16">
					<dim>1</dim>
					<dim>64</dim>
					<dim>64</dim>
					<dim>32</dim>
				</port>
			</output>
		</layer>
		<layer id="88" name="2871428717_const" type="Const" version="opset1">
			<data element_type="f16" offset="84000" shape="64,1,1,3,3" size="1152"/>
			<output>
				<port id="1" precision="FP16">
					<dim>64</dim>
					<dim>1</dim>
					<dim>1</dim>
					<dim>3</dim>
					<dim>3</dim>
				</port>
			</output>
		</layer>
		<layer id="89" name="Conv_21/WithoutBiases" type="GroupConvolution" version="opset1">
			<data dilations="1,1" output_padding="0,0" pads_begin="1,1" pads_end="1,1" strides="1,1"/>
			<input>
				<port id="0">
					<dim>1</dim>
					<dim>64</dim>
					<dim>64</dim>
					<dim>32</dim>
				</port>
				<port id="1">
					<dim>64</dim>
					<dim>1</dim>
					<dim>1</dim>
					<dim>3</dim>
					<dim>3</dim>
				</port>
			</input>
			<output>
				<port id="2" precision="FP16">
					<dim>1</dim>
					<dim>64</dim>
					<dim>64</dim>
					<dim>32</dim>
				</port>
			</output>
		</layer>
		<layer id="90" name="Conv_21/Dims783512843/EltwiseUnsqueeze13230_const" type="Const" version="opset1">
			<data element_type="f16" offset="85152" shape="1,64,1,1" size="128"/>
			<output>
				<port id="1" precision="FP16">
					<dim>1</dim>
					<dim>64</dim>
					<dim>1</dim>
					<dim>1</dim>
				</port>
			</output>
		</layer>
		<layer id="91" name="Conv_21" type="Add" version="opset1">
			<input>
				<port id="0">
					<dim>1</dim>
					<dim>64</dim>
					<dim>64</dim>
					<dim>32</dim>
				</port>
				<port id="1">
					<dim>1</dim>
					<dim>64</dim>
					<dim>1</dim>
					<dim>1</dim>
				</port>
			</input>
			<output>
				<port id="2" precision="FP16">
					<dim>1</dim>
					<dim>64</dim>
					<dim>64</dim>
					<dim>32</dim>
				</port>
			</output>
		</layer>
		<layer id="92" name="Relu_22" type="ReLU" version="opset1">
			<input>
				<port id="0">
					<dim>1</dim>
					<dim>64</dim>
					<dim>64</dim>
					<dim>32</dim>
				</port>
			</input>
			<output>
				<port id="1" precision="FP16">
					<dim>1</dim>
					<dim>64</dim>
					<dim>64</dim>
					<dim>32</dim>
				</port>
			</output>
		</layer>
		<layer id="93" name="664/Output_0/Data__const" type="Const" version="opset1">
			<data element_type="i64" offset="36736" shape="" size="8"/>
			<output>
				<port id="1" precision="I64"/>
			</output>
		</layer>
		<layer id="94" name="GlobalAveragePool_48/input_rank/shape_of" type="ShapeOf" version="opset3">
			<data output_type="i64"/>
			<input>
				<port id="0">
					<dim>1</dim>
					<dim>64</dim>
					<dim>64</dim>
					<dim>32</dim>
				</port>
			</input>
			<output>
				<port id="1" precision="I64">
					<dim>4</dim>
				</port>
			</output>
		</layer>
		<layer id="95" name="GlobalAveragePool_48/input_rank/rank_of" type="ShapeOf" version="opset3">
			<data output_type="i64"/>
			<input>
				<port id="0">
					<dim>4</dim>
				</port>
			</input>
			<output>
				<port id="1" precision="I64">
					<dim>1</dim>
				</port>
			</output>
		</layer>
		<layer id="96" name="GlobalAveragePool_48/input_rank/0d_rank_of/value/Output_0/Data__const" type="Const" version="opset1">
			<data element_type="i64" offset="36744" shape="1" size="8"/>
			<output>
				<port id="1" precision="I64">
					<dim>1</dim>
				</port>
			</output>
		</layer>
		<layer id="97" name="GlobalAveragePool_48/input_rank" type="Squeeze" version="opset1">
			<input>
				<port id="0">
					<dim>1</dim>
				</port>
				<port id="1">
					<dim>1</dim>
				</port>
			</input>
			<output>
				<port id="2" precision="I64"/>
			</output>
		</layer>
		<layer id="98" name="666/Output_0/Data__const" type="Const" version="opset1">
			<data element_type="i64" offset="36752" shape="" size="8"/>
			<output>
				<port id="1" precision="I64"/>
			</output>
		</layer>
		<layer id="99" name="GlobalAveragePool_48/global_pooling_reduce_axis" type="Range" version="opset4">
			<data output_type="i64"/>
			<input>
				<port id="0"/>
				<port id="1"/>
				<port id="2"/>
			</input>
			<output>
				<port id="3" precision="I64">
					<dim>2</dim>
				</port>
			</output>
		</layer>
		<layer id="100" name="GlobalAveragePool_48/reduce" type="ReduceMean" version="opset1">
			<data keep_dims="True"/>
			<input>
				<port id="0">
					<dim>1</dim>
					<dim>64</dim>
					<dim>64</dim>
					<dim>32</dim>
				</port>
				<port id="1">
					<dim>2</dim>
				</port>
			</input>
			<output>
				<port id="2" precision="FP16">
					<dim>1</dim>
					<dim>64</dim>
					<dim>1</dim>
					<dim>1</dim>
				</port>
			</output>
		</layer>
		<layer id="101" name="Copy_conv2.0.gate.fc1.weight/Output_0/Data_2394_const" type="Const" version="opset1">
			<data element_type="f16" offset="36760" shape="4,64,1,1" size="512"/>
			<output>
				<port id="1" precision="FP16">
					<dim>4</dim>
					<dim>64</dim>
					<dim>1</dim>
					<dim>1</dim>
				</port>
			</output>
		</layer>
		<layer id="102" name="Conv_49/WithoutBiases" type="Convolution" version="opset1">
			<data dilations="1,1" output_padding="0,0" pads_begin="0,0" pads_end="0,0" strides="1,1"/>
			<input>
				<port id="0">
					<dim>1</dim>
					<dim>64</dim>
					<dim>1</dim>
					<dim>1</dim>
				</port>
				<port id="1">
					<dim>4</dim>
					<dim>64</dim>
					<dim>1</dim>
					<dim>1</dim>
				</port>
			</input>
			<output>
				<port id="2" precision="FP16">
					<dim>1</dim>
					<dim>4</dim>
					<dim>1</dim>
					<dim>1</dim>
				</port>
			</output>
		</layer>
		<layer id="103" name="Conv_49/Dims748112784/EltwiseUnsqueeze12994_const" type="Const" version="opset1">
			<data element_type="f16" offset="37272" shape="1,4,1,1" size="8"/>
			<output>
				<port id="1" precision="FP16">
					<dim>1</dim>
					<dim>4</dim>
					<dim>1</dim>
					<dim>1</dim>
				</port>
			</output>
		</layer>
		<layer id="104" name="Conv_49" type="Add" version="opset1">
			<input>
				<port id="0">
					<dim>1</dim>
					<dim>4</dim>
					<dim>1</dim>
					<dim>1</dim>
				</port>
				<port id="1">
					<dim>1</dim>
					<dim>4</dim>
					<dim>1</dim>
					<dim>1</dim>
				</port>
			</input>
			<output>
				<port id="2" precision="FP16">
					<dim>1</dim>
					<dim>4</dim>
					<dim>1</dim>
					<dim>1</dim>
				</port>
			</output>
		</layer>
		<layer id="105" name="Relu_50" type="ReLU" version="opset1">
			<input>
				<port id="0">
					<dim>1</dim>
					<dim>4</dim>
					<dim>1</dim>
					<dim>1</dim>
				</port>
			</input>
			<output>
				<port id="1" precision="FP16">
					<dim>1</dim>
					<dim>4</dim>
					<dim>1</dim>
					<dim>1</dim>
				</port>
			</output>
		</layer>
		<layer id="106" name="Copy_conv2.0.gate.fc2.weight/Output_0/Data_2402_const" type="Const" version="opset1">
			<data element_type="f16" offset="37280" shape="64,4,1,1" size="512"/>
			<output>
				<port id="1" precision="FP16">
					<dim>64</dim>
					<dim>4</dim>
					<dim>1</dim>
					<dim>1</dim>
				</port>
			</output>
		</layer>
		<layer id="107" name="Conv_51/WithoutBiases" type="Convolution" version="opset1">
			<data dilations="1,1" output_padding="0,0" pads_begin="0,0" pads_end="0,0" strides="1,1"/>
			<input>
				<port id="0">
					<dim>1</dim>
					<dim>4</dim>
					<dim>1</dim>
					<dim>1</dim>
				</port>
				<port id="1">
					<dim>64</dim>
					<dim>4</dim>
					<dim>1</dim>
					<dim>1</dim>
				</port>
			</input>
			<output>
				<port id="2" precision="FP16">
					<dim>1</dim>
					<dim>64</dim>
					<dim>1</dim>
					<dim>1</dim>
				</port>
			</output>
		</layer>
		<layer id="108" name="Conv_51/Dims770312821/EltwiseUnsqueeze13142_const" type="Const" version="opset1">
			<data element_type="f16" offset="37792" shape="1,64,1,1" size="128"/>
			<output>
				<port id="1" precision="FP16">
					<dim>1</dim>
					<dim>64</dim>
					<dim>1</dim>
					<dim>1</dim>
				</port>
			</output>
		</layer>
		<layer id="109" name="Conv_51" type="Add" version="opset1">
			<input>
				<port id="0">
					<dim>1</dim>
					<dim>64</dim>
					<dim>1</dim>
					<dim>1</dim>
				</port>
				<port id="1">
					<dim>1</dim>
					<dim>64</dim>
					<dim>1</dim>
					<dim>1</dim>
				</port>
			</input>
			<output>
				<port id="2" precision="FP16">
					<dim>1</dim>
					<dim>64</dim>
					<dim>1</dim>
					<dim>1</dim>
				</port>
			</output>
		</layer>
		<layer id="110" name="Sigmoid_52" type="Sigmoid" version="opset1">
			<input>
				<port id="0">
					<dim>1</dim>
					<dim>64</dim>
					<dim>1</dim>
					<dim>1</dim>
				</port>
			</input>
			<output>
				<port id="1" precision="FP16">
					<dim>1</dim>
					<dim>64</dim>
					<dim>1</dim>
					<dim>1</dim>
				</port>
			</output>
		</layer>
		<layer id="111" name="Mul_53" type="Multiply" version="opset1">
			<input>
				<port id="0">
					<dim>1</dim>
					<dim>64</dim>
					<dim>64</dim>
					<dim>32</dim>
				</port>
				<port id="1">
					<dim>1</dim>
					<dim>64</dim>
					<dim>1</dim>
					<dim>1</dim>
				</port>
			</input>
			<output>
				<port id="2" precision="FP16">
					<dim>1</dim>
					<dim>64</dim>
					<dim>64</dim>
					<dim>32</dim>
				</port>
			</output>
		</layer>
		<layer id="112" name="Add_54" type="Add" version="opset1">
			<input>
				<port id="0">
					<dim>1</dim>
					<dim>64</dim>
					<dim>64</dim>
					<dim>32</dim>
				</port>
				<port id="1">
					<dim>1</dim>
					<dim>64</dim>
					<dim>64</dim>
					<dim>32</dim>
				</port>
			</input>
			<output>
				<port id="2" precision="FP16">
					<dim>1</dim>
					<dim>64</dim>
					<dim>64</dim>
					<dim>32</dim>
				</port>
			</output>
		</layer>
		<layer id="113" name="conv2.0.conv2d.0.conv1.weight/Output_0/Data__const" type="Const" version="opset1">
			<data element_type="f16" offset="85280" shape="64,64,1,1" size="8192"/>
			<output>
				<port id="1" precision="FP16">
					<dim>64</dim>
					<dim>64</dim>
					<dim>1</dim>
					<dim>1</dim>
				</port>
			</output>
		</layer>
		<layer id="114" name="Conv_23" type="Convolution" version="opset1">
			<data dilations="1,1" output_padding="0,0" pads_begin="0,0" pads_end="0,0" strides="1,1"/>
			<input>
				<port id="0">
					<dim>1</dim>
					<dim>64</dim>
					<dim>64</dim>
					<dim>32</dim>
				</port>
				<port id="1">
					<dim>64</dim>
					<dim>64</dim>
					<dim>1</dim>
					<dim>1</dim>
				</port>
			</input>
			<output>
				<port id="2" precision="FP16">
					<dim>1</dim>
					<dim>64</dim>
					<dim>64</dim>
					<dim>32</dim>
				</port>
			</output>
		</layer>
		<layer id="115" name="2858628589_const" type="Const" version="opset1">
			<data element_type="f16" offset="93472" shape="64,1,1,3,3" size="1152"/>
			<output>
				<port id="1" precision="FP16">
					<dim>64</dim>
					<dim>1</dim>
					<dim>1</dim>
					<dim>3</dim>
					<dim>3</dim>
				</port>
			</output>
		</layer>
		<layer id="116" name="Conv_24/WithoutBiases" type="GroupConvolution" version="opset1">
			<data dilations="1,1" output_padding="0,0" pads_begin="1,1" pads_end="1,1" strides="1,1"/>
			<input>
				<port id="0">
					<dim>1</dim>
					<dim>64</dim>
					<dim>64</dim>
					<dim>32</dim>
				</port>
				<port id="1">
					<dim>64</dim>
					<dim>1</dim>
					<dim>1</dim>
					<dim>3</dim>
					<dim>3</dim>
				</port>
			</input>
			<output>
				<port id="2" precision="FP16">
					<dim>1</dim>
					<dim>64</dim>
					<dim>64</dim>
					<dim>32</dim>
				</port>
			</output>
		</layer>
		<layer id="117" name="Conv_24/Dims747512783/EltwiseUnsqueeze12990_const" type="Const" version="opset1">
			<data element_type="f16" offset="94624" shape="1,64,1,1" size="128"/>
			<output>
				<port id="1" precision="FP16">
					<dim>1</dim>
					<dim>64</dim>
					<dim>1</dim>
					<dim>1</dim>
				</port>
			</output>
		</layer>
		<layer id="118" name="Conv_24" type="Add" version="opset1">
			<input>
				<port id="0">
					<dim>1</dim>
					<dim>64</dim>
					<dim>64</dim>
					<dim>32</dim>
				</port>
				<port id="1">
					<dim>1</dim>
					<dim>64</dim>
					<dim>1</dim>
					<dim>1</dim>
				</port>
			</input>
			<output>
				<port id="2" precision="FP16">
					<dim>1</dim>
					<dim>64</dim>
					<dim>64</dim>
					<dim>32</dim>
				</port>
			</output>
		</layer>
		<layer id="119" name="Relu_25" type="ReLU" version="opset1">
			<input>
				<port id="0">
					<dim>1</dim>
					<dim>64</dim>
					<dim>64</dim>
					<dim>32</dim>
				</port>
			</input>
			<output>
				<port id="1" precision="FP16">
					<dim>1</dim>
					<dim>64</dim>
					<dim>64</dim>
					<dim>32</dim>
				</port>
			</output>
		</layer>
		<layer id="120" name="conv2.0.conv2d.1.conv1.weight/Output_0/Data__const" type="Const" version="opset1">
			<data element_type="f16" offset="94752" shape="64,64,1,1" size="8192"/>
			<output>
				<port id="1" precision="FP16">
					<dim>64</dim>
					<dim>64</dim>
					<dim>1</dim>
					<dim>1</dim>
				</port>
			</output>
		</layer>
		<layer id="121" name="Conv_26" type="Convolution" version="opset1">
			<data dilations="1,1" output_padding="0,0" pads_begin="0,0" pads_end="0,0" strides="1,1"/>
			<input>
				<port id="0">
					<dim>1</dim>
					<dim>64</dim>
					<dim>64</dim>
					<dim>32</dim>
				</port>
				<port id="1">
					<dim>64</dim>
					<dim>64</dim>
					<dim>1</dim>
					<dim>1</dim>
				</port>
			</input>
			<output>
				<port id="2" precision="FP16">
					<dim>1</dim>
					<dim>64</dim>
					<dim>64</dim>
					<dim>32</dim>
				</port>
			</output>
		</layer>
		<layer id="122" name="2867028673_const" type="Const" version="opset1">
			<data element_type="f16" offset="102944" shape="64,1,1,3,3" size="1152"/>
			<output>
				<port id="1" precision="FP16">
					<dim>64</dim>
					<dim>1</dim>
					<dim>1</dim>
					<dim>3</dim>
					<dim>3</dim>
				</port>
			</output>
		</layer>
		<layer id="123" name="Conv_27/WithoutBiases" type="GroupConvolution" version="opset1">
			<data dilations="1,1" output_padding="0,0" pads_begin="1,1" pads_end="1,1" strides="1,1"/>
			<input>
				<port id="0">
					<dim>1</dim>
					<dim>64</dim>
					<dim>64</dim>
					<dim>32</dim>
				</port>
				<port id="1">
					<dim>64</dim>
					<dim>1</dim>
					<dim>1</dim>
					<dim>3</dim>
					<dim>3</dim>
				</port>
			</input>
			<output>
				<port id="2" precision="FP16">
					<dim>1</dim>
					<dim>64</dim>
					<dim>64</dim>
					<dim>32</dim>
				</port>
			</output>
		</layer>
		<layer id="124" name="Conv_27/Dims769712820/EltwiseUnsqueeze13138_const" type="Const" version="opset1">
			<data element_type="f16" offset="104096" shape="1,64,1,1" size="128"/>
			<output>
				<port id="1" precision="FP16">
					<dim>1</dim>
					<dim>64</dim>
					<dim>1</dim>
					<dim>1</dim>
				</port>
			</output>
		</layer>
		<layer id="125" name="Conv_27" type="Add" version="opset1">
			<input>
				<port id="0">
					<dim>1</dim>
					<dim>64</dim>
					<dim>64</dim>
					<dim>32</dim>
				</port>
				<port id="1">
					<dim>1</dim>
					<dim>64</dim>
					<dim>1</dim>
					<dim>1</dim>
				</port>
			</input>
			<output>
				<port id="2" precision="FP16">
					<dim>1</dim>
					<dim>64</dim>
					<dim>64</dim>
					<dim>32</dim>
				</port>
			</output>
		</layer>
		<layer id="126" name="Relu_28" type="ReLU" version="opset1">
			<input>
				<port id="0">
					<dim>1</dim>
					<dim>64</dim>
					<dim>64</dim>
					<dim>32</dim>
				</port>
			</input>
			<output>
				<port id="1" precision="FP16">
					<dim>1</dim>
					<dim>64</dim>
					<dim>64</dim>
					<dim>32</dim>
				</port>
			</output>
		</layer>
		<layer id="127" name="conv2.0.conv2d.2.conv1.weight/Output_0/Data__const" type="Const" version="opset1">
			<data element_type="f16" offset="104224" shape="64,64,1,1" size="8192"/>
			<output>
				<port id="1" precision="FP16">
					<dim>64</dim>
					<dim>64</dim>
					<dim>1</dim>
					<dim>1</dim>
				</port>
			</output>
		</layer>
		<layer id="128" name="Conv_29" type="Convolution" version="opset1">
			<data dilations="1,1" output_padding="0,0" pads_begin="0,0" pads_end="0,0" strides="1,1"/>
			<input>
				<port id="0">
					<dim>1</dim>
					<dim>64</dim>
					<dim>64</dim>
					<dim>32</dim>
				</port>
				<port id="1">
					<dim>64</dim>
					<dim>64</dim>
					<dim>1</dim>
					<dim>1</dim>
				</port>
			</input>
			<output>
				<port id="2" precision="FP16">
					<dim>1</dim>
					<dim>64</dim>
					<dim>64</dim>
					<dim>32</dim>
				</port>
			</output>
		</layer>
		<layer id="129" name="2853828541_const" type="Const" version="opset1">
			<data element_type="f16" offset="112416" shape="64,1,1,3,3" size="1152"/>
			<output>
				<port id="1" precision="FP16">
					<dim>64</dim>
					<dim>1</dim>
					<dim>1</dim>
					<dim>3</dim>
					<dim>3</dim>
				</port>
			</output>
		</layer>
		<layer id="130" name="Conv_30/WithoutBiases" type="GroupConvolution" version="opset1">
			<data dilations="1,1" output_padding="0,0" pads_begin="1,1" pads_end="1,1" strides="1,1"/>
			<input>
				<port id="0">
					<dim>1</dim>
					<dim>64</dim>
					<dim>64</dim>
					<dim>32</dim>
				</port>
				<port id="1">
					<dim>64</dim>
					<dim>1</dim>
					<dim>1</dim>
					<dim>3</dim>
					<dim>3</dim>
				</port>
			</input>
			<output>
				<port id="2" precision="FP16">
					<dim>1</dim>
					<dim>64</dim>
					<dim>64</dim>
					<dim>32</dim>
				</port>
			</output>
		</layer>
		<layer id="131" name="Conv_30/Dims733712760/EltwiseUnsqueeze12898_const" type="Const" version="opset1">
			<data element_type="f16" offset="113568" shape="1,64,1,1" size="128"/>
			<output>
				<port id="1" precision="FP16">
					<dim>1</dim>
					<dim>64</dim>
					<dim>1</dim>
					<dim>1</dim>
				</port>
			</output>
		</layer>
		<layer id="132" name="Conv_30" type="Add" version="opset1">
			<input>
				<port id="0">
					<dim>1</dim>
					<dim>64</dim>
					<dim>64</dim>
					<dim>32</dim>
				</port>
				<port id="1">
					<dim>1</dim>
					<dim>64</dim>
					<dim>1</dim>
					<dim>1</dim>
				</port>
			</input>
			<output>
				<port id="2" precision="FP16">
					<dim>1</dim>
					<dim>64</dim>
					<dim>64</dim>
					<dim>32</dim>
				</port>
			</output>
		</layer>
		<layer id="133" name="Relu_31" type="ReLU" version="opset1">
			<input>
				<port id="0">
					<dim>1</dim>
					<dim>64</dim>
					<dim>64</dim>
					<dim>32</dim>
				</port>
			</input>
			<output>
				<port id="1" precision="FP16">
					<dim>1</dim>
					<dim>64</dim>
					<dim>64</dim>
					<dim>32</dim>
				</port>
			</output>
		</layer>
		<layer id="134" name="conv2.0.conv2d.3.conv1.weight/Output_0/Data__const" type="Const" version="opset1">
			<data element_type="f16" offset="113696" shape="64,64,1,1" size="8192"/>
			<output>
				<port id="1" precision="FP16">
					<dim>64</dim>
					<dim>64</dim>
					<dim>1</dim>
					<dim>1</dim>
				</port>
			</output>
		</layer>
		<layer id="135" name="Conv_32" type="Convolution" version="opset1">
			<data dilations="1,1" output_padding="0,0" pads_begin="0,0" pads_end="0,0" strides="1,1"/>
			<input>
				<port id="0">
					<dim>1</dim>
					<dim>64</dim>
					<dim>64</dim>
					<dim>32</dim>
				</port>
				<port id="1">
					<dim>64</dim>
					<dim>64</dim>
					<dim>1</dim>
					<dim>1</dim>
				</port>
			</input>
			<output>
				<port id="2" precision="FP16">
					<dim>1</dim>
					<dim>64</dim>
					<dim>64</dim>
					<dim>32</dim>
				</port>
			</output>
		</layer>
		<layer id="136" name="2864628649_const" type="Const" version="opset1">
			<data element_type="f16" offset="121888" shape="64,1,1,3,3" size="1152"/>
			<output>
				<port id="1" precision="FP16">
					<dim>64</dim>
					<dim>1</dim>
					<dim>1</dim>
					<dim>3</dim>
					<dim>3</dim>
				</port>
			</output>
		</layer>
		<layer id="137" name="Conv_33/WithoutBiases" type="GroupConvolution" version="opset1">
			<data dilations="1,1" output_padding="0,0" pads_begin="1,1" pads_end="1,1" strides="1,1"/>
			<input>
				<port id="0">
					<dim>1</dim>
					<dim>64</dim>
					<dim>64</dim>
					<dim>32</dim>
				</port>
				<port id="1">
					<dim>64</dim>
					<dim>1</dim>
					<dim>1</dim>
					<dim>3</dim>
					<dim>3</dim>
				</port>
			</input>
			<output>
				<port id="2" precision="FP16">
					<dim>1</dim>
					<dim>64</dim>
					<dim>64</dim>
					<dim>32</dim>
				</port>
			</output>
		</layer>
		<layer id="138" name="Conv_33/Dims764312811/EltwiseUnsqueeze13102_const" type="Const" version="opset1">
			<data element_type="f16" offset="123040" shape="1,64,1,1" size="128"/>
			<output>
				<port id="1" precision="FP16">
					<dim>1</dim>
					<dim>64</dim>
					<dim>1</dim>
					<dim>1</dim>
				</port>
			</output>
		</layer>
		<layer id="139" name="Conv_33" type="Add" version="opset1">
			<input>
				<port id="0">
					<dim>1</dim>
					<dim>64</dim>
					<dim>64</dim>
					<dim>32</dim>
				</port>
				<port id="1">
					<dim>1</dim>
					<dim>64</dim>
					<dim>1</dim>
					<dim>1</dim>
				</port>
			</input>
			<output>
				<port id="2" precision="FP16">
					<dim>1</dim>
					<dim>64</dim>
					<dim>64</dim>
					<dim>32</dim>
				</port>
			</output>
		</layer>
		<layer id="140" name="Relu_34" type="ReLU" version="opset1">
			<input>
				<port id="0">
					<dim>1</dim>
					<dim>64</dim>
					<dim>64</dim>
					<dim>32</dim>
				</port>
			</input>
			<output>
				<port id="1" precision="FP16">
					<dim>1</dim>
					<dim>64</dim>
					<dim>64</dim>
					<dim>32</dim>
				</port>
			</output>
		</layer>
		<layer id="141" name="669/Output_0/Data__const" type="Const" version="opset1">
			<data element_type="i64" offset="36736" shape="" size="8"/>
			<output>
				<port id="1" precision="I64"/>
			</output>
		</layer>
		<layer id="142" name="GlobalAveragePool_55/input_rank/shape_of" type="ShapeOf" version="opset3">
			<data output_type="i64"/>
			<input>
				<port id="0">
					<dim>1</dim>
					<dim>64</dim>
					<dim>64</dim>
					<dim>32</dim>
				</port>
			</input>
			<output>
				<port id="1" precision="I64">
					<dim>4</dim>
				</port>
			</output>
		</layer>
		<layer id="143" name="GlobalAveragePool_55/input_rank/rank_of" type="ShapeOf" version="opset3">
			<data output_type="i64"/>
			<input>
				<port id="0">
					<dim>4</dim>
				</port>
			</input>
			<output>
				<port id="1" precision="I64">
					<dim>1</dim>
				</port>
			</output>
		</layer>
		<layer id="144" name="GlobalAveragePool_55/input_rank/0d_rank_of/value/Output_0/Data__const" type="Const" version="opset1">
			<data element_type="i64" offset="36744" shape="1" size="8"/>
			<output>
				<port id="1" precision="I64">
					<dim>1</dim>
				</port>
			</output>
		</layer>
		<layer id="145" name="GlobalAveragePool_55/input_rank" type="Squeeze" version="opset1">
			<input>
				<port id="0">
					<dim>1</dim>
				</port>
				<port id="1">
					<dim>1</dim>
				</port>
			</input>
			<output>
				<port id="2" precision="I64"/>
			</output>
		</layer>
		<layer id="146" name="671/Output_0/Data__const" type="Const" version="opset1">
			<data element_type="i64" offset="36752" shape="" size="8"/>
			<output>
				<port id="1" precision="I64"/>
			</output>
		</layer>
		<layer id="147" name="GlobalAveragePool_55/global_pooling_reduce_axis" type="Range" version="opset4">
			<data output_type="i64"/>
			<input>
				<port id="0"/>
				<port id="1"/>
				<port id="2"/>
			</input>
			<output>
				<port id="3" precision="I64">
					<dim>2</dim>
				</port>
			</output>
		</layer>
		<layer id="148" name="GlobalAveragePool_55/reduce" type="ReduceMean" version="opset1">
			<data keep_dims="True"/>
			<input>
				<port id="0">
					<dim>1</dim>
					<dim>64</dim>
					<dim>64</dim>
					<dim>32</dim>
				</port>
				<port id="1">
					<dim>2</dim>
				</port>
			</input>
			<output>
				<port id="2" precision="FP16">
					<dim>1</dim>
					<dim>64</dim>
					<dim>1</dim>
					<dim>1</dim>
				</port>
			</output>
		</layer>
		<layer id="149" name="Copy_conv2.0.gate.fc1.weight/Output_0/Data_2395_const" type="Const" version="opset1">
			<data element_type="f16" offset="36760" shape="4,64,1,1" size="512"/>
			<output>
				<port id="1" precision="FP16">
					<dim>4</dim>
					<dim>64</dim>
					<dim>1</dim>
					<dim>1</dim>
				</port>
			</output>
		</layer>
		<layer id="150" name="Conv_56/WithoutBiases" type="Convolution" version="opset1">
			<data dilations="1,1" output_padding="0,0" pads_begin="0,0" pads_end="0,0" strides="1,1"/>
			<input>
				<port id="0">
					<dim>1</dim>
					<dim>64</dim>
					<dim>1</dim>
					<dim>1</dim>
				</port>
				<port id="1">
					<dim>4</dim>
					<dim>64</dim>
					<dim>1</dim>
					<dim>1</dim>
				</port>
			</input>
			<output>
				<port id="2" precision="FP16">
					<dim>1</dim>
					<dim>4</dim>
					<dim>1</dim>
					<dim>1</dim>
				</port>
			</output>
		</layer>
		<layer id="151" name="Conv_56/Dims758912802/EltwiseUnsqueeze13066_const" type="Const" version="opset1">
			<data element_type="f16" offset="37272" shape="1,4,1,1" size="8"/>
			<output>
				<port id="1" precision="FP16">
					<dim>1</dim>
					<dim>4</dim>
					<dim>1</dim>
					<dim>1</dim>
				</port>
			</output>
		</layer>
		<layer id="152" name="Conv_56" type="Add" version="opset1">
			<input>
				<port id="0">
					<dim>1</dim>
					<dim>4</dim>
					<dim>1</dim>
					<dim>1</dim>
				</port>
				<port id="1">
					<dim>1</dim>
					<dim>4</dim>
					<dim>1</dim>
					<dim>1</dim>
				</port>
			</input>
			<output>
				<port id="2" precision="FP16">
					<dim>1</dim>
					<dim>4</dim>
					<dim>1</dim>
					<dim>1</dim>
				</port>
			</output>
		</layer>
		<layer id="153" name="Relu_57" type="ReLU" version="opset1">
			<input>
				<port id="0">
					<dim>1</dim>
					<dim>4</dim>
					<dim>1</dim>
					<dim>1</dim>
				</port>
			</input>
			<output>
				<port id="1" precision="FP16">
					<dim>1</dim>
					<dim>4</dim>
					<dim>1</dim>
					<dim>1</dim>
				</port>
			</output>
		</layer>
		<layer id="154" name="Copy_conv2.0.gate.fc2.weight/Output_0/Data_2403_const" type="Const" version="opset1">
			<data element_type="f16" offset="37280" shape="64,4,1,1" size="512"/>
			<output>
				<port id="1" precision="FP16">
					<dim>64</dim>
					<dim>4</dim>
					<dim>1</dim>
					<dim>1</dim>
				</port>
			</output>
		</layer>
		<layer id="155" name="Conv_58/WithoutBiases" type="Convolution" version="opset1">
			<data dilations="1,1" output_padding="0,0" pads_begin="0,0" pads_end="0,0" strides="1,1"/>
			<input>
				<port id="0">
					<dim>1</dim>
					<dim>4</dim>
					<dim>1</dim>
					<dim>1</dim>
				</port>
				<port id="1">
					<dim>64</dim>
					<dim>4</dim>
					<dim>1</dim>
					<dim>1</dim>
				</port>
			</input>
			<output>
				<port id="2" precision="FP16">
					<dim>1</dim>
					<dim>64</dim>
					<dim>1</dim>
					<dim>1</dim>
				</port>
			</output>
		</layer>
		<layer id="156" name="Conv_58/Dims756512798/EltwiseUnsqueeze13050_const" type="Const" version="opset1">
			<data element_type="f16" offset="37792" shape="1,64,1,1" size="128"/>
			<output>
				<port id="1" precision="FP16">
					<dim>1</dim>
					<dim>64</dim>
					<dim>1</dim>
					<dim>1</dim>
				</port>
			</output>
		</layer>
		<layer id="157" name="Conv_58" type="Add" version="opset1">
			<input>
				<port id="0">
					<dim>1</dim>
					<dim>64</dim>
					<dim>1</dim>
					<dim>1</dim>
				</port>
				<port id="1">
					<dim>1</dim>
					<dim>64</dim>
					<dim>1</dim>
					<dim>1</dim>
				</port>
			</input>
			<output>
				<port id="2" precision="FP16">
					<dim>1</dim>
					<dim>64</dim>
					<dim>1</dim>
					<dim>1</dim>
				</port>
			</output>
		</layer>
		<layer id="158" name="Sigmoid_59" type="Sigmoid" version="opset1">
			<input>
				<port id="0">
					<dim>1</dim>
					<dim>64</dim>
					<dim>1</dim>
					<dim>1</dim>
				</port>
			</input>
			<output>
				<port id="1" precision="FP16">
					<dim>1</dim>
					<dim>64</dim>
					<dim>1</dim>
					<dim>1</dim>
				</port>
			</output>
		</layer>
		<layer id="159" name="Mul_60" type="Multiply" version="opset1">
			<input>
				<port id="0">
					<dim>1</dim>
					<dim>64</dim>
					<dim>64</dim>
					<dim>32</dim>
				</port>
				<port id="1">
					<dim>1</dim>
					<dim>64</dim>
					<dim>1</dim>
					<dim>1</dim>
				</port>
			</input>
			<output>
				<port id="2" precision="FP16">
					<dim>1</dim>
					<dim>64</dim>
					<dim>64</dim>
					<dim>32</dim>
				</port>
			</output>
		</layer>
		<layer id="160" name="Add_61" type="Add" version="opset1">
			<input>
				<port id="0">
					<dim>1</dim>
					<dim>64</dim>
					<dim>64</dim>
					<dim>32</dim>
				</port>
				<port id="1">
					<dim>1</dim>
					<dim>64</dim>
					<dim>64</dim>
					<dim>32</dim>
				</port>
			</input>
			<output>
				<port id="2" precision="FP16">
					<dim>1</dim>
					<dim>64</dim>
					<dim>64</dim>
					<dim>32</dim>
				</port>
			</output>
		</layer>
		<layer id="161" name="1084/Output_0/Data__const" type="Const" version="opset1">
			<data element_type="f16" offset="123168" shape="256,64,1,1" size="32768"/>
			<output>
				<port id="1" precision="FP16">
					<dim>256</dim>
					<dim>64</dim>
					<dim>1</dim>
					<dim>1</dim>
				</port>
			</output>
		</layer>
		<layer id="162" name="Conv_62/WithoutBiases" type="Convolution" version="opset1">
			<data dilations="1,1" output_padding="0,0" pads_begin="0,0" pads_end="0,0" strides="1,1"/>
			<input>
				<port id="0">
					<dim>1</dim>
					<dim>64</dim>
					<dim>64</dim>
					<dim>32</dim>
				</port>
				<port id="1">
					<dim>256</dim>
					<dim>64</dim>
					<dim>1</dim>
					<dim>1</dim>
				</port>
			</input>
			<output>
				<port id="2" precision="FP16">
					<dim>1</dim>
					<dim>256</dim>
					<dim>64</dim>
					<dim>32</dim>
				</port>
			</output>
		</layer>
		<layer id="163" name="Conv_62/Dims733112759/EltwiseUnsqueeze12894_const" type="Const" version="opset1">
			<data element_type="f16" offset="155936" shape="1,256,1,1" size="512"/>
			<output>
				<port id="1" precision="FP16">
					<dim>1</dim>
					<dim>256</dim>
					<dim>1</dim>
					<dim>1</dim>
				</port>
			</output>
		</layer>
		<layer id="164" name="Conv_62" type="Add" version="opset1">
			<input>
				<port id="0">
					<dim>1</dim>
					<dim>256</dim>
					<dim>64</dim>
					<dim>32</dim>
				</port>
				<port id="1">
					<dim>1</dim>
					<dim>256</dim>
					<dim>1</dim>
					<dim>1</dim>
				</port>
			</input>
			<output>
				<port id="2" precision="FP16">
					<dim>1</dim>
					<dim>256</dim>
					<dim>64</dim>
					<dim>32</dim>
				</port>
			</output>
		</layer>
		<layer id="165" name="1087/Output_0/Data__const" type="Const" version="opset1">
			<data element_type="f16" offset="156448" shape="256,64,1,1" size="32768"/>
			<output>
				<port id="1" precision="FP16">
					<dim>256</dim>
					<dim>64</dim>
					<dim>1</dim>
					<dim>1</dim>
				</port>
			</output>
		</layer>
		<layer id="166" name="Conv_63/WithoutBiases" type="Convolution" version="opset1">
			<data dilations="1,1" output_padding="0,0" pads_begin="0,0" pads_end="0,0" strides="1,1"/>
			<input>
				<port id="0">
					<dim>1</dim>
					<dim>64</dim>
					<dim>64</dim>
					<dim>32</dim>
				</port>
				<port id="1">
					<dim>256</dim>
					<dim>64</dim>
					<dim>1</dim>
					<dim>1</dim>
				</port>
			</input>
			<output>
				<port id="2" precision="FP16">
					<dim>1</dim>
					<dim>256</dim>
					<dim>64</dim>
					<dim>32</dim>
				</port>
			</output>
		</layer>
		<layer id="167" name="Conv_63/Dims744512778/EltwiseUnsqueeze12970_const" type="Const" version="opset1">
			<data element_type="f16" offset="189216" shape="1,256,1,1" size="512"/>
			<output>
				<port id="1" precision="FP16">
					<dim>1</dim>
					<dim>256</dim>
					<dim>1</dim>
					<dim>1</dim>
				</port>
			</output>
		</layer>
		<layer id="168" name="Conv_63" type="Add" version="opset1">
			<input>
				<port id="0">
					<dim>1</dim>
					<dim>256</dim>
					<dim>64</dim>
					<dim>32</dim>
				</port>
				<port id="1">
					<dim>1</dim>
					<dim>256</dim>
					<dim>1</dim>
					<dim>1</dim>
				</port>
			</input>
			<output>
				<port id="2" precision="FP16">
					<dim>1</dim>
					<dim>256</dim>
					<dim>64</dim>
					<dim>32</dim>
				</port>
			</output>
		</layer>
		<layer id="169" name="Add_64" type="Add" version="opset1">
			<input>
				<port id="0">
					<dim>1</dim>
					<dim>256</dim>
					<dim>64</dim>
					<dim>32</dim>
				</port>
				<port id="1">
					<dim>1</dim>
					<dim>256</dim>
					<dim>64</dim>
					<dim>32</dim>
				</port>
			</input>
			<output>
				<port id="2" precision="FP16">
					<dim>1</dim>
					<dim>256</dim>
					<dim>64</dim>
					<dim>32</dim>
				</port>
			</output>
		</layer>
		<layer id="170" name="Relu_65" type="ReLU" version="opset1">
			<input>
				<port id="0">
					<dim>1</dim>
					<dim>256</dim>
					<dim>64</dim>
					<dim>32</dim>
				</port>
			</input>
			<output>
				<port id="1" precision="FP16">
					<dim>1</dim>
					<dim>256</dim>
					<dim>64</dim>
					<dim>32</dim>
				</port>
			</output>
		</layer>
		<layer id="171" name="1090/Output_0/Data__const" type="Const" version="opset1">
			<data element_type="f16" offset="189728" shape="64,256,1,1" size="32768"/>
			<output>
				<port id="1" precision="FP16">
					<dim>64</dim>
					<dim>256</dim>
					<dim>1</dim>
					<dim>1</dim>
				</port>
			</output>
		</layer>
		<layer id="172" name="Conv_66/WithoutBiases" type="Convolution" version="opset1">
			<data dilations="1,1" output_padding="0,0" pads_begin="0,0" pads_end="0,0" strides="1,1"/>
			<input>
				<port id="0">
					<dim>1</dim>
					<dim>256</dim>
					<dim>64</dim>
					<dim>32</dim>
				</port>
				<port id="1">
					<dim>64</dim>
					<dim>256</dim>
					<dim>1</dim>
					<dim>1</dim>
				</port>
			</input>
			<output>
				<port id="2" precision="FP16">
					<dim>1</dim>
					<dim>64</dim>
					<dim>64</dim>
					<dim>32</dim>
				</port>
			</output>
		</layer>
		<layer id="173" name="Conv_66/Dims772712825/EltwiseUnsqueeze13158_const" type="Const" version="opset1">
			<data element_type="f16" offset="222496" shape="1,64,1,1" size="128"/>
			<output>
				<port id="1" precision="FP16">
					<dim>1</dim>
					<dim>64</dim>
					<dim>1</dim>
					<dim>1</dim>
				</port>
			</output>
		</layer>
		<layer id="174" name="Conv_66" type="Add" version="opset1">
			<input>
				<port id="0">
					<dim>1</dim>
					<dim>64</dim>
					<dim>64</dim>
					<dim>32</dim>
				</port>
				<port id="1">
					<dim>1</dim>
					<dim>64</dim>
					<dim>1</dim>
					<dim>1</dim>
				</port>
			</input>
			<output>
				<port id="2" precision="FP16">
					<dim>1</dim>
					<dim>64</dim>
					<dim>64</dim>
					<dim>32</dim>
				</port>
			</output>
		</layer>
		<layer id="175" name="Relu_67" type="ReLU" version="opset1">
			<input>
				<port id="0">
					<dim>1</dim>
					<dim>64</dim>
					<dim>64</dim>
					<dim>32</dim>
				</port>
			</input>
			<output>
				<port id="1" precision="FP16">
					<dim>1</dim>
					<dim>64</dim>
					<dim>64</dim>
					<dim>32</dim>
				</port>
			</output>
		</layer>
		<layer id="176" name="conv2.1.conv2a.conv1.weight/Output_0/Data__const" type="Const" version="opset1">
			<data element_type="f16" offset="222624" shape="64,64,1,1" size="8192"/>
			<output>
				<port id="1" precision="FP16">
					<dim>64</dim>
					<dim>64</dim>
					<dim>1</dim>
					<dim>1</dim>
				</port>
			</output>
		</layer>
		<layer id="177" name="Conv_68" type="Convolution" version="opset1">
			<data dilations="1,1" output_padding="0,0" pads_begin="0,0" pads_end="0,0" strides="1,1"/>
			<input>
				<port id="0">
					<dim>1</dim>
					<dim>64</dim>
					<dim>64</dim>
					<dim>32</dim>
				</port>
				<port id="1">
					<dim>64</dim>
					<dim>64</dim>
					<dim>1</dim>
					<dim>1</dim>
				</port>
			</input>
			<output>
				<port id="2" precision="FP16">
					<dim>1</dim>
					<dim>64</dim>
					<dim>64</dim>
					<dim>32</dim>
				</port>
			</output>
		</layer>
		<layer id="178" name="2855028553_const" type="Const" version="opset1">
			<data element_type="f16" offset="230816" shape="64,1,1,3,3" size="1152"/>
			<output>
				<port id="1" precision="FP16">
					<dim>64</dim>
					<dim>1</dim>
					<dim>1</dim>
					<dim>3</dim>
					<dim>3</dim>
				</port>
			</output>
		</layer>
		<layer id="179" name="Conv_69/WithoutBiases" type="GroupConvolution" version="opset1">
			<data dilations="1,1" output_padding="0,0" pads_begin="1,1" pads_end="1,1" strides="1,1"/>
			<input>
				<port id="0">
					<dim>1</dim>
					<dim>64</dim>
					<dim>64</dim>
					<dim>32</dim>
				</port>
				<port id="1">
					<dim>64</dim>
					<dim>1</dim>
					<dim>1</dim>
					<dim>3</dim>
					<dim>3</dim>
				</port>
			</input>
			<output>
				<port id="2" precision="FP16">
					<dim>1</dim>
					<dim>64</dim>
					<dim>64</dim>
					<dim>32</dim>
				</port>
			</output>
		</layer>
		<layer id="180" name="Conv_69/Dims736112764/EltwiseUnsqueeze12914_const" type="Const" version="opset1">
			<data element_type="f16" offset="231968" shape="1,64,1,1" size="128"/>
			<output>
				<port id="1" precision="FP16">
					<dim>1</dim>
					<dim>64</dim>
					<dim>1</dim>
					<dim>1</dim>
				</port>
			</output>
		</layer>
		<layer id="181" name="Conv_69" type="Add" version="opset1">
			<input>
				<port id="0">
					<dim>1</dim>
					<dim>64</dim>
					<dim>64</dim>
					<dim>32</dim>
				</port>
				<port id="1">
					<dim>1</dim>
					<dim>64</dim>
					<dim>1</dim>
					<dim>1</dim>
				</port>
			</input>
			<output>
				<port id="2" precision="FP16">
					<dim>1</dim>
					<dim>64</dim>
					<dim>64</dim>
					<dim>32</dim>
				</port>
			</output>
		</layer>
		<layer id="182" name="Relu_70" type="ReLU" version="opset1">
			<input>
				<port id="0">
					<dim>1</dim>
					<dim>64</dim>
					<dim>64</dim>
					<dim>32</dim>
				</port>
			</input>
			<output>
				<port id="1" precision="FP16">
					<dim>1</dim>
					<dim>64</dim>
					<dim>64</dim>
					<dim>32</dim>
				</port>
			</output>
		</layer>
		<layer id="183" name="674/Output_0/Data__const" type="Const" version="opset1">
			<data element_type="i64" offset="36736" shape="" size="8"/>
			<output>
				<port id="1" precision="I64"/>
			</output>
		</layer>
		<layer id="184" name="GlobalAveragePool_98/input_rank/shape_of" type="ShapeOf" version="opset3">
			<data output_type="i64"/>
			<input>
				<port id="0">
					<dim>1</dim>
					<dim>64</dim>
					<dim>64</dim>
					<dim>32</dim>
				</port>
			</input>
			<output>
				<port id="1" precision="I64">
					<dim>4</dim>
				</port>
			</output>
		</layer>
		<layer id="185" name="GlobalAveragePool_98/input_rank/rank_of" type="ShapeOf" version="opset3">
			<data output_type="i64"/>
			<input>
				<port id="0">
					<dim>4</dim>
				</port>
			</input>
			<output>
				<port id="1" precision="I64">
					<dim>1</dim>
				</port>
			</output>
		</layer>
		<layer id="186" name="GlobalAveragePool_98/input_rank/0d_rank_of/value/Output_0/Data__const" type="Const" version="opset1">
			<data element_type="i64" offset="36744" shape="1" size="8"/>
			<output>
				<port id="1" precision="I64">
					<dim>1</dim>
				</port>
			</output>
		</layer>
		<layer id="187" name="GlobalAveragePool_98/input_rank" type="Squeeze" version="opset1">
			<input>
				<port id="0">
					<dim>1</dim>
				</port>
				<port id="1">
					<dim>1</dim>
				</port>
			</input>
			<output>
				<port id="2" precision="I64"/>
			</output>
		</layer>
		<layer id="188" name="676/Output_0/Data__const" type="Const" version="opset1">
			<data element_type="i64" offset="36752" shape="" size="8"/>
			<output>
				<port id="1" precision="I64"/>
			</output>
		</layer>
		<layer id="189" name="GlobalAveragePool_98/global_pooling_reduce_axis" type="Range" version="opset4">
			<data output_type="i64"/>
			<input>
				<port id="0"/>
				<port id="1"/>
				<port id="2"/>
			</input>
			<output>
				<port id="3" precision="I64">
					<dim>2</dim>
				</port>
			</output>
		</layer>
		<layer id="190" name="GlobalAveragePool_98/reduce" type="ReduceMean" version="opset1">
			<data keep_dims="True"/>
			<input>
				<port id="0">
					<dim>1</dim>
					<dim>64</dim>
					<dim>64</dim>
					<dim>32</dim>
				</port>
				<port id="1">
					<dim>2</dim>
				</port>
			</input>
			<output>
				<port id="2" precision="FP16">
					<dim>1</dim>
					<dim>64</dim>
					<dim>1</dim>
					<dim>1</dim>
				</port>
			</output>
		</layer>
		<layer id="191" name="Copy_conv2.1.gate.fc1.weight/Output_0/Data__const" type="Const" version="opset1">
			<data element_type="f16" offset="232096" shape="4,64,1,1" size="512"/>
			<output>
				<port id="1" precision="FP16">
					<dim>4</dim>
					<dim>64</dim>
					<dim>1</dim>
					<dim>1</dim>
				</port>
			</output>
		</layer>
		<layer id="192" name="Conv_99/WithoutBiases" type="Convolution" version="opset1">
			<data dilations="1,1" output_padding="0,0" pads_begin="0,0" pads_end="0,0" strides="1,1"/>
			<input>
				<port id="0">
					<dim>1</dim>
					<dim>64</dim>
					<dim>1</dim>
					<dim>1</dim>
				</port>
				<port id="1">
					<dim>4</dim>
					<dim>64</dim>
					<dim>1</dim>
					<dim>1</dim>
				</port>
			</input>
			<output>
				<port id="2" precision="FP16">
					<dim>1</dim>
					<dim>4</dim>
					<dim>1</dim>
					<dim>1</dim>
				</port>
			</output>
		</layer>
		<layer id="193" name="Conv_99/Dims784112844/EltwiseUnsqueeze13234_const" type="Const" version="opset1">
			<data element_type="f16" offset="232608" shape="1,4,1,1" size="8"/>
			<output>
				<port id="1" precision="FP16">
					<dim>1</dim>
					<dim>4</dim>
					<dim>1</dim>
					<dim>1</dim>
				</port>
			</output>
		</layer>
		<layer id="194" name="Conv_99" type="Add" version="opset1">
			<input>
				<port id="0">
					<dim>1</dim>
					<dim>4</dim>
					<dim>1</dim>
					<dim>1</dim>
				</port>
				<port id="1">
					<dim>1</dim>
					<dim>4</dim>
					<dim>1</dim>
					<dim>1</dim>
				</port>
			</input>
			<output>
				<port id="2" precision="FP16">
					<dim>1</dim>
					<dim>4</dim>
					<dim>1</dim>
					<dim>1</dim>
				</port>
			</output>
		</layer>
		<layer id="195" name="Relu_100" type="ReLU" version="opset1">
			<input>
				<port id="0">
					<dim>1</dim>
					<dim>4</dim>
					<dim>1</dim>
					<dim>1</dim>
				</port>
			</input>
			<output>
				<port id="1" precision="FP16">
					<dim>1</dim>
					<dim>4</dim>
					<dim>1</dim>
					<dim>1</dim>
				</port>
			</output>
		</layer>
		<layer id="196" name="Copy_conv2.1.gate.fc2.weight/Output_0/Data__const" type="Const" version="opset1">
			<data element_type="f16" offset="232616" shape="64,4,1,1" size="512"/>
			<output>
				<port id="1" precision="FP16">
					<dim>64</dim>
					<dim>4</dim>
					<dim>1</dim>
					<dim>1</dim>
				</port>
			</output>
		</layer>
		<layer id="197" name="Conv_101/WithoutBiases" type="Convolution" version="opset1">
			<data dilations="1,1" output_padding="0,0" pads_begin="0,0" pads_end="0,0" strides="1,1"/>
			<input>
				<port id="0">
					<dim>1</dim>
					<dim>4</dim>
					<dim>1</dim>
					<dim>1</dim>
				</port>
				<port id="1">
					<dim>64</dim>
					<dim>4</dim>
					<dim>1</dim>
					<dim>1</dim>
				</port>
			</input>
			<output>
				<port id="2" precision="FP16">
					<dim>1</dim>
					<dim>64</dim>
					<dim>1</dim>
					<dim>1</dim>
				</port>
			</output>
		</layer>
		<layer id="198" name="Conv_101/Dims735512763/EltwiseUnsqueeze12910_const" type="Const" version="opset1">
			<data element_type="f16" offset="233128" shape="1,64,1,1" size="128"/>
			<output>
				<port id="1" precision="FP16">
					<dim>1</dim>
					<dim>64</dim>
					<dim>1</dim>
					<dim>1</dim>
				</port>
			</output>
		</layer>
		<layer id="199" name="Conv_101" type="Add" version="opset1">
			<input>
				<port id="0">
					<dim>1</dim>
					<dim>64</dim>
					<dim>1</dim>
					<dim>1</dim>
				</port>
				<port id="1">
					<dim>1</dim>
					<dim>64</dim>
					<dim>1</dim>
					<dim>1</dim>
				</port>
			</input>
			<output>
				<port id="2" precision="FP16">
					<dim>1</dim>
					<dim>64</dim>
					<dim>1</dim>
					<dim>1</dim>
				</port>
			</output>
		</layer>
		<layer id="200" name="Sigmoid_102" type="Sigmoid" version="opset1">
			<input>
				<port id="0">
					<dim>1</dim>
					<dim>64</dim>
					<dim>1</dim>
					<dim>1</dim>
				</port>
			</input>
			<output>
				<port id="1" precision="FP16">
					<dim>1</dim>
					<dim>64</dim>
					<dim>1</dim>
					<dim>1</dim>
				</port>
			</output>
		</layer>
		<layer id="201" name="Mul_103" type="Multiply" version="opset1">
			<input>
				<port id="0">
					<dim>1</dim>
					<dim>64</dim>
					<dim>64</dim>
					<dim>32</dim>
				</port>
				<port id="1">
					<dim>1</dim>
					<dim>64</dim>
					<dim>1</dim>
					<dim>1</dim>
				</port>
			</input>
			<output>
				<port id="2" precision="FP16">
					<dim>1</dim>
					<dim>64</dim>
					<dim>64</dim>
					<dim>32</dim>
				</port>
			</output>
		</layer>
		<layer id="202" name="conv2.1.conv2b.0.conv1.weight/Output_0/Data__const" type="Const" version="opset1">
			<data element_type="f16" offset="233256" shape="64,64,1,1" size="8192"/>
			<output>
				<port id="1" precision="FP16">
					<dim>64</dim>
					<dim>64</dim>
					<dim>1</dim>
					<dim>1</dim>
				</port>
			</output>
		</layer>
		<layer id="203" name="Conv_71" type="Convolution" version="opset1">
			<data dilations="1,1" output_padding="0,0" pads_begin="0,0" pads_end="0,0" strides="1,1"/>
			<input>
				<port id="0">
					<dim>1</dim>
					<dim>64</dim>
					<dim>64</dim>
					<dim>32</dim>
				</port>
				<port id="1">
					<dim>64</dim>
					<dim>64</dim>
					<dim>1</dim>
					<dim>1</dim>
				</port>
			</input>
			<output>
				<port id="2" precision="FP16">
					<dim>1</dim>
					<dim>64</dim>
					<dim>64</dim>
					<dim>32</dim>
				</port>
			</output>
		</layer>
		<layer id="204" name="2876228765_const" type="Const" version="opset1">
			<data element_type="f16" offset="241448" shape="64,1,1,3,3" size="1152"/>
			<output>
				<port id="1" precision="FP16">
					<dim>64</dim>
					<dim>1</dim>
					<dim>1</dim>
					<dim>3</dim>
					<dim>3</dim>
				</port>
			</output>
		</layer>
		<layer id="205" name="Conv_72/WithoutBiases" type="GroupConvolution" version="opset1">
			<data dilations="1,1" output_padding="0,0" pads_begin="1,1" pads_end="1,1" strides="1,1"/>
			<input>
				<port id="0">
					<dim>1</dim>
					<dim>64</dim>
					<dim>64</dim>
					<dim>32</dim>
				</port>
				<port id="1">
					<dim>64</dim>
					<dim>1</dim>
					<dim>1</dim>
					<dim>3</dim>
					<dim>3</dim>
				</port>
			</input>
			<output>
				<port id="2" precision="FP16">
					<dim>1</dim>
					<dim>64</dim>
					<dim>64</dim>
					<dim>32</dim>
				</port>
			</output>
		</layer>
		<layer id="206" name="Conv_72/Dims805712880/EltwiseUnsqueeze13378_const" type="Const" version="opset1">
			<data element_type="f16" offset="242600" shape="1,64,1,1" size="128"/>
			<output>
				<port id="1" precision="FP16">
					<dim>1</dim>
					<dim>64</dim>
					<dim>1</dim>
					<dim>1</dim>
				</port>
			</output>
		</layer>
		<layer id="207" name="Conv_72" type="Add" version="opset1">
			<input>
				<port id="0">
					<dim>1</dim>
					<dim>64</dim>
					<dim>64</dim>
					<dim>32</dim>
				</port>
				<port id="1">
					<dim>1</dim>
					<dim>64</dim>
					<dim>1</dim>
					<dim>1</dim>
				</port>
			</input>
			<output>
				<port id="2" precision="FP16">
					<dim>1</dim>
					<dim>64</dim>
					<dim>64</dim>
					<dim>32</dim>
				</port>
			</output>
		</layer>
		<layer id="208" name="Relu_73" type="ReLU" version="opset1">
			<input>
				<port id="0">
					<dim>1</dim>
					<dim>64</dim>
					<dim>64</dim>
					<dim>32</dim>
				</port>
			</input>
			<output>
				<port id="1" precision="FP16">
					<dim>1</dim>
					<dim>64</dim>
					<dim>64</dim>
					<dim>32</dim>
				</port>
			</output>
		</layer>
		<layer id="209" name="conv2.1.conv2b.1.conv1.weight/Output_0/Data__const" type="Const" version="opset1">
			<data element_type="f16" offset="242728" shape="64,64,1,1" size="8192"/>
			<output>
				<port id="1" precision="FP16">
					<dim>64</dim>
					<dim>64</dim>
					<dim>1</dim>
					<dim>1</dim>
				</port>
			</output>
		</layer>
		<layer id="210" name="Conv_74" type="Convolution" version="opset1">
			<data dilations="1,1" output_padding="0,0" pads_begin="0,0" pads_end="0,0" strides="1,1"/>
			<input>
				<port id="0">
					<dim>1</dim>
					<dim>64</dim>
					<dim>64</dim>
					<dim>32</dim>
				</port>
				<port id="1">
					<dim>64</dim>
					<dim>64</dim>
					<dim>1</dim>
					<dim>1</dim>
				</port>
			</input>
			<output>
				<port id="2" precision="FP16">
					<dim>1</dim>
					<dim>64</dim>
					<dim>64</dim>
					<dim>32</dim>
				</port>
			</output>
		</layer>
		<layer id="211" name="2862228625_const" type="Const" version="opset1">
			<data element_type="f16" offset="250920" shape="64,1,1,3,3" size="1152"/>
			<output>
				<port id="1" precision="FP16">
					<dim>64</dim>
					<dim>1</dim>
					<dim>1</dim>
					<dim>3</dim>
					<dim>3</dim>
				</port>
			</output>
		</layer>
		<layer id="212" name="Conv_75/WithoutBiases" type="GroupConvolution" version="opset1">
			<data dilations="1,1" output_padding="0,0" pads_begin="1,1" pads_end="1,1" strides="1,1"/>
			<input>
				<port id="0">
					<dim>1</dim>
					<dim>64</dim>
					<dim>64</dim>
					<dim>32</dim>
				</port>
				<port id="1">
					<dim>64</dim>
					<dim>1</dim>
					<dim>1</dim>
					<dim>3</dim>
					<dim>3</dim>
				</port>
			</input>
			<output>
				<port id="2" precision="FP16">
					<dim>1</dim>
					<dim>64</dim>
					<dim>64</dim>
					<dim>32</dim>
				</port>
			</output>
		</layer>
		<layer id="213" name="Conv_75/Dims757712800/EltwiseUnsqueeze13058_const" type="Const" version="opset1">
			<data element_type="f16" offset="252072" shape="1,64,1,1" size="128"/>
			<output>
				<port id="1" precision="FP16">
					<dim>1</dim>
					<dim>64</dim>
					<dim>1</dim>
					<dim>1</dim>
				</port>
			</output>
		</layer>
		<layer id="214" name="Conv_75" type="Add" version="opset1">
			<input>
				<port id="0">
					<dim>1</dim>
					<dim>64</dim>
					<dim>64</dim>
					<dim>32</dim>
				</port>
				<port id="1">
					<dim>1</dim>
					<dim>64</dim>
					<dim>1</dim>
					<dim>1</dim>
				</port>
			</input>
			<output>
				<port id="2" precision="FP16">
					<dim>1</dim>
					<dim>64</dim>
					<dim>64</dim>
					<dim>32</dim>
				</port>
			</output>
		</layer>
		<layer id="215" name="Relu_76" type="ReLU" version="opset1">
			<input>
				<port id="0">
					<dim>1</dim>
					<dim>64</dim>
					<dim>64</dim>
					<dim>32</dim>
				</port>
			</input>
			<output>
				<port id="1" precision="FP16">
					<dim>1</dim>
					<dim>64</dim>
					<dim>64</dim>
					<dim>32</dim>
				</port>
			</output>
		</layer>
		<layer id="216" name="679/Output_0/Data__const" type="Const" version="opset1">
			<data element_type="i64" offset="36736" shape="" size="8"/>
			<output>
				<port id="1" precision="I64"/>
			</output>
		</layer>
		<layer id="217" name="GlobalAveragePool_104/input_rank/shape_of" type="ShapeOf" version="opset3">
			<data output_type="i64"/>
			<input>
				<port id="0">
					<dim>1</dim>
					<dim>64</dim>
					<dim>64</dim>
					<dim>32</dim>
				</port>
			</input>
			<output>
				<port id="1" precision="I64">
					<dim>4</dim>
				</port>
			</output>
		</layer>
		<layer id="218" name="GlobalAveragePool_104/input_rank/rank_of" type="ShapeOf" version="opset3">
			<data output_type="i64"/>
			<input>
				<port id="0">
					<dim>4</dim>
				</port>
			</input>
			<output>
				<port id="1" precision="I64">
					<dim>1</dim>
				</port>
			</output>
		</layer>
		<layer id="219" name="GlobalAveragePool_104/input_rank/0d_rank_of/value/Output_0/Data__const" type="Const" version="opset1">
			<data element_type="i64" offset="36744" shape="1" size="8"/>
			<output>
				<port id="1" precision="I64">
					<dim>1</dim>
				</port>
			</output>
		</layer>
		<layer id="220" name="GlobalAveragePool_104/input_rank" type="Squeeze" version="opset1">
			<input>
				<port id="0">
					<dim>1</dim>
				</port>
				<port id="1">
					<dim>1</dim>
				</port>
			</input>
			<output>
				<port id="2" precision="I64"/>
			</output>
		</layer>
		<layer id="221" name="681/Output_0/Data__const" type="Const" version="opset1">
			<data element_type="i64" offset="36752" shape="" size="8"/>
			<output>
				<port id="1" precision="I64"/>
			</output>
		</layer>
		<layer id="222" name="GlobalAveragePool_104/global_pooling_reduce_axis" type="Range" version="opset4">
			<data output_type="i64"/>
			<input>
				<port id="0"/>
				<port id="1"/>
				<port id="2"/>
			</input>
			<output>
				<port id="3" precision="I64">
					<dim>2</dim>
				</port>
			</output>
		</layer>
		<layer id="223" name="GlobalAveragePool_104/reduce" type="ReduceMean" version="opset1">
			<data keep_dims="True"/>
			<input>
				<port id="0">
					<dim>1</dim>
					<dim>64</dim>
					<dim>64</dim>
					<dim>32</dim>
				</port>
				<port id="1">
					<dim>2</dim>
				</port>
			</input>
			<output>
				<port id="2" precision="FP16">
					<dim>1</dim>
					<dim>64</dim>
					<dim>1</dim>
					<dim>1</dim>
				</port>
			</output>
		</layer>
		<layer id="224" name="Copy_conv2.1.gate.fc1.weight/Output_0/Data_2409_const" type="Const" version="opset1">
			<data element_type="f16" offset="232096" shape="4,64,1,1" size="512"/>
			<output>
				<port id="1" precision="FP16">
					<dim>4</dim>
					<dim>64</dim>
					<dim>1</dim>
					<dim>1</dim>
				</port>
			</output>
		</layer>
		<layer id="225" name="Conv_105/WithoutBiases" type="Convolution" version="opset1">
			<data dilations="1,1" output_padding="0,0" pads_begin="0,0" pads_end="0,0" strides="1,1"/>
			<input>
				<port id="0">
					<dim>1</dim>
					<dim>64</dim>
					<dim>1</dim>
					<dim>1</dim>
				</port>
				<port id="1">
					<dim>4</dim>
					<dim>64</dim>
					<dim>1</dim>
					<dim>1</dim>
				</port>
			</input>
			<output>
				<port id="2" precision="FP16">
					<dim>1</dim>
					<dim>4</dim>
					<dim>1</dim>
					<dim>1</dim>
				</port>
			</output>
		</layer>
		<layer id="226" name="Conv_105/Dims746312781/EltwiseUnsqueeze12982_const" type="Const" version="opset1">
			<data element_type="f16" offset="232608" shape="1,4,1,1" size="8"/>
			<output>
				<port id="1" precision="FP16">
					<dim>1</dim>
					<dim>4</dim>
					<dim>1</dim>
					<dim>1</dim>
				</port>
			</output>
		</layer>
		<layer id="227" name="Conv_105" type="Add" version="opset1">
			<input>
				<port id="0">
					<dim>1</dim>
					<dim>4</dim>
					<dim>1</dim>
					<dim>1</dim>
				</port>
				<port id="1">
					<dim>1</dim>
					<dim>4</dim>
					<dim>1</dim>
					<dim>1</dim>
				</port>
			</input>
			<output>
				<port id="2" precision="FP16">
					<dim>1</dim>
					<dim>4</dim>
					<dim>1</dim>
					<dim>1</dim>
				</port>
			</output>
		</layer>
		<layer id="228" name="Relu_106" type="ReLU" version="opset1">
			<input>
				<port id="0">
					<dim>1</dim>
					<dim>4</dim>
					<dim>1</dim>
					<dim>1</dim>
				</port>
			</input>
			<output>
				<port id="1" precision="FP16">
					<dim>1</dim>
					<dim>4</dim>
					<dim>1</dim>
					<dim>1</dim>
				</port>
			</output>
		</layer>
		<layer id="229" name="Copy_conv2.1.gate.fc2.weight/Output_0/Data_2417_const" type="Const" version="opset1">
			<data element_type="f16" offset="232616" shape="64,4,1,1" size="512"/>
			<output>
				<port id="1" precision="FP16">
					<dim>64</dim>
					<dim>4</dim>
					<dim>1</dim>
					<dim>1</dim>
				</port>
			</output>
		</layer>
		<layer id="230" name="Conv_107/WithoutBiases" type="Convolution" version="opset1">
			<data dilations="1,1" output_padding="0,0" pads_begin="0,0" pads_end="0,0" strides="1,1"/>
			<input>
				<port id="0">
					<dim>1</dim>
					<dim>4</dim>
					<dim>1</dim>
					<dim>1</dim>
				</port>
				<port id="1">
					<dim>64</dim>
					<dim>4</dim>
					<dim>1</dim>
					<dim>1</dim>
				</port>
			</input>
			<output>
				<port id="2" precision="FP16">
					<dim>1</dim>
					<dim>64</dim>
					<dim>1</dim>
					<dim>1</dim>
				</port>
			</output>
		</layer>
		<layer id="231" name="Conv_107/Dims742112774/EltwiseUnsqueeze12954_const" type="Const" version="opset1">
			<data element_type="f16" offset="233128" shape="1,64,1,1" size="128"/>
			<output>
				<port id="1" precision="FP16">
					<dim>1</dim>
					<dim>64</dim>
					<dim>1</dim>
					<dim>1</dim>
				</port>
			</output>
		</layer>
		<layer id="232" name="Conv_107" type="Add" version="opset1">
			<input>
				<port id="0">
					<dim>1</dim>
					<dim>64</dim>
					<dim>1</dim>
					<dim>1</dim>
				</port>
				<port id="1">
					<dim>1</dim>
					<dim>64</dim>
					<dim>1</dim>
					<dim>1</dim>
				</port>
			</input>
			<output>
				<port id="2" precision="FP16">
					<dim>1</dim>
					<dim>64</dim>
					<dim>1</dim>
					<dim>1</dim>
				</port>
			</output>
		</layer>
		<layer id="233" name="Sigmoid_108" type="Sigmoid" version="opset1">
			<input>
				<port id="0">
					<dim>1</dim>
					<dim>64</dim>
					<dim>1</dim>
					<dim>1</dim>
				</port>
			</input>
			<output>
				<port id="1" precision="FP16">
					<dim>1</dim>
					<dim>64</dim>
					<dim>1</dim>
					<dim>1</dim>
				</port>
			</output>
		</layer>
		<layer id="234" name="Mul_109" type="Multiply" version="opset1">
			<input>
				<port id="0">
					<dim>1</dim>
					<dim>64</dim>
					<dim>64</dim>
					<dim>32</dim>
				</port>
				<port id="1">
					<dim>1</dim>
					<dim>64</dim>
					<dim>1</dim>
					<dim>1</dim>
				</port>
			</input>
			<output>
				<port id="2" precision="FP16">
					<dim>1</dim>
					<dim>64</dim>
					<dim>64</dim>
					<dim>32</dim>
				</port>
			</output>
		</layer>
		<layer id="235" name="Add_110" type="Add" version="opset1">
			<input>
				<port id="0">
					<dim>1</dim>
					<dim>64</dim>
					<dim>64</dim>
					<dim>32</dim>
				</port>
				<port id="1">
					<dim>1</dim>
					<dim>64</dim>
					<dim>64</dim>
					<dim>32</dim>
				</port>
			</input>
			<output>
				<port id="2" precision="FP16">
					<dim>1</dim>
					<dim>64</dim>
					<dim>64</dim>
					<dim>32</dim>
				</port>
			</output>
		</layer>
		<layer id="236" name="conv2.1.conv2c.0.conv1.weight/Output_0/Data__const" type="Const" version="opset1">
			<data element_type="f16" offset="252200" shape="64,64,1,1" size="8192"/>
			<output>
				<port id="1" precision="FP16">
					<dim>64</dim>
					<dim>64</dim>
					<dim>1</dim>
					<dim>1</dim>
				</port>
			</output>
		</layer>
		<layer id="237" name="Conv_77" type="Convolution" version="opset1">
			<data dilations="1,1" output_padding="0,0" pads_begin="0,0" pads_end="0,0" strides="1,1"/>
			<input>
				<port id="0">
					<dim>1</dim>
					<dim>64</dim>
					<dim>64</dim>
					<dim>32</dim>
				</port>
				<port id="1">
					<dim>64</dim>
					<dim>64</dim>
					<dim>1</dim>
					<dim>1</dim>
				</port>
			</input>
			<output>
				<port id="2" precision="FP16">
					<dim>1</dim>
					<dim>64</dim>
					<dim>64</dim>
					<dim>32</dim>
				</port>
			</output>
		</layer>
		<layer id="238" name="2870628709_const" type="Const" version="opset1">
			<data element_type="f16" offset="260392" shape="64,1,1,3,3" size="1152"/>
			<output>
				<port id="1" precision="FP16">
					<dim>64</dim>
					<dim>1</dim>
					<dim>1</dim>
					<dim>3</dim>
					<dim>3</dim>
				</port>
			</output>
		</layer>
		<layer id="239" name="Conv_78/WithoutBiases" type="GroupConvolution" version="opset1">
			<data dilations="1,1" output_padding="0,0" pads_begin="1,1" pads_end="1,1" strides="1,1"/>
			<input>
				<port id="0">
					<dim>1</dim>
					<dim>64</dim>
					<dim>64</dim>
					<dim>32</dim>
				</port>
				<port id="1">
					<dim>64</dim>
					<dim>1</dim>
					<dim>1</dim>
					<dim>3</dim>
					<dim>3</dim>
				</port>
			</input>
			<output>
				<port id="2" precision="FP16">
					<dim>1</dim>
					<dim>64</dim>
					<dim>64</dim>
					<dim>32</dim>
				</port>
			</output>
		</layer>
		<layer id="240" name="Conv_78/Dims781712840/EltwiseUnsqueeze13218_const" type="Const" version="opset1">
			<data element_type="f16" offset="261544" shape="1,64,1,1" size="128"/>
			<output>
				<port id="1" precision="FP16">
					<dim>1</dim>
					<dim>64</dim>
					<dim>1</dim>
					<dim>1</dim>
				</port>
			</output>
		</layer>
		<layer id="241" name="Conv_78" type="Add" version="opset1">
			<input>
				<port id="0">
					<dim>1</dim>
					<dim>64</dim>
					<dim>64</dim>
					<dim>32</dim>
				</port>
				<port id="1">
					<dim>1</dim>
					<dim>64</dim>
					<dim>1</dim>
					<dim>1</dim>
				</port>
			</input>
			<output>
				<port id="2" precision="FP16">
					<dim>1</dim>
					<dim>64</dim>
					<dim>64</dim>
					<dim>32</dim>
				</port>
			</output>
		</layer>
		<layer id="242" name="Relu_79" type="ReLU" version="opset1">
			<input>
				<port id="0">
					<dim>1</dim>
					<dim>64</dim>
					<dim>64</dim>
					<dim>32</dim>
				</port>
			</input>
			<output>
				<port id="1" precision="FP16">
					<dim>1</dim>
					<dim>64</dim>
					<dim>64</dim>
					<dim>32</dim>
				</port>
			</output>
		</layer>
		<layer id="243" name="conv2.1.conv2c.1.conv1.weight/Output_0/Data__const" type="Const" version="opset1">
			<data element_type="f16" offset="261672" shape="64,64,1,1" size="8192"/>
			<output>
				<port id="1" precision="FP16">
					<dim>64</dim>
					<dim>64</dim>
					<dim>1</dim>
					<dim>1</dim>
				</port>
			</output>
		</layer>
		<layer id="244" name="Conv_80" type="Convolution" version="opset1">
			<data dilations="1,1" output_padding="0,0" pads_begin="0,0" pads_end="0,0" strides="1,1"/>
			<input>
				<port id="0">
					<dim>1</dim>
					<dim>64</dim>
					<dim>64</dim>
					<dim>32</dim>
				</port>
				<port id="1">
					<dim>64</dim>
					<dim>64</dim>
					<dim>1</dim>
					<dim>1</dim>
				</port>
			</input>
			<output>
				<port id="2" precision="FP16">
					<dim>1</dim>
					<dim>64</dim>
					<dim>64</dim>
					<dim>32</dim>
				</port>
			</output>
		</layer>
		<layer id="245" name="2859028593_const" type="Const" version="opset1">
			<data element_type="f16" offset="269864" shape="64,1,1,3,3" size="1152"/>
			<output>
				<port id="1" precision="FP16">
					<dim>64</dim>
					<dim>1</dim>
					<dim>1</dim>
					<dim>3</dim>
					<dim>3</dim>
				</port>
			</output>
		</layer>
		<layer id="246" name="Conv_81/WithoutBiases" type="GroupConvolution" version="opset1">
			<data dilations="1,1" output_padding="0,0" pads_begin="1,1" pads_end="1,1" strides="1,1"/>
			<input>
				<port id="0">
					<dim>1</dim>
					<dim>64</dim>
					<dim>64</dim>
					<dim>32</dim>
				</port>
				<port id="1">
					<dim>64</dim>
					<dim>1</dim>
					<dim>1</dim>
					<dim>3</dim>
					<dim>3</dim>
				</port>
			</input>
			<output>
				<port id="2" precision="FP16">
					<dim>1</dim>
					<dim>64</dim>
					<dim>64</dim>
					<dim>32</dim>
				</port>
			</output>
		</layer>
		<layer id="247" name="Conv_81/Dims748712785/EltwiseUnsqueeze12998_const" type="Const" version="opset1">
			<data element_type="f16" offset="271016" shape="1,64,1,1" size="128"/>
			<output>
				<port id="1" precision="FP16">
					<dim>1</dim>
					<dim>64</dim>
					<dim>1</dim>
					<dim>1</dim>
				</port>
			</output>
		</layer>
		<layer id="248" name="Conv_81" type="Add" version="opset1">
			<input>
				<port id="0">
					<dim>1</dim>
					<dim>64</dim>
					<dim>64</dim>
					<dim>32</dim>
				</port>
				<port id="1">
					<dim>1</dim>
					<dim>64</dim>
					<dim>1</dim>
					<dim>1</dim>
				</port>
			</input>
			<output>
				<port id="2" precision="FP16">
					<dim>1</dim>
					<dim>64</dim>
					<dim>64</dim>
					<dim>32</dim>
				</port>
			</output>
		</layer>
		<layer id="249" name="Relu_82" type="ReLU" version="opset1">
			<input>
				<port id="0">
					<dim>1</dim>
					<dim>64</dim>
					<dim>64</dim>
					<dim>32</dim>
				</port>
			</input>
			<output>
				<port id="1" precision="FP16">
					<dim>1</dim>
					<dim>64</dim>
					<dim>64</dim>
					<dim>32</dim>
				</port>
			</output>
		</layer>
		<layer id="250" name="conv2.1.conv2c.2.conv1.weight/Output_0/Data__const" type="Const" version="opset1">
			<data element_type="f16" offset="271144" shape="64,64,1,1" size="8192"/>
			<output>
				<port id="1" precision="FP16">
					<dim>64</dim>
					<dim>64</dim>
					<dim>1</dim>
					<dim>1</dim>
				</port>
			</output>
		</layer>
		<layer id="251" name="Conv_83" type="Convolution" version="opset1">
			<data dilations="1,1" output_padding="0,0" pads_begin="0,0" pads_end="0,0" strides="1,1"/>
			<input>
				<port id="0">
					<dim>1</dim>
					<dim>64</dim>
					<dim>64</dim>
					<dim>32</dim>
				</port>
				<port id="1">
					<dim>64</dim>
					<dim>64</dim>
					<dim>1</dim>
					<dim>1</dim>
				</port>
			</input>
			<output>
				<port id="2" precision="FP16">
					<dim>1</dim>
					<dim>64</dim>
					<dim>64</dim>
					<dim>32</dim>
				</port>
			</output>
		</layer>
		<layer id="252" name="2873828741_const" type="Const" version="opset1">
			<data element_type="f16" offset="279336" shape="64,1,1,3,3" size="1152"/>
			<output>
				<port id="1" precision="FP16">
					<dim>64</dim>
					<dim>1</dim>
					<dim>1</dim>
					<dim>3</dim>
					<dim>3</dim>
				</port>
			</output>
		</layer>
		<layer id="253" name="Conv_84/WithoutBiases" type="GroupConvolution" version="opset1">
			<data dilations="1,1" output_padding="0,0" pads_begin="1,1" pads_end="1,1" strides="1,1"/>
			<input>
				<port id="0">
					<dim>1</dim>
					<dim>64</dim>
					<dim>64</dim>
					<dim>32</dim>
				</port>
				<port id="1">
					<dim>64</dim>
					<dim>1</dim>
					<dim>1</dim>
					<dim>3</dim>
					<dim>3</dim>
				</port>
			</input>
			<output>
				<port id="2" precision="FP16">
					<dim>1</dim>
					<dim>64</dim>
					<dim>64</dim>
					<dim>32</dim>
				</port>
			</output>
		</layer>
		<layer id="254" name="Conv_84/Dims793712860/EltwiseUnsqueeze13298_const" type="Const" version="opset1">
			<data element_type="f16" offset="280488" shape="1,64,1,1" size="128"/>
			<output>
				<port id="1" precision="FP16">
					<dim>1</dim>
					<dim>64</dim>
					<dim>1</dim>
					<dim>1</dim>
				</port>
			</output>
		</layer>
		<layer id="255" name="Conv_84" type="Add" version="opset1">
			<input>
				<port id="0">
					<dim>1</dim>
					<dim>64</dim>
					<dim>64</dim>
					<dim>32</dim>
				</port>
				<port id="1">
					<dim>1</dim>
					<dim>64</dim>
					<dim>1</dim>
					<dim>1</dim>
				</port>
			</input>
			<output>
				<port id="2" precision="FP16">
					<dim>1</dim>
					<dim>64</dim>
					<dim>64</dim>
					<dim>32</dim>
				</port>
			</output>
		</layer>
		<layer id="256" name="Relu_85" type="ReLU" version="opset1">
			<input>
				<port id="0">
					<dim>1</dim>
					<dim>64</dim>
					<dim>64</dim>
					<dim>32</dim>
				</port>
			</input>
			<output>
				<port id="1" precision="FP16">
					<dim>1</dim>
					<dim>64</dim>
					<dim>64</dim>
					<dim>32</dim>
				</port>
			</output>
		</layer>
		<layer id="257" name="684/Output_0/Data__const" type="Const" version="opset1">
			<data element_type="i64" offset="36736" shape="" size="8"/>
			<output>
				<port id="1" precision="I64"/>
			</output>
		</layer>
		<layer id="258" name="GlobalAveragePool_111/input_rank/shape_of" type="ShapeOf" version="opset3">
			<data output_type="i64"/>
			<input>
				<port id="0">
					<dim>1</dim>
					<dim>64</dim>
					<dim>64</dim>
					<dim>32</dim>
				</port>
			</input>
			<output>
				<port id="1" precision="I64">
					<dim>4</dim>
				</port>
			</output>
		</layer>
		<layer id="259" name="GlobalAveragePool_111/input_rank/rank_of" type="ShapeOf" version="opset3">
			<data output_type="i64"/>
			<input>
				<port id="0">
					<dim>4</dim>
				</port>
			</input>
			<output>
				<port id="1" precision="I64">
					<dim>1</dim>
				</port>
			</output>
		</layer>
		<layer id="260" name="GlobalAveragePool_111/input_rank/0d_rank_of/value/Output_0/Data__const" type="Const" version="opset1">
			<data element_type="i64" offset="36744" shape="1" size="8"/>
			<output>
				<port id="1" precision="I64">
					<dim>1</dim>
				</port>
			</output>
		</layer>
		<layer id="261" name="GlobalAveragePool_111/input_rank" type="Squeeze" version="opset1">
			<input>
				<port id="0">
					<dim>1</dim>
				</port>
				<port id="1">
					<dim>1</dim>
				</port>
			</input>
			<output>
				<port id="2" precision="I64"/>
			</output>
		</layer>
		<layer id="262" name="686/Output_0/Data__const" type="Const" version="opset1">
			<data element_type="i64" offset="36752" shape="" size="8"/>
			<output>
				<port id="1" precision="I64"/>
			</output>
		</layer>
		<layer id="263" name="GlobalAveragePool_111/global_pooling_reduce_axis" type="Range" version="opset4">
			<data output_type="i64"/>
			<input>
				<port id="0"/>
				<port id="1"/>
				<port id="2"/>
			</input>
			<output>
				<port id="3" precision="I64">
					<dim>2</dim>
				</port>
			</output>
		</layer>
		<layer id="264" name="GlobalAveragePool_111/reduce" type="ReduceMean" version="opset1">
			<data keep_dims="True"/>
			<input>
				<port id="0">
					<dim>1</dim>
					<dim>64</dim>
					<dim>64</dim>
					<dim>32</dim>
				</port>
				<port id="1">
					<dim>2</dim>
				</port>
			</input>
			<output>
				<port id="2" precision="FP16">
					<dim>1</dim>
					<dim>64</dim>
					<dim>1</dim>
					<dim>1</dim>
				</port>
			</output>
		</layer>
		<layer id="265" name="Copy_conv2.1.gate.fc1.weight/Output_0/Data_2410_const" type="Const" version="opset1">
			<data element_type="f16" offset="232096" shape="4,64,1,1" size="512"/>
			<output>
				<port id="1" precision="FP16">
					<dim>4</dim>
					<dim>64</dim>
					<dim>1</dim>
					<dim>1</dim>
				</port>
			</output>
		</layer>
		<layer id="266" name="Conv_112/WithoutBiases" type="Convolution" version="opset1">
			<data dilations="1,1" output_padding="0,0" pads_begin="0,0" pads_end="0,0" strides="1,1"/>
			<input>
				<port id="0">
					<dim>1</dim>
					<dim>64</dim>
					<dim>1</dim>
					<dim>1</dim>
				</port>
				<port id="1">
					<dim>4</dim>
					<dim>64</dim>
					<dim>1</dim>
					<dim>1</dim>
				</port>
			</input>
			<output>
				<port id="2" precision="FP16">
					<dim>1</dim>
					<dim>4</dim>
					<dim>1</dim>
					<dim>1</dim>
				</port>
			</output>
		</layer>
		<layer id="267" name="Conv_112/Dims777512833/EltwiseUnsqueeze13190_const" type="Const" version="opset1">
			<data element_type="f16" offset="232608" shape="1,4,1,1" size="8"/>
			<output>
				<port id="1" precision="FP16">
					<dim>1</dim>
					<dim>4</dim>
					<dim>1</dim>
					<dim>1</dim>
				</port>
			</output>
		</layer>
		<layer id="268" name="Conv_112" type="Add" version="opset1">
			<input>
				<port id="0">
					<dim>1</dim>
					<dim>4</dim>
					<dim>1</dim>
					<dim>1</dim>
				</port>
				<port id="1">
					<dim>1</dim>
					<dim>4</dim>
					<dim>1</dim>
					<dim>1</dim>
				</port>
			</input>
			<output>
				<port id="2" precision="FP16">
					<dim>1</dim>
					<dim>4</dim>
					<dim>1</dim>
					<dim>1</dim>
				</port>
			</output>
		</layer>
		<layer id="269" name="Relu_113" type="ReLU" version="opset1">
			<input>
				<port id="0">
					<dim>1</dim>
					<dim>4</dim>
					<dim>1</dim>
					<dim>1</dim>
				</port>
			</input>
			<output>
				<port id="1" precision="FP16">
					<dim>1</dim>
					<dim>4</dim>
					<dim>1</dim>
					<dim>1</dim>
				</port>
			</output>
		</layer>
		<layer id="270" name="Copy_conv2.1.gate.fc2.weight/Output_0/Data_2418_const" type="Const" version="opset1">
			<data element_type="f16" offset="232616" shape="64,4,1,1" size="512"/>
			<output>
				<port id="1" precision="FP16">
					<dim>64</dim>
					<dim>4</dim>
					<dim>1</dim>
					<dim>1</dim>
				</port>
			</output>
		</layer>
		<layer id="271" name="Conv_114/WithoutBiases" type="Convolution" version="opset1">
			<data dilations="1,1" output_padding="0,0" pads_begin="0,0" pads_end="0,0" strides="1,1"/>
			<input>
				<port id="0">
					<dim>1</dim>
					<dim>4</dim>
					<dim>1</dim>
					<dim>1</dim>
				</port>
				<port id="1">
					<dim>64</dim>
					<dim>4</dim>
					<dim>1</dim>
					<dim>1</dim>
				</port>
			</input>
			<output>
				<port id="2" precision="FP16">
					<dim>1</dim>
					<dim>64</dim>
					<dim>1</dim>
					<dim>1</dim>
				</port>
			</output>
		</layer>
		<layer id="272" name="Conv_114/Dims800912872/EltwiseUnsqueeze13346_const" type="Const" version="opset1">
			<data element_type="f16" offset="233128" shape="1,64,1,1" size="128"/>
			<output>
				<port id="1" precision="FP16">
					<dim>1</dim>
					<dim>64</dim>
					<dim>1</dim>
					<dim>1</dim>
				</port>
			</output>
		</layer>
		<layer id="273" name="Conv_114" type="Add" version="opset1">
			<input>
				<port id="0">
					<dim>1</dim>
					<dim>64</dim>
					<dim>1</dim>
					<dim>1</dim>
				</port>
				<port id="1">
					<dim>1</dim>
					<dim>64</dim>
					<dim>1</dim>
					<dim>1</dim>
				</port>
			</input>
			<output>
				<port id="2" precision="FP16">
					<dim>1</dim>
					<dim>64</dim>
					<dim>1</dim>
					<dim>1</dim>
				</port>
			</output>
		</layer>
		<layer id="274" name="Sigmoid_115" type="Sigmoid" version="opset1">
			<input>
				<port id="0">
					<dim>1</dim>
					<dim>64</dim>
					<dim>1</dim>
					<dim>1</dim>
				</port>
			</input>
			<output>
				<port id="1" precision="FP16">
					<dim>1</dim>
					<dim>64</dim>
					<dim>1</dim>
					<dim>1</dim>
				</port>
			</output>
		</layer>
		<layer id="275" name="Mul_116" type="Multiply" version="opset1">
			<input>
				<port id="0">
					<dim>1</dim>
					<dim>64</dim>
					<dim>64</dim>
					<dim>32</dim>
				</port>
				<port id="1">
					<dim>1</dim>
					<dim>64</dim>
					<dim>1</dim>
					<dim>1</dim>
				</port>
			</input>
			<output>
				<port id="2" precision="FP16">
					<dim>1</dim>
					<dim>64</dim>
					<dim>64</dim>
					<dim>32</dim>
				</port>
			</output>
		</layer>
		<layer id="276" name="Add_117" type="Add" version="opset1">
			<input>
				<port id="0">
					<dim>1</dim>
					<dim>64</dim>
					<dim>64</dim>
					<dim>32</dim>
				</port>
				<port id="1">
					<dim>1</dim>
					<dim>64</dim>
					<dim>64</dim>
					<dim>32</dim>
				</port>
			</input>
			<output>
				<port id="2" precision="FP16">
					<dim>1</dim>
					<dim>64</dim>
					<dim>64</dim>
					<dim>32</dim>
				</port>
			</output>
		</layer>
		<layer id="277" name="conv2.1.conv2d.0.conv1.weight/Output_0/Data__const" type="Const" version="opset1">
			<data element_type="f16" offset="280616" shape="64,64,1,1" size="8192"/>
			<output>
				<port id="1" precision="FP16">
					<dim>64</dim>
					<dim>64</dim>
					<dim>1</dim>
					<dim>1</dim>
				</port>
			</output>
		</layer>
		<layer id="278" name="Conv_86" type="Convolution" version="opset1">
			<data dilations="1,1" output_padding="0,0" pads_begin="0,0" pads_end="0,0" strides="1,1"/>
			<input>
				<port id="0">
					<dim>1</dim>
					<dim>64</dim>
					<dim>64</dim>
					<dim>32</dim>
				</port>
				<port id="1">
					<dim>64</dim>
					<dim>64</dim>
					<dim>1</dim>
					<dim>1</dim>
				</port>
			</input>
			<output>
				<port id="2" precision="FP16">
					<dim>1</dim>
					<dim>64</dim>
					<dim>64</dim>
					<dim>32</dim>
				</port>
			</output>
		</layer>
		<layer id="279" name="2875428757_const" type="Const" version="opset1">
			<data element_type="f16" offset="288808" shape="64,1,1,3,3" size="1152"/>
			<output>
				<port id="1" precision="FP16">
					<dim>64</dim>
					<dim>1</dim>
					<dim>1</dim>
					<dim>3</dim>
					<dim>3</dim>
				</port>
			</output>
		</layer>
		<layer id="280" name="Conv_87/WithoutBiases" type="GroupConvolution" version="opset1">
			<data dilations="1,1" output_padding="0,0" pads_begin="1,1" pads_end="1,1" strides="1,1"/>
			<input>
				<port id="0">
					<dim>1</dim>
					<dim>64</dim>
					<dim>64</dim>
					<dim>32</dim>
				</port>
				<port id="1">
					<dim>64</dim>
					<dim>1</dim>
					<dim>1</dim>
					<dim>3</dim>
					<dim>3</dim>
				</port>
			</input>
			<output>
				<port id="2" precision="FP16">
					<dim>1</dim>
					<dim>64</dim>
					<dim>64</dim>
					<dim>32</dim>
				</port>
			</output>
		</layer>
		<layer id="281" name="Conv_87/Dims802112874/EltwiseUnsqueeze13354_const" type="Const" version="opset1">
			<data element_type="f16" offset="289960" shape="1,64,1,1" size="128"/>
			<output>
				<port id="1" precision="FP16">
					<dim>1</dim>
					<dim>64</dim>
					<dim>1</dim>
					<dim>1</dim>
				</port>
			</output>
		</layer>
		<layer id="282" name="Conv_87" type="Add" version="opset1">
			<input>
				<port id="0">
					<dim>1</dim>
					<dim>64</dim>
					<dim>64</dim>
					<dim>32</dim>
				</port>
				<port id="1">
					<dim>1</dim>
					<dim>64</dim>
					<dim>1</dim>
					<dim>1</dim>
				</port>
			</input>
			<output>
				<port id="2" precision="FP16">
					<dim>1</dim>
					<dim>64</dim>
					<dim>64</dim>
					<dim>32</dim>
				</port>
			</output>
		</layer>
		<layer id="283" name="Relu_88" type="ReLU" version="opset1">
			<input>
				<port id="0">
					<dim>1</dim>
					<dim>64</dim>
					<dim>64</dim>
					<dim>32</dim>
				</port>
			</input>
			<output>
				<port id="1" precision="FP16">
					<dim>1</dim>
					<dim>64</dim>
					<dim>64</dim>
					<dim>32</dim>
				</port>
			</output>
		</layer>
		<layer id="284" name="conv2.1.conv2d.1.conv1.weight/Output_0/Data__const" type="Const" version="opset1">
			<data element_type="f16" offset="290088" shape="64,64,1,1" size="8192"/>
			<output>
				<port id="1" precision="FP16">
					<dim>64</dim>
					<dim>64</dim>
					<dim>1</dim>
					<dim>1</dim>
				</port>
			</output>
		</layer>
		<layer id="285" name="Conv_89" type="Convolution" version="opset1">
			<data dilations="1,1" output_padding="0,0" pads_begin="0,0" pads_end="0,0" strides="1,1"/>
			<input>
				<port id="0">
					<dim>1</dim>
					<dim>64</dim>
					<dim>64</dim>
					<dim>32</dim>
				</port>
				<port id="1">
					<dim>64</dim>
					<dim>64</dim>
					<dim>1</dim>
					<dim>1</dim>
				</port>
			</input>
			<output>
				<port id="2" precision="FP16">
					<dim>1</dim>
					<dim>64</dim>
					<dim>64</dim>
					<dim>32</dim>
				</port>
			</output>
		</layer>
		<layer id="286" name="2855428557_const" type="Const" version="opset1">
			<data element_type="f16" offset="298280" shape="64,1,1,3,3" size="1152"/>
			<output>
				<port id="1" precision="FP16">
					<dim>64</dim>
					<dim>1</dim>
					<dim>1</dim>
					<dim>3</dim>
					<dim>3</dim>
				</port>
			</output>
		</layer>
		<layer id="287" name="Conv_90/WithoutBiases" type="GroupConvolution" version="opset1">
			<data dilations="1,1" output_padding="0,0" pads_begin="1,1" pads_end="1,1" strides="1,1"/>
			<input>
				<port id="0">
					<dim>1</dim>
					<dim>64</dim>
					<dim>64</dim>
					<dim>32</dim>
				</port>
				<port id="1">
					<dim>64</dim>
					<dim>1</dim>
					<dim>1</dim>
					<dim>3</dim>
					<dim>3</dim>
				</port>
			</input>
			<output>
				<port id="2" precision="FP16">
					<dim>1</dim>
					<dim>64</dim>
					<dim>64</dim>
					<dim>32</dim>
				</port>
			</output>
		</layer>
		<layer id="288" name="Conv_90/Dims737912767/EltwiseUnsqueeze12926_const" type="Const" version="opset1">
			<data element_type="f16" offset="299432" shape="1,64,1,1" size="128"/>
			<output>
				<port id="1" precision="FP16">
					<dim>1</dim>
					<dim>64</dim>
					<dim>1</dim>
					<dim>1</dim>
				</port>
			</output>
		</layer>
		<layer id="289" name="Conv_90" type="Add" version="opset1">
			<input>
				<port id="0">
					<dim>1</dim>
					<dim>64</dim>
					<dim>64</dim>
					<dim>32</dim>
				</port>
				<port id="1">
					<dim>1</dim>
					<dim>64</dim>
					<dim>1</dim>
					<dim>1</dim>
				</port>
			</input>
			<output>
				<port id="2" precision="FP16">
					<dim>1</dim>
					<dim>64</dim>
					<dim>64</dim>
					<dim>32</dim>
				</port>
			</output>
		</layer>
		<layer id="290" name="Relu_91" type="ReLU" version="opset1">
			<input>
				<port id="0">
					<dim>1</dim>
					<dim>64</dim>
					<dim>64</dim>
					<dim>32</dim>
				</port>
			</input>
			<output>
				<port id="1" precision="FP16">
					<dim>1</dim>
					<dim>64</dim>
					<dim>64</dim>
					<dim>32</dim>
				</port>
			</output>
		</layer>
		<layer id="291" name="conv2.1.conv2d.2.conv1.weight/Output_0/Data__const" type="Const" version="opset1">
			<data element_type="f16" offset="299560" shape="64,64,1,1" size="8192"/>
			<output>
				<port id="1" precision="FP16">
					<dim>64</dim>
					<dim>64</dim>
					<dim>1</dim>
					<dim>1</dim>
				</port>
			</output>
		</layer>
		<layer id="292" name="Conv_92" type="Convolution" version="opset1">
			<data dilations="1,1" output_padding="0,0" pads_begin="0,0" pads_end="0,0" strides="1,1"/>
			<input>
				<port id="0">
					<dim>1</dim>
					<dim>64</dim>
					<dim>64</dim>
					<dim>32</dim>
				</port>
				<port id="1">
					<dim>64</dim>
					<dim>64</dim>
					<dim>1</dim>
					<dim>1</dim>
				</port>
			</input>
			<output>
				<port id="2" precision="FP16">
					<dim>1</dim>
					<dim>64</dim>
					<dim>64</dim>
					<dim>32</dim>
				</port>
			</output>
		</layer>
		<layer id="293" name="2867428677_const" type="Const" version="opset1">
			<data element_type="f16" offset="307752" shape="64,1,1,3,3" size="1152"/>
			<output>
				<port id="1" precision="FP16">
					<dim>64</dim>
					<dim>1</dim>
					<dim>1</dim>
					<dim>3</dim>
					<dim>3</dim>
				</port>
			</output>
		</layer>
		<layer id="294" name="Conv_93/WithoutBiases" type="GroupConvolution" version="opset1">
			<data dilations="1,1" output_padding="0,0" pads_begin="1,1" pads_end="1,1" strides="1,1"/>
			<input>
				<port id="0">
					<dim>1</dim>
					<dim>64</dim>
					<dim>64</dim>
					<dim>32</dim>
				</port>
				<port id="1">
					<dim>64</dim>
					<dim>1</dim>
					<dim>1</dim>
					<dim>3</dim>
					<dim>3</dim>
				</port>
			</input>
			<output>
				<port id="2" precision="FP16">
					<dim>1</dim>
					<dim>64</dim>
					<dim>64</dim>
					<dim>32</dim>
				</port>
			</output>
		</layer>
		<layer id="295" name="Conv_93/Dims773312826/EltwiseUnsqueeze13162_const" type="Const" version="opset1">
			<data element_type="f16" offset="308904" shape="1,64,1,1" size="128"/>
			<output>
				<port id="1" precision="FP16">
					<dim>1</dim>
					<dim>64</dim>
					<dim>1</dim>
					<dim>1</dim>
				</port>
			</output>
		</layer>
		<layer id="296" name="Conv_93" type="Add" version="opset1">
			<input>
				<port id="0">
					<dim>1</dim>
					<dim>64</dim>
					<dim>64</dim>
					<dim>32</dim>
				</port>
				<port id="1">
					<dim>1</dim>
					<dim>64</dim>
					<dim>1</dim>
					<dim>1</dim>
				</port>
			</input>
			<output>
				<port id="2" precision="FP16">
					<dim>1</dim>
					<dim>64</dim>
					<dim>64</dim>
					<dim>32</dim>
				</port>
			</output>
		</layer>
		<layer id="297" name="Relu_94" type="ReLU" version="opset1">
			<input>
				<port id="0">
					<dim>1</dim>
					<dim>64</dim>
					<dim>64</dim>
					<dim>32</dim>
				</port>
			</input>
			<output>
				<port id="1" precision="FP16">
					<dim>1</dim>
					<dim>64</dim>
					<dim>64</dim>
					<dim>32</dim>
				</port>
			</output>
		</layer>
		<layer id="298" name="conv2.1.conv2d.3.conv1.weight/Output_0/Data__const" type="Const" version="opset1">
			<data element_type="f16" offset="309032" shape="64,64,1,1" size="8192"/>
			<output>
				<port id="1" precision="FP16">
					<dim>64</dim>
					<dim>64</dim>
					<dim>1</dim>
					<dim>1</dim>
				</port>
			</output>
		</layer>
		<layer id="299" name="Conv_95" type="Convolution" version="opset1">
			<data dilations="1,1" output_padding="0,0" pads_begin="0,0" pads_end="0,0" strides="1,1"/>
			<input>
				<port id="0">
					<dim>1</dim>
					<dim>64</dim>
					<dim>64</dim>
					<dim>32</dim>
				</port>
				<port id="1">
					<dim>64</dim>
					<dim>64</dim>
					<dim>1</dim>
					<dim>1</dim>
				</port>
			</input>
			<output>
				<port id="2" precision="FP16">
					<dim>1</dim>
					<dim>64</dim>
					<dim>64</dim>
					<dim>32</dim>
				</port>
			</output>
		</layer>
		<layer id="300" name="2868628689_const" type="Const" version="opset1">
			<data element_type="f16" offset="317224" shape="64,1,1,3,3" size="1152"/>
			<output>
				<port id="1" precision="FP16">
					<dim>64</dim>
					<dim>1</dim>
					<dim>1</dim>
					<dim>3</dim>
					<dim>3</dim>
				</port>
			</output>
		</layer>
		<layer id="301" name="Conv_96/WithoutBiases" type="GroupConvolution" version="opset1">
			<data dilations="1,1" output_padding="0,0" pads_begin="1,1" pads_end="1,1" strides="1,1"/>
			<input>
				<port id="0">
					<dim>1</dim>
					<dim>64</dim>
					<dim>64</dim>
					<dim>32</dim>
				</port>
				<port id="1">
					<dim>64</dim>
					<dim>1</dim>
					<dim>1</dim>
					<dim>3</dim>
					<dim>3</dim>
				</port>
			</input>
			<output>
				<port id="2" precision="FP16">
					<dim>1</dim>
					<dim>64</dim>
					<dim>64</dim>
					<dim>32</dim>
				</port>
			</output>
		</layer>
		<layer id="302" name="Conv_96/Dims775112829/EltwiseUnsqueeze13174_const" type="Const" version="opset1">
			<data element_type="f16" offset="318376" shape="1,64,1,1" size="128"/>
			<output>
				<port id="1" precision="FP16">
					<dim>1</dim>
					<dim>64</dim>
					<dim>1</dim>
					<dim>1</dim>
				</port>
			</output>
		</layer>
		<layer id="303" name="Conv_96" type="Add" version="opset1">
			<input>
				<port id="0">
					<dim>1</dim>
					<dim>64</dim>
					<dim>64</dim>
					<dim>32</dim>
				</port>
				<port id="1">
					<dim>1</dim>
					<dim>64</dim>
					<dim>1</dim>
					<dim>1</dim>
				</port>
			</input>
			<output>
				<port id="2" precision="FP16">
					<dim>1</dim>
					<dim>64</dim>
					<dim>64</dim>
					<dim>32</dim>
				</port>
			</output>
		</layer>
		<layer id="304" name="Relu_97" type="ReLU" version="opset1">
			<input>
				<port id="0">
					<dim>1</dim>
					<dim>64</dim>
					<dim>64</dim>
					<dim>32</dim>
				</port>
			</input>
			<output>
				<port id="1" precision="FP16">
					<dim>1</dim>
					<dim>64</dim>
					<dim>64</dim>
					<dim>32</dim>
				</port>
			</output>
		</layer>
		<layer id="305" name="689/Output_0/Data__const" type="Const" version="opset1">
			<data element_type="i64" offset="36736" shape="" size="8"/>
			<output>
				<port id="1" precision="I64"/>
			</output>
		</layer>
		<layer id="306" name="GlobalAveragePool_118/input_rank/shape_of" type="ShapeOf" version="opset3">
			<data output_type="i64"/>
			<input>
				<port id="0">
					<dim>1</dim>
					<dim>64</dim>
					<dim>64</dim>
					<dim>32</dim>
				</port>
			</input>
			<output>
				<port id="1" precision="I64">
					<dim>4</dim>
				</port>
			</output>
		</layer>
		<layer id="307" name="GlobalAveragePool_118/input_rank/rank_of" type="ShapeOf" version="opset3">
			<data output_type="i64"/>
			<input>
				<port id="0">
					<dim>4</dim>
				</port>
			</input>
			<output>
				<port id="1" precision="I64">
					<dim>1</dim>
				</port>
			</output>
		</layer>
		<layer id="308" name="GlobalAveragePool_118/input_rank/0d_rank_of/value/Output_0/Data__const" type="Const" version="opset1">
			<data element_type="i64" offset="36744" shape="1" size="8"/>
			<output>
				<port id="1" precision="I64">
					<dim>1</dim>
				</port>
			</output>
		</layer>
		<layer id="309" name="GlobalAveragePool_118/input_rank" type="Squeeze" version="opset1">
			<input>
				<port id="0">
					<dim>1</dim>
				</port>
				<port id="1">
					<dim>1</dim>
				</port>
			</input>
			<output>
				<port id="2" precision="I64"/>
			</output>
		</layer>
		<layer id="310" name="691/Output_0/Data__const" type="Const" version="opset1">
			<data element_type="i64" offset="36752" shape="" size="8"/>
			<output>
				<port id="1" precision="I64"/>
			</output>
		</layer>
		<layer id="311" name="GlobalAveragePool_118/global_pooling_reduce_axis" type="Range" version="opset4">
			<data output_type="i64"/>
			<input>
				<port id="0"/>
				<port id="1"/>
				<port id="2"/>
			</input>
			<output>
				<port id="3" precision="I64">
					<dim>2</dim>
				</port>
			</output>
		</layer>
		<layer id="312" name="GlobalAveragePool_118/reduce" type="ReduceMean" version="opset1">
			<data keep_dims="True"/>
			<input>
				<port id="0">
					<dim>1</dim>
					<dim>64</dim>
					<dim>64</dim>
					<dim>32</dim>
				</port>
				<port id="1">
					<dim>2</dim>
				</port>
			</input>
			<output>
				<port id="2" precision="FP16">
					<dim>1</dim>
					<dim>64</dim>
					<dim>1</dim>
					<dim>1</dim>
				</port>
			</output>
		</layer>
		<layer id="313" name="Copy_conv2.1.gate.fc1.weight/Output_0/Data_2411_const" type="Const" version="opset1">
			<data element_type="f16" offset="232096" shape="4,64,1,1" size="512"/>
			<output>
				<port id="1" precision="FP16">
					<dim>4</dim>
					<dim>64</dim>
					<dim>1</dim>
					<dim>1</dim>
				</port>
			</output>
		</layer>
		<layer id="314" name="Conv_119/WithoutBiases" type="Convolution" version="opset1">
			<data dilations="1,1" output_padding="0,0" pads_begin="0,0" pads_end="0,0" strides="1,1"/>
			<input>
				<port id="0">
					<dim>1</dim>
					<dim>64</dim>
					<dim>1</dim>
					<dim>1</dim>
				</port>
				<port id="1">
					<dim>4</dim>
					<dim>64</dim>
					<dim>1</dim>
					<dim>1</dim>
				</port>
			</input>
			<output>
				<port id="2" precision="FP16">
					<dim>1</dim>
					<dim>4</dim>
					<dim>1</dim>
					<dim>1</dim>
				</port>
			</output>
		</layer>
		<layer id="315" name="Conv_119/Dims795512863/EltwiseUnsqueeze13310_const" type="Const" version="opset1">
			<data element_type="f16" offset="232608" shape="1,4,1,1" size="8"/>
			<output>
				<port id="1" precision="FP16">
					<dim>1</dim>
					<dim>4</dim>
					<dim>1</dim>
					<dim>1</dim>
				</port>
			</output>
		</layer>
		<layer id="316" name="Conv_119" type="Add" version="opset1">
			<input>
				<port id="0">
					<dim>1</dim>
					<dim>4</dim>
					<dim>1</dim>
					<dim>1</dim>
				</port>
				<port id="1">
					<dim>1</dim>
					<dim>4</dim>
					<dim>1</dim>
					<dim>1</dim>
				</port>
			</input>
			<output>
				<port id="2" precision="FP16">
					<dim>1</dim>
					<dim>4</dim>
					<dim>1</dim>
					<dim>1</dim>
				</port>
			</output>
		</layer>
		<layer id="317" name="Relu_120" type="ReLU" version="opset1">
			<input>
				<port id="0">
					<dim>1</dim>
					<dim>4</dim>
					<dim>1</dim>
					<dim>1</dim>
				</port>
			</input>
			<output>
				<port id="1" precision="FP16">
					<dim>1</dim>
					<dim>4</dim>
					<dim>1</dim>
					<dim>1</dim>
				</port>
			</output>
		</layer>
		<layer id="318" name="Copy_conv2.1.gate.fc2.weight/Output_0/Data_2419_const" type="Const" version="opset1">
			<data element_type="f16" offset="232616" shape="64,4,1,1" size="512"/>
			<output>
				<port id="1" precision="FP16">
					<dim>64</dim>
					<dim>4</dim>
					<dim>1</dim>
					<dim>1</dim>
				</port>
			</output>
		</layer>
		<layer id="319" name="Conv_121/WithoutBiases" type="Convolution" version="opset1">
			<data dilations="1,1" output_padding="0,0" pads_begin="0,0" pads_end="0,0" strides="1,1"/>
			<input>
				<port id="0">
					<dim>1</dim>
					<dim>4</dim>
					<dim>1</dim>
					<dim>1</dim>
				</port>
				<port id="1">
					<dim>64</dim>
					<dim>4</dim>
					<dim>1</dim>
					<dim>1</dim>
				</port>
			</input>
			<output>
				<port id="2" precision="FP16">
					<dim>1</dim>
					<dim>64</dim>
					<dim>1</dim>
					<dim>1</dim>
				</port>
			</output>
		</layer>
		<layer id="320" name="Conv_121/Dims755912797/EltwiseUnsqueeze13046_const" type="Const" version="opset1">
			<data element_type="f16" offset="233128" shape="1,64,1,1" size="128"/>
			<output>
				<port id="1" precision="FP16">
					<dim>1</dim>
					<dim>64</dim>
					<dim>1</dim>
					<dim>1</dim>
				</port>
			</output>
		</layer>
		<layer id="321" name="Conv_121" type="Add" version="opset1">
			<input>
				<port id="0">
					<dim>1</dim>
					<dim>64</dim>
					<dim>1</dim>
					<dim>1</dim>
				</port>
				<port id="1">
					<dim>1</dim>
					<dim>64</dim>
					<dim>1</dim>
					<dim>1</dim>
				</port>
			</input>
			<output>
				<port id="2" precision="FP16">
					<dim>1</dim>
					<dim>64</dim>
					<dim>1</dim>
					<dim>1</dim>
				</port>
			</output>
		</layer>
		<layer id="322" name="Sigmoid_122" type="Sigmoid" version="opset1">
			<input>
				<port id="0">
					<dim>1</dim>
					<dim>64</dim>
					<dim>1</dim>
					<dim>1</dim>
				</port>
			</input>
			<output>
				<port id="1" precision="FP16">
					<dim>1</dim>
					<dim>64</dim>
					<dim>1</dim>
					<dim>1</dim>
				</port>
			</output>
		</layer>
		<layer id="323" name="Mul_123" type="Multiply" version="opset1">
			<input>
				<port id="0">
					<dim>1</dim>
					<dim>64</dim>
					<dim>64</dim>
					<dim>32</dim>
				</port>
				<port id="1">
					<dim>1</dim>
					<dim>64</dim>
					<dim>1</dim>
					<dim>1</dim>
				</port>
			</input>
			<output>
				<port id="2" precision="FP16">
					<dim>1</dim>
					<dim>64</dim>
					<dim>64</dim>
					<dim>32</dim>
				</port>
			</output>
		</layer>
		<layer id="324" name="Add_124" type="Add" version="opset1">
			<input>
				<port id="0">
					<dim>1</dim>
					<dim>64</dim>
					<dim>64</dim>
					<dim>32</dim>
				</port>
				<port id="1">
					<dim>1</dim>
					<dim>64</dim>
					<dim>64</dim>
					<dim>32</dim>
				</port>
			</input>
			<output>
				<port id="2" precision="FP16">
					<dim>1</dim>
					<dim>64</dim>
					<dim>64</dim>
					<dim>32</dim>
				</port>
			</output>
		</layer>
		<layer id="325" name="1123/Output_0/Data__const" type="Const" version="opset1">
			<data element_type="f16" offset="318504" shape="256,64,1,1" size="32768"/>
			<output>
				<port id="1" precision="FP16">
					<dim>256</dim>
					<dim>64</dim>
					<dim>1</dim>
					<dim>1</dim>
				</port>
			</output>
		</layer>
		<layer id="326" name="Conv_125/WithoutBiases" type="Convolution" version="opset1">
			<data dilations="1,1" output_padding="0,0" pads_begin="0,0" pads_end="0,0" strides="1,1"/>
			<input>
				<port id="0">
					<dim>1</dim>
					<dim>64</dim>
					<dim>64</dim>
					<dim>32</dim>
				</port>
				<port id="1">
					<dim>256</dim>
					<dim>64</dim>
					<dim>1</dim>
					<dim>1</dim>
				</port>
			</input>
			<output>
				<port id="2" precision="FP16">
					<dim>1</dim>
					<dim>256</dim>
					<dim>64</dim>
					<dim>32</dim>
				</port>
			</output>
		</layer>
		<layer id="327" name="Conv_125/Dims779912837/EltwiseUnsqueeze13206_const" type="Const" version="opset1">
			<data element_type="f16" offset="351272" shape="1,256,1,1" size="512"/>
			<output>
				<port id="1" precision="FP16">
					<dim>1</dim>
					<dim>256</dim>
					<dim>1</dim>
					<dim>1</dim>
				</port>
			</output>
		</layer>
		<layer id="328" name="Conv_125" type="Add" version="opset1">
			<input>
				<port id="0">
					<dim>1</dim>
					<dim>256</dim>
					<dim>64</dim>
					<dim>32</dim>
				</port>
				<port id="1">
					<dim>1</dim>
					<dim>256</dim>
					<dim>1</dim>
					<dim>1</dim>
				</port>
			</input>
			<output>
				<port id="2" precision="FP16">
					<dim>1</dim>
					<dim>256</dim>
					<dim>64</dim>
					<dim>32</dim>
				</port>
			</output>
		</layer>
		<layer id="329" name="Add_126" type="Add" version="opset1">
			<input>
				<port id="0">
					<dim>1</dim>
					<dim>256</dim>
					<dim>64</dim>
					<dim>32</dim>
				</port>
				<port id="1">
					<dim>1</dim>
					<dim>256</dim>
					<dim>64</dim>
					<dim>32</dim>
				</port>
			</input>
			<output>
				<port id="2" precision="FP16">
					<dim>1</dim>
					<dim>256</dim>
					<dim>64</dim>
					<dim>32</dim>
				</port>
			</output>
		</layer>
		<layer id="330" name="Relu_127" type="ReLU" version="opset1">
			<input>
				<port id="0">
					<dim>1</dim>
					<dim>256</dim>
					<dim>64</dim>
					<dim>32</dim>
				</port>
			</input>
			<output>
				<port id="1" precision="FP16">
					<dim>1</dim>
					<dim>256</dim>
					<dim>64</dim>
					<dim>32</dim>
				</port>
			</output>
		</layer>
		<layer id="331" name="1126/Output_0/Data__const" type="Const" version="opset1">
			<data element_type="f16" offset="351784" shape="256,256,1,1" size="131072"/>
			<output>
				<port id="1" precision="FP16">
					<dim>256</dim>
					<dim>256</dim>
					<dim>1</dim>
					<dim>1</dim>
				</port>
			</output>
		</layer>
		<layer id="332" name="Conv_128/WithoutBiases" type="Convolution" version="opset1">
			<data dilations="1,1" output_padding="0,0" pads_begin="0,0" pads_end="0,0" strides="1,1"/>
			<input>
				<port id="0">
					<dim>1</dim>
					<dim>256</dim>
					<dim>64</dim>
					<dim>32</dim>
				</port>
				<port id="1">
					<dim>256</dim>
					<dim>256</dim>
					<dim>1</dim>
					<dim>1</dim>
				</port>
			</input>
			<output>
				<port id="2" precision="FP16">
					<dim>1</dim>
					<dim>256</dim>
					<dim>64</dim>
					<dim>32</dim>
				</port>
			</output>
		</layer>
		<layer id="333" name="Conv_128/Dims742712775/EltwiseUnsqueeze12958_const" type="Const" version="opset1">
			<data element_type="f16" offset="482856" shape="1,256,1,1" size="512"/>
			<output>
				<port id="1" precision="FP16">
					<dim>1</dim>
					<dim>256</dim>
					<dim>1</dim>
					<dim>1</dim>
				</port>
			</output>
		</layer>
		<layer id="334" name="Conv_128" type="Add" version="opset1">
			<input>
				<port id="0">
					<dim>1</dim>
					<dim>256</dim>
					<dim>64</dim>
					<dim>32</dim>
				</port>
				<port id="1">
					<dim>1</dim>
					<dim>256</dim>
					<dim>1</dim>
					<dim>1</dim>
				</port>
			</input>
			<output>
				<port id="2" precision="FP16">
					<dim>1</dim>
					<dim>256</dim>
					<dim>64</dim>
					<dim>32</dim>
				</port>
			</output>
		</layer>
		<layer id="335" name="Relu_129" type="ReLU" version="opset1">
			<input>
				<port id="0">
					<dim>1</dim>
					<dim>256</dim>
					<dim>64</dim>
					<dim>32</dim>
				</port>
			</input>
			<output>
				<port id="1" precision="FP16">
					<dim>1</dim>
					<dim>256</dim>
					<dim>64</dim>
					<dim>32</dim>
				</port>
			</output>
		</layer>
		<layer id="336" name="AveragePool_131" type="AvgPool" version="opset1">
			<data exclude-pad="true" kernel="2,2" pads_begin="0,0" pads_end="0,0" rounding_type="floor" strides="2,2"/>
			<input>
				<port id="0">
					<dim>1</dim>
					<dim>256</dim>
					<dim>64</dim>
					<dim>32</dim>
				</port>
			</input>
			<output>
				<port id="1" precision="FP16">
					<dim>1</dim>
					<dim>256</dim>
					<dim>32</dim>
					<dim>16</dim>
				</port>
			</output>
		</layer>
		<layer id="337" name="1129/Output_0/Data__const" type="Const" version="opset1">
			<data element_type="f16" offset="483368" shape="96,256,1,1" size="49152"/>
			<output>
				<port id="1" precision="FP16">
					<dim>96</dim>
					<dim>256</dim>
					<dim>1</dim>
					<dim>1</dim>
				</port>
			</output>
		</layer>
		<layer id="338" name="Conv_132/WithoutBiases" type="Convolution" version="opset1">
			<data dilations="1,1" output_padding="0,0" pads_begin="0,0" pads_end="0,0" strides="1,1"/>
			<input>
				<port id="0">
					<dim>1</dim>
					<dim>256</dim>
					<dim>32</dim>
					<dim>16</dim>
				</port>
				<port id="1">
					<dim>96</dim>
					<dim>256</dim>
					<dim>1</dim>
					<dim>1</dim>
				</port>
			</input>
			<output>
				<port id="2" precision="FP16">
					<dim>1</dim>
					<dim>96</dim>
					<dim>32</dim>
					<dim>16</dim>
				</port>
			</output>
		</layer>
		<layer id="339" name="Conv_132/Dims732512758/EltwiseUnsqueeze12890_const" type="Const" version="opset1">
			<data element_type="f16" offset="532520" shape="1,96,1,1" size="192"/>
			<output>
				<port id="1" precision="FP16">
					<dim>1</dim>
					<dim>96</dim>
					<dim>1</dim>
					<dim>1</dim>
				</port>
			</output>
		</layer>
		<layer id="340" name="Conv_132" type="Add" version="opset1">
			<input>
				<port id="0">
					<dim>1</dim>
					<dim>96</dim>
					<dim>32</dim>
					<dim>16</dim>
				</port>
				<port id="1">
					<dim>1</dim>
					<dim>96</dim>
					<dim>1</dim>
					<dim>1</dim>
				</port>
			</input>
			<output>
				<port id="2" precision="FP16">
					<dim>1</dim>
					<dim>96</dim>
					<dim>32</dim>
					<dim>16</dim>
				</port>
			</output>
		</layer>
		<layer id="341" name="Relu_133" type="ReLU" version="opset1">
			<input>
				<port id="0">
					<dim>1</dim>
					<dim>96</dim>
					<dim>32</dim>
					<dim>16</dim>
				</port>
			</input>
			<output>
				<port id="1" precision="FP16">
					<dim>1</dim>
					<dim>96</dim>
					<dim>32</dim>
					<dim>16</dim>
				</port>
			</output>
		</layer>
		<layer id="342" name="conv3.0.conv2a.conv1.weight/Output_0/Data__const" type="Const" version="opset1">
			<data element_type="f16" offset="532712" shape="96,96,1,1" size="18432"/>
			<output>
				<port id="1" precision="FP16">
					<dim>96</dim>
					<dim>96</dim>
					<dim>1</dim>
					<dim>1</dim>
				</port>
			</output>
		</layer>
		<layer id="343" name="Conv_134" type="Convolution" version="opset1">
			<data dilations="1,1" output_padding="0,0" pads_begin="0,0" pads_end="0,0" strides="1,1"/>
			<input>
				<port id="0">
					<dim>1</dim>
					<dim>96</dim>
					<dim>32</dim>
					<dim>16</dim>
				</port>
				<port id="1">
					<dim>96</dim>
					<dim>96</dim>
					<dim>1</dim>
					<dim>1</dim>
				</port>
			</input>
			<output>
				<port id="2" precision="FP16">
					<dim>1</dim>
					<dim>96</dim>
					<dim>32</dim>
					<dim>16</dim>
				</port>
			</output>
		</layer>
		<layer id="344" name="2861428617_const" type="Const" version="opset1">
			<data element_type="f16" offset="551144" shape="96,1,1,3,3" size="1728"/>
			<output>
				<port id="1" precision="FP16">
					<dim>96</dim>
					<dim>1</dim>
					<dim>1</dim>
					<dim>3</dim>
					<dim>3</dim>
				</port>
			</output>
		</layer>
		<layer id="345" name="Conv_135/WithoutBiases" type="GroupConvolution" version="opset1">
			<data dilations="1,1" output_padding="0,0" pads_begin="1,1" pads_end="1,1" strides="1,1"/>
			<input>
				<port id="0">
					<dim>1</dim>
					<dim>96</dim>
					<dim>32</dim>
					<dim>16</dim>
				</port>
				<port id="1">
					<dim>96</dim>
					<dim>1</dim>
					<dim>1</dim>
					<dim>3</dim>
					<dim>3</dim>
				</port>
			</input>
			<output>
				<port id="2" precision="FP16">
					<dim>1</dim>
					<dim>96</dim>
					<dim>32</dim>
					<dim>16</dim>
				</port>
			</output>
		</layer>
		<layer id="346" name="Conv_135/Dims754112794/EltwiseUnsqueeze13034_const" type="Const" version="opset1">
			<data element_type="f16" offset="552872" shape="1,96,1,1" size="192"/>
			<output>
				<port id="1" precision="FP16">
					<dim>1</dim>
					<dim>96</dim>
					<dim>1</dim>
					<dim>1</dim>
				</port>
			</output>
		</layer>
		<layer id="347" name="Conv_135" type="Add" version="opset1">
			<input>
				<port id="0">
					<dim>1</dim>
					<dim>96</dim>
					<dim>32</dim>
					<dim>16</dim>
				</port>
				<port id="1">
					<dim>1</dim>
					<dim>96</dim>
					<dim>1</dim>
					<dim>1</dim>
				</port>
			</input>
			<output>
				<port id="2" precision="FP16">
					<dim>1</dim>
					<dim>96</dim>
					<dim>32</dim>
					<dim>16</dim>
				</port>
			</output>
		</layer>
		<layer id="348" name="Relu_136" type="ReLU" version="opset1">
			<input>
				<port id="0">
					<dim>1</dim>
					<dim>96</dim>
					<dim>32</dim>
					<dim>16</dim>
				</port>
			</input>
			<output>
				<port id="1" precision="FP16">
					<dim>1</dim>
					<dim>96</dim>
					<dim>32</dim>
					<dim>16</dim>
				</port>
			</output>
		</layer>
		<layer id="349" name="694/Output_0/Data__const" type="Const" version="opset1">
			<data element_type="i64" offset="36736" shape="" size="8"/>
			<output>
				<port id="1" precision="I64"/>
			</output>
		</layer>
		<layer id="350" name="GlobalAveragePool_164/input_rank/shape_of" type="ShapeOf" version="opset3">
			<data output_type="i64"/>
			<input>
				<port id="0">
					<dim>1</dim>
					<dim>96</dim>
					<dim>32</dim>
					<dim>16</dim>
				</port>
			</input>
			<output>
				<port id="1" precision="I64">
					<dim>4</dim>
				</port>
			</output>
		</layer>
		<layer id="351" name="GlobalAveragePool_164/input_rank/rank_of" type="ShapeOf" version="opset3">
			<data output_type="i64"/>
			<input>
				<port id="0">
					<dim>4</dim>
				</port>
			</input>
			<output>
				<port id="1" precision="I64">
					<dim>1</dim>
				</port>
			</output>
		</layer>
		<layer id="352" name="GlobalAveragePool_164/input_rank/0d_rank_of/value/Output_0/Data__const" type="Const" version="opset1">
			<data element_type="i64" offset="36744" shape="1" size="8"/>
			<output>
				<port id="1" precision="I64">
					<dim>1</dim>
				</port>
			</output>
		</layer>
		<layer id="353" name="GlobalAveragePool_164/input_rank" type="Squeeze" version="opset1">
			<input>
				<port id="0">
					<dim>1</dim>
				</port>
				<port id="1">
					<dim>1</dim>
				</port>
			</input>
			<output>
				<port id="2" precision="I64"/>
			</output>
		</layer>
		<layer id="354" name="696/Output_0/Data__const" type="Const" version="opset1">
			<data element_type="i64" offset="36752" shape="" size="8"/>
			<output>
				<port id="1" precision="I64"/>
			</output>
		</layer>
		<layer id="355" name="GlobalAveragePool_164/global_pooling_reduce_axis" type="Range" version="opset4">
			<data output_type="i64"/>
			<input>
				<port id="0"/>
				<port id="1"/>
				<port id="2"/>
			</input>
			<output>
				<port id="3" precision="I64">
					<dim>2</dim>
				</port>
			</output>
		</layer>
		<layer id="356" name="GlobalAveragePool_164/reduce" type="ReduceMean" version="opset1">
			<data keep_dims="True"/>
			<input>
				<port id="0">
					<dim>1</dim>
					<dim>96</dim>
					<dim>32</dim>
					<dim>16</dim>
				</port>
				<port id="1">
					<dim>2</dim>
				</port>
			</input>
			<output>
				<port id="2" precision="FP16">
					<dim>1</dim>
					<dim>96</dim>
					<dim>1</dim>
					<dim>1</dim>
				</port>
			</output>
		</layer>
		<layer id="357" name="Copy_conv3.0.gate.fc1.weight/Output_0/Data__const" type="Const" version="opset1">
			<data element_type="f16" offset="553064" shape="6,96,1,1" size="1152"/>
			<output>
				<port id="1" precision="FP16">
					<dim>6</dim>
					<dim>96</dim>
					<dim>1</dim>
					<dim>1</dim>
				</port>
			</output>
		</layer>
		<layer id="358" name="Conv_165/WithoutBiases" type="Convolution" version="opset1">
			<data dilations="1,1" output_padding="0,0" pads_begin="0,0" pads_end="0,0" strides="1,1"/>
			<input>
				<port id="0">
					<dim>1</dim>
					<dim>96</dim>
					<dim>1</dim>
					<dim>1</dim>
				</port>
				<port id="1">
					<dim>6</dim>
					<dim>96</dim>
					<dim>1</dim>
					<dim>1</dim>
				</port>
			</input>
			<output>
				<port id="2" precision="FP16">
					<dim>1</dim>
					<dim>6</dim>
					<dim>1</dim>
					<dim>1</dim>
				</port>
			</output>
		</layer>
		<layer id="359" name="Conv_165/Dims791312856/EltwiseUnsqueeze13282_const" type="Const" version="opset1">
			<data element_type="f16" offset="554216" shape="1,6,1,1" size="12"/>
			<output>
				<port id="1" precision="FP16">
					<dim>1</dim>
					<dim>6</dim>
					<dim>1</dim>
					<dim>1</dim>
				</port>
			</output>
		</layer>
		<layer id="360" name="Conv_165" type="Add" version="opset1">
			<input>
				<port id="0">
					<dim>1</dim>
					<dim>6</dim>
					<dim>1</dim>
					<dim>1</dim>
				</port>
				<port id="1">
					<dim>1</dim>
					<dim>6</dim>
					<dim>1</dim>
					<dim>1</dim>
				</port>
			</input>
			<output>
				<port id="2" precision="FP16">
					<dim>1</dim>
					<dim>6</dim>
					<dim>1</dim>
					<dim>1</dim>
				</port>
			</output>
		</layer>
		<layer id="361" name="Relu_166" type="ReLU" version="opset1">
			<input>
				<port id="0">
					<dim>1</dim>
					<dim>6</dim>
					<dim>1</dim>
					<dim>1</dim>
				</port>
			</input>
			<output>
				<port id="1" precision="FP16">
					<dim>1</dim>
					<dim>6</dim>
					<dim>1</dim>
					<dim>1</dim>
				</port>
			</output>
		</layer>
		<layer id="362" name="Copy_conv3.0.gate.fc2.weight/Output_0/Data__const" type="Const" version="opset1">
			<data element_type="f16" offset="554228" shape="96,6,1,1" size="1152"/>
			<output>
				<port id="1" precision="FP16">
					<dim>96</dim>
					<dim>6</dim>
					<dim>1</dim>
					<dim>1</dim>
				</port>
			</output>
		</layer>
		<layer id="363" name="Conv_167/WithoutBiases" type="Convolution" version="opset1">
			<data dilations="1,1" output_padding="0,0" pads_begin="0,0" pads_end="0,0" strides="1,1"/>
			<input>
				<port id="0">
					<dim>1</dim>
					<dim>6</dim>
					<dim>1</dim>
					<dim>1</dim>
				</port>
				<port id="1">
					<dim>96</dim>
					<dim>6</dim>
					<dim>1</dim>
					<dim>1</dim>
				</port>
			</input>
			<output>
				<port id="2" precision="FP16">
					<dim>1</dim>
					<dim>96</dim>
					<dim>1</dim>
					<dim>1</dim>
				</port>
			</output>
		</layer>
		<layer id="364" name="Conv_167/Dims804512878/EltwiseUnsqueeze13370_const" type="Const" version="opset1">
			<data element_type="f16" offset="555380" shape="1,96,1,1" size="192"/>
			<output>
				<port id="1" precision="FP16">
					<dim>1</dim>
					<dim>96</dim>
					<dim>1</dim>
					<dim>1</dim>
				</port>
			</output>
		</layer>
		<layer id="365" name="Conv_167" type="Add" version="opset1">
			<input>
				<port id="0">
					<dim>1</dim>
					<dim>96</dim>
					<dim>1</dim>
					<dim>1</dim>
				</port>
				<port id="1">
					<dim>1</dim>
					<dim>96</dim>
					<dim>1</dim>
					<dim>1</dim>
				</port>
			</input>
			<output>
				<port id="2" precision="FP16">
					<dim>1</dim>
					<dim>96</dim>
					<dim>1</dim>
					<dim>1</dim>
				</port>
			</output>
		</layer>
		<layer id="366" name="Sigmoid_168" type="Sigmoid" version="opset1">
			<input>
				<port id="0">
					<dim>1</dim>
					<dim>96</dim>
					<dim>1</dim>
					<dim>1</dim>
				</port>
			</input>
			<output>
				<port id="1" precision="FP16">
					<dim>1</dim>
					<dim>96</dim>
					<dim>1</dim>
					<dim>1</dim>
				</port>
			</output>
		</layer>
		<layer id="367" name="Mul_169" type="Multiply" version="opset1">
			<input>
				<port id="0">
					<dim>1</dim>
					<dim>96</dim>
					<dim>32</dim>
					<dim>16</dim>
				</port>
				<port id="1">
					<dim>1</dim>
					<dim>96</dim>
					<dim>1</dim>
					<dim>1</dim>
				</port>
			</input>
			<output>
				<port id="2" precision="FP16">
					<dim>1</dim>
					<dim>96</dim>
					<dim>32</dim>
					<dim>16</dim>
				</port>
			</output>
		</layer>
		<layer id="368" name="conv3.0.conv2b.0.conv1.weight/Output_0/Data__const" type="Const" version="opset1">
			<data element_type="f16" offset="555572" shape="96,96,1,1" size="18432"/>
			<output>
				<port id="1" precision="FP16">
					<dim>96</dim>
					<dim>96</dim>
					<dim>1</dim>
					<dim>1</dim>
				</port>
			</output>
		</layer>
		<layer id="369" name="Conv_137" type="Convolution" version="opset1">
			<data dilations="1,1" output_padding="0,0" pads_begin="0,0" pads_end="0,0" strides="1,1"/>
			<input>
				<port id="0">
					<dim>1</dim>
					<dim>96</dim>
					<dim>32</dim>
					<dim>16</dim>
				</port>
				<port id="1">
					<dim>96</dim>
					<dim>96</dim>
					<dim>1</dim>
					<dim>1</dim>
				</port>
			</input>
			<output>
				<port id="2" precision="FP16">
					<dim>1</dim>
					<dim>96</dim>
					<dim>32</dim>
					<dim>16</dim>
				</port>
			</output>
		</layer>
		<layer id="370" name="2857828581_const" type="Const" version="opset1">
			<data element_type="f16" offset="574004" shape="96,1,1,3,3" size="1728"/>
			<output>
				<port id="1" precision="FP16">
					<dim>96</dim>
					<dim>1</dim>
					<dim>1</dim>
					<dim>3</dim>
					<dim>3</dim>
				</port>
			</output>
		</layer>
		<layer id="371" name="Conv_138/WithoutBiases" type="GroupConvolution" version="opset1">
			<data dilations="1,1" output_padding="0,0" pads_begin="1,1" pads_end="1,1" strides="1,1"/>
			<input>
				<port id="0">
					<dim>1</dim>
					<dim>96</dim>
					<dim>32</dim>
					<dim>16</dim>
				</port>
				<port id="1">
					<dim>96</dim>
					<dim>1</dim>
					<dim>1</dim>
					<dim>3</dim>
					<dim>3</dim>
				</port>
			</input>
			<output>
				<port id="2" precision="FP16">
					<dim>1</dim>
					<dim>96</dim>
					<dim>32</dim>
					<dim>16</dim>
				</port>
			</output>
		</layer>
		<layer id="372" name="Conv_138/Dims743912777/EltwiseUnsqueeze12966_const" type="Const" version="opset1">
			<data element_type="f16" offset="575732" shape="1,96,1,1" size="192"/>
			<output>
				<port id="1" precision="FP16">
					<dim>1</dim>
					<dim>96</dim>
					<dim>1</dim>
					<dim>1</dim>
				</port>
			</output>
		</layer>
		<layer id="373" name="Conv_138" type="Add" version="opset1">
			<input>
				<port id="0">
					<dim>1</dim>
					<dim>96</dim>
					<dim>32</dim>
					<dim>16</dim>
				</port>
				<port id="1">
					<dim>1</dim>
					<dim>96</dim>
					<dim>1</dim>
					<dim>1</dim>
				</port>
			</input>
			<output>
				<port id="2" precision="FP16">
					<dim>1</dim>
					<dim>96</dim>
					<dim>32</dim>
					<dim>16</dim>
				</port>
			</output>
		</layer>
		<layer id="374" name="Relu_139" type="ReLU" version="opset1">
			<input>
				<port id="0">
					<dim>1</dim>
					<dim>96</dim>
					<dim>32</dim>
					<dim>16</dim>
				</port>
			</input>
			<output>
				<port id="1" precision="FP16">
					<dim>1</dim>
					<dim>96</dim>
					<dim>32</dim>
					<dim>16</dim>
				</port>
			</output>
		</layer>
		<layer id="375" name="conv3.0.conv2b.1.conv1.weight/Output_0/Data__const" type="Const" version="opset1">
			<data element_type="f16" offset="575924" shape="96,96,1,1" size="18432"/>
			<output>
				<port id="1" precision="FP16">
					<dim>96</dim>
					<dim>96</dim>
					<dim>1</dim>
					<dim>1</dim>
				</port>
			</output>
		</layer>
		<layer id="376" name="Conv_140" type="Convolution" version="opset1">
			<data dilations="1,1" output_padding="0,0" pads_begin="0,0" pads_end="0,0" strides="1,1"/>
			<input>
				<port id="0">
					<dim>1</dim>
					<dim>96</dim>
					<dim>32</dim>
					<dim>16</dim>
				</port>
				<port id="1">
					<dim>96</dim>
					<dim>96</dim>
					<dim>1</dim>
					<dim>1</dim>
				</port>
			</input>
			<output>
				<port id="2" precision="FP16">
					<dim>1</dim>
					<dim>96</dim>
					<dim>32</dim>
					<dim>16</dim>
				</port>
			</output>
		</layer>
		<layer id="377" name="2863828641_const" type="Const" version="opset1">
			<data element_type="f16" offset="594356" shape="96,1,1,3,3" size="1728"/>
			<output>
				<port id="1" precision="FP16">
					<dim>96</dim>
					<dim>1</dim>
					<dim>1</dim>
					<dim>3</dim>
					<dim>3</dim>
				</port>
			</output>
		</layer>
		<layer id="378" name="Conv_141/WithoutBiases" type="GroupConvolution" version="opset1">
			<data dilations="1,1" output_padding="0,0" pads_begin="1,1" pads_end="1,1" strides="1,1"/>
			<input>
				<port id="0">
					<dim>1</dim>
					<dim>96</dim>
					<dim>32</dim>
					<dim>16</dim>
				</port>
				<port id="1">
					<dim>96</dim>
					<dim>1</dim>
					<dim>1</dim>
					<dim>3</dim>
					<dim>3</dim>
				</port>
			</input>
			<output>
				<port id="2" precision="FP16">
					<dim>1</dim>
					<dim>96</dim>
					<dim>32</dim>
					<dim>16</dim>
				</port>
			</output>
		</layer>
		<layer id="379" name="Conv_141/Dims761312806/EltwiseUnsqueeze13082_const" type="Const" version="opset1">
			<data element_type="f16" offset="596084" shape="1,96,1,1" size="192"/>
			<output>
				<port id="1" precision="FP16">
					<dim>1</dim>
					<dim>96</dim>
					<dim>1</dim>
					<dim>1</dim>
				</port>
			</output>
		</layer>
		<layer id="380" name="Conv_141" type="Add" version="opset1">
			<input>
…
		<edge from-layer="361" from-port="1" to-layer="363" to-port="0"/>
		<edge from-layer="362" from-port="1" to-layer="363" to-port="1"/>
		<edge from-layer="363" from-port="2" to-layer="365" to-port="0"/>
		<edge from-layer="364" from-port="1" to-layer="365" to-port="1"/>
		<edge from-layer="365" from-port="2" to-layer="366" to-port="0"/>
		<edge from-layer="348" from-port="1" to-layer="367" to-port="0"/>
		<edge from-layer="366" from-port="1" to-layer="367" to-port="1"/>
		<edge from-layer="341" from-port="1" to-layer="369" to-port="0"/>
		<edge from-layer="368" from-port="1" to-layer="369" to-port="1"/>
		<edge from-layer="369" from-port="2" to-layer="371" to-port="0"/>
		<edge from-layer="370" from-port="1" to-layer="371" to-port="1"/>
		<edge from-layer="371" from-port="2" to-layer="373" to-port="0"/>
		<edge from-layer="372" from-port="1" to-layer="373" to-port="1"/>
		<edge from-layer="373" from-port="2" to-layer="374" to-port="0"/>
		<edge from-layer="374" from-port="1" to-layer="376" to-port="0"/>
		<edge from-layer="375" from-port="1" to-layer="376" to-port="1"/>
		<edge from-layer="376" from-port="2" to-layer="378" to-port="0"/>
		<edge from-layer="377" from-port="1" to-layer="378" to-port="1"/>
		<edge from-layer="378" from-port="2" to-layer="380" to-port="0"/>
		<edge from-layer="379" from-port="1" to-layer="380" to-port="1"/>
		<edge from-layer="380" from-port="2" to-layer="381" to-port="0"/>
		<edge from-layer="381" from-port="1" to-layer="383" to-port="0"/>
		<edge from-layer="383" from-port="1" to-layer="384" to-port="0"/>
		<edge from-layer="384" from-port="1" to-layer="386" to-port="0"/>
		<edge from-layer="385" from-port="1" to-layer="386" to-port="1"/>
		<edge from-layer="382" from-port="1" to-layer="388" to-port="0"/>
		<edge from-layer="386" from-port="2" to-layer="388" to-port="1"/>
		<edge from-layer="387" from-port="1" to-layer="388" to-port="2"/>
		<edge from-layer="381" from-port="1" to-layer="389" to-port="0"/>
		<edge from-layer="388" from-port="3" to-layer="389" to-port="1"/>
		<edge from-layer="389" from-port="2" to-layer="391" to-port="0"/>
		<edge from-layer="390" from-port="1" to-layer="391" to-port="1"/>
		<edge from-layer="391" from-port="2" to-layer="393" to-port="0"/>
		<edge from-layer="392" from-port="1" to-layer="393" to-port="1"/>
		<edge from-layer="393" from-port="2" to-layer="394" to-port="0"/>
		<edge from-layer="394" from-port="1" to-layer="396" to-port="0"/>
		<edge from-layer="395" from-port="1" to-layer="396" to-port="1"/>
		<edge from-layer="396" from-port="2" to-layer="398" to-port="0"/>
		<edge from-layer="397" from-port="1" to-layer="398" to-port="1"/>
		<edge from-layer="398" from-port="2" to-layer="399" to-port="0"/>
		<edge from-layer="381" from-port="1" to-layer="400" to-port="0"/>
		<edge from-layer="399" from-port="1" to-layer="400" to-port="1"/>
		<edge from-layer="367" from-port="2" to-layer="401" to-port="0"/>
		<edge from-layer="400" from-port="2" to-layer="401" to-port="1"/>
		<edge from-layer="341" from-port="1" to-layer="403" to-port="0"/>
		<edge from-layer="402" from-port="1" to-layer="403" to-port="1"/>
		<edge from-layer="403" from-port="2" to-layer="405" to-port="0"/>
		<edge from-layer="404" from-port="1" to-layer="405" to-port="1"/>
		<edge from-layer="405" from-port="2" to-layer="407" to-port="0"/>
		<edge from-layer="406" from-port="1" to-layer="407" to-port="1"/>
		<edge from-layer="407" from-port="2" to-layer="408" to-port="0"/>
		<edge from-layer="408" from-port="1" to-layer="410" to-port="0"/>
		<edge from-layer="409" from-port="1" to-layer="410" to-port="1"/>
		<edge from-layer="410" from-port="2" to-layer="412" to-port="0"/>
		<edge from-layer="411" from-port="1" to-layer="412" to-port="1"/>
		<edge from-layer="412" from-port="2" to-layer="414" to-port="0"/>
		<edge from-layer="413" from-port="1" to-layer="414" to-port="1"/>
		<edge from-layer="414" from-port="2" to-layer="415" to-port="0"/>
		<edge from-layer="415" from-port="1" to-layer="417" to-port="0"/>
		<edge from-layer="416" from-port="1" to-layer="417" to-port="1"/>
		<edge from-layer="417" from-port="2" to-layer="419" to-port="0"/>
		<edge from-layer="418" from-port="1" to-layer="419" to-port="1"/>
		<edge from-layer="419" from-port="2" to-layer="421" to-port="0"/>
		<edge from-layer="420" from-port="1" to-layer="421" to-port="1"/>
		<edge from-layer="421" from-port="2" to-layer="422" to-port="0"/>
		<edge from-layer="422" from-port="1" to-layer="424" to-port="0"/>
		<edge from-layer="424" from-port="1" to-layer="425" to-port="0"/>
		<edge from-layer="425" from-port="1" to-layer="427" to-port="0"/>
		<edge from-layer="426" from-port="1" to-layer="427" to-port="1"/>
		<edge from-layer="423" from-port="1" to-layer="429" to-port="0"/>
		<edge from-layer="427" from-port="2" to-layer="429" to-port="1"/>
		<edge from-layer="428" from-port="1" to-layer="429" to-port="2"/>
		<edge from-layer="422" from-port="1" to-layer="430" to-port="0"/>
		<edge from-layer="429" from-port="3" to-layer="430" to-port="1"/>
		<edge from-layer="430" from-port="2" to-layer="432" to-port="0"/>
		<edge from-layer="431" from-port="1" to-layer="432" to-port="1"/>
		<edge from-layer="432" from-port="2" to-layer="434" to-port="0"/>
		<edge from-layer="433" from-port="1" to-layer="434" to-port="1"/>
		<edge from-layer="434" from-port="2" to-layer="435" to-port="0"/>
		<edge from-layer="435" from-port="1" to-layer="437" to-port="0"/>
		<edge from-layer="436" from-port="1" to-layer="437" to-port="1"/>
		<edge from-layer="437" from-port="2" to-layer="439" to-port="0"/>
		<edge from-layer="438" from-port="1" to-layer="439" to-port="1"/>
		<edge from-layer="439" from-port="2" to-layer="440" to-port="0"/>
		<edge from-layer="422" from-port="1" to-layer="441" to-port="0"/>
		<edge from-layer="440" from-port="1" to-layer="441" to-port="1"/>
		<edge from-layer="401" from-port="2" to-layer="442" to-port="0"/>
		<edge from-layer="441" from-port="2" to-layer="442" to-port="1"/>
		<edge from-layer="341" from-port="1" to-layer="444" to-port="0"/>
		<edge from-layer="443" from-port="1" to-layer="444" to-port="1"/>
		<edge from-layer="444" from-port="2" to-layer="446" to-port="0"/>
		<edge from-layer="445" from-port="1" to-layer="446" to-port="1"/>
		<edge from-layer="446" from-port="2" to-layer="448" to-port="0"/>
		<edge from-layer="447" from-port="1" to-layer="448" to-port="1"/>
		<edge from-layer="448" from-port="2" to-layer="449" to-port="0"/>
		<edge from-layer="449" from-port="1" to-layer="451" to-port="0"/>
		<edge from-layer="450" from-port="1" to-layer="451" to-port="1"/>
		<edge from-layer="451" from-port="2" to-layer="453" to-port="0"/>
		<edge from-layer="452" from-port="1" to-layer="453" to-port="1"/>
		<edge from-layer="453" from-port="2" to-layer="455" to-port="0"/>
		<edge from-layer="454" from-port="1" to-layer="455" to-port="1"/>
		<edge from-layer="455" from-port="2" to-layer="456" to-port="0"/>
		<edge from-layer="456" from-port="1" to-layer="458" to-port="0"/>
		<edge from-layer="457" from-port="1" to-layer="458" to-port="1"/>
		<edge from-layer="458" from-port="2" to-layer="460" to-port="0"/>
		<edge from-layer="459" from-port="1" to-layer="460" to-port="1"/>
		<edge from-layer="460" from-port="2" to-layer="462" to-port="0"/>
		<edge from-layer="461" from-port="1" to-layer="462" to-port="1"/>
		<edge from-layer="462" from-port="2" to-layer="463" to-port="0"/>
		<edge from-layer="463" from-port="1" to-layer="465" to-port="0"/>
		<edge from-layer="464" from-port="1" to-layer="465" to-port="1"/>
		<edge from-layer="465" from-port="2" to-layer="467" to-port="0"/>
		<edge from-layer="466" from-port="1" to-layer="467" to-port="1"/>
		<edge from-layer="467" from-port="2" to-layer="469" to-port="0"/>
		<edge from-layer="468" from-port="1" to-layer="469" to-port="1"/>
		<edge from-layer="469" from-port="2" to-layer="470" to-port="0"/>
		<edge from-layer="470" from-port="1" to-layer="472" to-port="0"/>
		<edge from-layer="472" from-port="1" to-layer="473" to-port="0"/>
		<edge from-layer="473" from-port="1" to-layer="475" to-port="0"/>
		<edge from-layer="474" from-port="1" to-layer="475" to-port="1"/>
		<edge from-layer="471" from-port="1" to-layer="477" to-port="0"/>
		<edge from-layer="475" from-port="2" to-layer="477" to-port="1"/>
		<edge from-layer="476" from-port="1" to-layer="477" to-port="2"/>
		<edge from-layer="470" from-port="1" to-layer="478" to-port="0"/>
		<edge from-layer="477" from-port="3" to-layer="478" to-port="1"/>
		<edge from-layer="478" from-port="2" to-layer="480" to-port="0"/>
		<edge from-layer="479" from-port="1" to-layer="480" to-port="1"/>
		<edge from-layer="480" from-port="2" to-layer="482" to-port="0"/>
		<edge from-layer="481" from-port="1" to-layer="482" to-port="1"/>
		<edge from-layer="482" from-port="2" to-layer="483" to-port="0"/>
		<edge from-layer="483" from-port="1" to-layer="485" to-port="0"/>
		<edge from-layer="484" from-port="1" to-layer="485" to-port="1"/>
		<edge from-layer="485" from-port="2" to-layer="487" to-port="0"/>
		<edge from-layer="486" from-port="1" to-layer="487" to-port="1"/>
		<edge from-layer="487" from-port="2" to-layer="488" to-port="0"/>
		<edge from-layer="470" from-port="1" to-layer="489" to-port="0"/>
		<edge from-layer="488" from-port="1" to-layer="489" to-port="1"/>
		<edge from-layer="442" from-port="2" to-layer="490" to-port="0"/>
		<edge from-layer="489" from-port="2" to-layer="490" to-port="1"/>
		<edge from-layer="490" from-port="2" to-layer="492" to-port="0"/>
		<edge from-layer="491" from-port="1" to-layer="492" to-port="1"/>
		<edge from-layer="492" from-port="2" to-layer="494" to-port="0"/>
		<edge from-layer="493" from-port="1" to-layer="494" to-port="1"/>
		<edge from-layer="336" from-port="1" to-layer="496" to-port="0"/>
		<edge from-layer="495" from-port="1" to-layer="496" to-port="1"/>
		<edge from-layer="496" from-port="2" to-layer="498" to-port="0"/>
		<edge from-layer="497" from-port="1" to-layer="498" to-port="1"/>
		<edge from-layer="494" from-port="2" to-layer="499" to-port="0"/>
		<edge from-layer="498" from-port="2" to-layer="499" to-port="1"/>
		<edge from-layer="499" from-port="2" to-layer="500" to-port="0"/>
		<edge from-layer="500" from-port="1" to-layer="502" to-port="0"/>
		<edge from-layer="501" from-port="1" to-layer="502" to-port="1"/>
		<edge from-layer="502" from-port="2" to-layer="504" to-port="0"/>
		<edge from-layer="503" from-port="1" to-layer="504" to-port="1"/>
		<edge from-layer="504" from-port="2" to-layer="505" to-port="0"/>
		<edge from-layer="505" from-port="1" to-layer="507" to-port="0"/>
		<edge from-layer="506" from-port="1" to-layer="507" to-port="1"/>
		<edge from-layer="507" from-port="2" to-layer="509" to-port="0"/>
		<edge from-layer="508" from-port="1" to-layer="509" to-port="1"/>
		<edge from-layer="509" from-port="2" to-layer="511" to-port="0"/>
		<edge from-layer="510" from-port="1" to-layer="511" to-port="1"/>
		<edge from-layer="511" from-port="2" to-layer="512" to-port="0"/>
		<edge from-layer="512" from-port="1" to-layer="514" to-port="0"/>
		<edge from-layer="514" from-port="1" to-layer="515" to-port="0"/>
		<edge from-layer="515" from-port="1" to-layer="517" to-port="0"/>
		<edge from-layer="516" from-port="1" to-layer="517" to-port="1"/>
		<edge from-layer="513" from-port="1" to-layer="519" to-port="0"/>
		<edge from-layer="517" from-port="2" to-layer="519" to-port="1"/>
		<edge from-layer="518" from-port="1" to-layer="519" to-port="2"/>
		<edge from-layer="512" from-port="1" to-layer="520" to-port="0"/>
		<edge from-layer="519" from-port="3" to-layer="520" to-port="1"/>
		<edge from-layer="520" from-port="2" to-layer="522" to-port="0"/>
		<edge from-layer="521" from-port="1" to-layer="522" to-port="1"/>
		<edge from-layer="522" from-port="2" to-layer="524" to-port="0"/>
		<edge from-layer="523" from-port="1" to-layer="524" to-port="1"/>
		<edge from-layer="524" from-port="2" to-layer="525" to-port="0"/>
		<edge from-layer="525" from-port="1" to-layer="527" to-port="0"/>
		<edge from-layer="526" from-port="1" to-layer="527" to-port="1"/>
		<edge from-layer="527" from-port="2" to-layer="529" to-port="0"/>
		<edge from-layer="528" from-port="1" to-layer="529" to-port="1"/>
		<edge from-layer="529" from-port="2" to-layer="530" to-port="0"/>
		<edge from-layer="512" from-port="1" to-layer="531" to-port="0"/>
		<edge from-layer="530" from-port="1" to-layer="531" to-port="1"/>
		<edge from-layer="505" from-port="1" to-layer="533" to-port="0"/>
		<edge from-layer="532" from-port="1" to-layer="533" to-port="1"/>
		<edge from-layer="533" from-port="2" to-layer="535" to-port="0"/>
		<edge from-layer="534" from-port="1" to-layer="535" to-port="1"/>
		<edge from-layer="535" from-port="2" to-layer="537" to-port="0"/>
		<edge from-layer="536" from-port="1" to-layer="537" to-port="1"/>
		<edge from-layer="537" from-port="2" to-layer="538" to-port="0"/>
		<edge from-layer="538" from-port="1" to-layer="540" to-port="0"/>
		<edge from-layer="539" from-port="1" to-layer="540" to-port="1"/>
		<edge from-layer="540" from-port="2" to-layer="542" to-port="0"/>
		<edge from-layer="541" from-port="1" to-layer="542" to-port="1"/>
		<edge from-layer="542" from-port="2" to-layer="544" to-port="0"/>
		<edge from-layer="543" from-port="1" to-layer="544" to-port="1"/>
		<edge from-layer="544" from-port="2" to-layer="545" to-port="0"/>
		<edge from-layer="545" from-port="1" to-layer="547" to-port="0"/>
		<edge from-layer="547" from-port="1" to-layer="548" to-port="0"/>
		<edge from-layer="548" from-port="1" to-layer="550" to-port="0"/>
		<edge from-layer="549" from-port="1" to-layer="550" to-port="1"/>
		<edge from-layer="546" from-port="1" to-layer="552" to-port="0"/>
		<edge from-layer="550" from-port="2" to-layer="552" to-port="1"/>
		<edge from-layer="551" from-port="1" to-layer="552" to-port="2"/>
		<edge from-layer="545" from-port="1" to-layer="553" to-port="0"/>
		<edge from-layer="552" from-port="3" to-layer="553" to-port="1"/>
		<edge from-layer="553" from-port="2" to-layer="555" to-port="0"/>
		<edge from-layer="554" from-port="1" to-layer="555" to-port="1"/>
		<edge from-layer="555" from-port="2" to-layer="557" to-port="0"/>
		<edge from-layer="556" from-port="1" to-layer="557" to-port="1"/>
		<edge from-layer="557" from-port="2" to-layer="558" to-port="0"/>
		<edge from-layer="558" from-port="1" to-layer="560" to-port="0"/>
		<edge from-layer="559" from-port="1" to-layer="560" to-port="1"/>
		<edge from-layer="560" from-port="2" to-layer="562" to-port="0"/>
		<edge from-layer="561" from-port="1" to-layer="562" to-port="1"/>
		<edge from-layer="562" from-port="2" to-layer="563" to-port="0"/>
		<edge from-layer="545" from-port="1" to-layer="564" to-port="0"/>
		<edge from-layer="563" from-port="1" to-layer="564" to-port="1"/>
		<edge from-layer="531" from-port="2" to-layer="565" to-port="0"/>
		<edge from-layer="564" from-port="2" to-layer="565" to-port="1"/>
		<edge from-layer="505" from-port="1" to-layer="567" to-port="0"/>
		<edge from-layer="566" from-port="1" to-layer="567" to-port="1"/>
		<edge from-layer="567" from-port="2" to-layer="569" to-port="0"/>
		<edge from-layer="568" from-port="1" to-layer="569" to-port="1"/>
		<edge from-layer="569" from-port="2" to-layer="571" to-port="0"/>
		<edge from-layer="570" from-port="1" to-layer="571" to-port="1"/>
		<edge from-layer="571" from-port="2" to-layer="572" to-port="0"/>
		<edge from-layer="572" from-port="1" to-layer="574" to-port="0"/>
		<edge from-layer="573" from-port="1" to-layer="574" to-port="1"/>
		<edge from-layer="574" from-port="2" to-layer="576" to-port="0"/>
		<edge from-layer="575" from-port="1" to-layer="576" to-port="1"/>
		<edge from-layer="576" from-port="2" to-layer="578" to-port="0"/>
		<edge from-layer="577" from-port="1" to-layer="578" to-port="1"/>
		<edge from-layer="578" from-port="2" to-layer="579" to-port="0"/>
		<edge from-layer="579" from-port="1" to-layer="581" to-port="0"/>
		<edge from-layer="580" from-port="1" to-layer="581" to-port="1"/>
		<edge from-layer="581" from-port="2" to-layer="583" to-port="0"/>
		<edge from-layer="582" from-port="1" to-layer="583" to-port="1"/>
		<edge from-layer="583" from-port="2" to-layer="585" to-port="0"/>
		<edge from-layer="584" from-port="1" to-layer="585" to-port="1"/>
		<edge from-layer="585" from-port="2" to-layer="586" to-port="0"/>
		<edge from-layer="586" from-port="1" to-layer="588" to-port="0"/>
		<edge from-layer="588" from-port="1" to-layer="589" to-port="0"/>
		<edge from-layer="589" from-port="1" to-layer="591" to-port="0"/>
		<edge from-layer="590" from-port="1" to-layer="591" to-port="1"/>
		<edge from-layer="587" from-port="1" to-layer="593" to-port="0"/>
		<edge from-layer="591" from-port="2" to-layer="593" to-port="1"/>
		<edge from-layer="592" from-port="1" to-layer="593" to-port="2"/>
		<edge from-layer="586" from-port="1" to-layer="594" to-port="0"/>
		<edge from-layer="593" from-port="3" to-layer="594" to-port="1"/>
		<edge from-layer="594" from-port="2" to-layer="596" to-port="0"/>
		<edge from-layer="595" from-port="1" to-layer="596" to-port="1"/>
		<edge from-layer="596" from-port="2" to-layer="598" to-port="0"/>
		<edge from-layer="597" from-port="1" to-layer="598" to-port="1"/>
		<edge from-layer="598" from-port="2" to-layer="599" to-port="0"/>
		<edge from-layer="599" from-port="1" to-layer="601" to-port="0"/>
		<edge from-layer="600" from-port="1" to-layer="601" to-port="1"/>
		<edge from-layer="601" from-port="2" to-layer="603" to-port="0"/>
		<edge from-layer="602" from-port="1" to-layer="603" to-port="1"/>
		<edge from-layer="603" from-port="2" to-layer="604" to-port="0"/>
		<edge from-layer="586" from-port="1" to-layer="605" to-port="0"/>
		<edge from-layer="604" from-port="1" to-layer="605" to-port="1"/>
		<edge from-layer="565" from-port="2" to-layer="606" to-port="0"/>
		<edge from-layer="605" from-port="2" to-layer="606" to-port="1"/>
		<edge from-layer="505" from-port="1" to-layer="608" to-port="0"/>
		<edge from-layer="607" from-port="1" to-layer="608" to-port="1"/>
		<edge from-layer="608" from-port="2" to-layer="610" to-port="0"/>
		<edge from-layer="609" from-port="1" to-layer="610" to-port="1"/>
		<edge from-layer="610" from-port="2" to-layer="612" to-port="0"/>
		<edge from-layer="611" from-port="1" to-layer="612" to-port="1"/>
		<edge from-layer="612" from-port="2" to-layer="613" to-port="0"/>
		<edge from-layer="613" from-port="1" to-layer="615" to-port="0"/>
		<edge from-layer="614" from-port="1" to-layer="615" to-port="1"/>
		<edge from-layer="615" from-port="2" to-layer="617" to-port="0"/>
		<edge from-layer="616" from-port="1" to-layer="617" to-port="1"/>
		<edge from-layer="617" from-port="2" to-layer="619" to-port="0"/>
		<edge from-layer="618" from-port="1" to-layer="619" to-port="1"/>
		<edge from-layer="619" from-port="2" to-layer="620" to-port="0"/>
		<edge from-layer="620" from-port="1" to-layer="622" to-port="0"/>
		<edge from-layer="621" from-port="1" to-layer="622" to-port="1"/>
		<edge from-layer="622" from-port="2" to-layer="624" to-port="0"/>
		<edge from-layer="623" from-port="1" to-layer="624" to-port="1"/>
		<edge from-layer="624" from-port="2" to-layer="626" to-port="0"/>
		<edge from-layer="625" from-port="1" to-layer="626" to-port="1"/>
		<edge from-layer="626" from-port="2" to-layer="627" to-port="0"/>
		<edge from-layer="627" from-port="1" to-layer="629" to-port="0"/>
		<edge from-layer="628" from-port="1" to-layer="629" to-port="1"/>
		<edge from-layer="629" from-port="2" to-layer="631" to-port="0"/>
		<edge from-layer="630" from-port="1" to-layer="631" to-port="1"/>
		<edge from-layer="631" from-port="2" to-layer="633" to-port="0"/>
		<edge from-layer="632" from-port="1" to-layer="633" to-port="1"/>
		<edge from-layer="633" from-port="2" to-layer="634" to-port="0"/>
		<edge from-layer="634" from-port="1" to-layer="636" to-port="0"/>
		<edge from-layer="636" from-port="1" to-layer="637" to-port="0"/>
		<edge from-layer="637" from-port="1" to-layer="639" to-port="0"/>
		<edge from-layer="638" from-port="1" to-layer="639" to-port="1"/>
		<edge from-layer="635" from-port="1" to-layer="641" to-port="0"/>
		<edge from-layer="639" from-port="2" to-layer="641" to-port="1"/>
		<edge from-layer="640" from-port="1" to-layer="641" to-port="2"/>
		<edge from-layer="634" from-port="1" to-layer="642" to-port="0"/>
		<edge from-layer="641" from-port="3" to-layer="642" to-port="1"/>
		<edge from-layer="642" from-port="2" to-layer="644" to-port="0"/>
		<edge from-layer="643" from-port="1" to-layer="644" to-port="1"/>
		<edge from-layer="644" from-port="2" to-layer="646" to-port="0"/>
		<edge from-layer="645" from-port="1" to-layer="646" to-port="1"/>
		<edge from-layer="646" from-port="2" to-layer="647" to-port="0"/>
		<edge from-layer="647" from-port="1" to-layer="649" to-port="0"/>
		<edge from-layer="648" from-port="1" to-layer="649" to-port="1"/>
		<edge from-layer="649" from-port="2" to-layer="651" to-port="0"/>
		<edge from-layer="650" from-port="1" to-layer="651" to-port="1"/>
		<edge from-layer="651" from-port="2" to-layer="652" to-port="0"/>
		<edge from-layer="634" from-port="1" to-layer="653" to-port="0"/>
		<edge from-layer="652" from-port="1" to-layer="653" to-port="1"/>
		<edge from-layer="606" from-port="2" to-layer="654" to-port="0"/>
		<edge from-layer="653" from-port="2" to-layer="654" to-port="1"/>
		<edge from-layer="654" from-port="2" to-layer="656" to-port="0"/>
		<edge from-layer="655" from-port="1" to-layer="656" to-port="1"/>
		<edge from-layer="656" from-port="2" to-layer="658" to-port="0"/>
		<edge from-layer="657" from-port="1" to-layer="658" to-port="1"/>
		<edge from-layer="658" from-port="2" to-layer="659" to-port="0"/>
		<edge from-layer="500" from-port="1" to-layer="659" to-port="1"/>
		<edge from-layer="659" from-port="2" to-layer="660" to-port="0"/>
		<edge from-layer="660" from-port="1" to-layer="662" to-port="0"/>
		<edge from-layer="661" from-port="1" to-layer="662" to-port="1"/>
		<edge from-layer="662" from-port="2" to-layer="664" to-port="0"/>
		<edge from-layer="663" from-port="1" to-layer="664" to-port="1"/>
		<edge from-layer="664" from-port="2" to-layer="665" to-port="0"/>
		<edge from-layer="665" from-port="1" to-layer="666" to-port="0"/>
		<edge from-layer="666" from-port="1" to-layer="668" to-port="0"/>
		<edge from-layer="667" from-port="1" to-layer="668" to-port="1"/>
		<edge from-layer="668" from-port="2" to-layer="670" to-port="0"/>
		<edge from-layer="669" from-port="1" to-layer="670" to-port="1"/>
		<edge from-layer="670" from-port="2" to-layer="671" to-port="0"/>
		<edge from-layer="671" from-port="1" to-layer="673" to-port="0"/>
		<edge from-layer="672" from-port="1" to-layer="673" to-port="1"/>
		<edge from-layer="673" from-port="2" to-layer="675" to-port="0"/>
		<edge from-layer="674" from-port="1" to-layer="675" to-port="1"/>
		<edge from-layer="675" from-port="2" to-layer="677" to-port="0"/>
		<edge from-layer="676" from-port="1" to-layer="677" to-port="1"/>
		<edge from-layer="677" from-port="2" to-layer="678" to-port="0"/>
		<edge from-layer="678" from-port="1" to-layer="680" to-port="0"/>
		<edge from-layer="680" from-port="1" to-layer="681" to-port="0"/>
		<edge from-layer="681" from-port="1" to-layer="683" to-port="0"/>
		<edge from-layer="682" from-port="1" to-layer="683" to-port="1"/>
		<edge from-layer="679" from-port="1" to-layer="685" to-port="0"/>
		<edge from-layer="683" from-port="2" to-layer="685" to-port="1"/>
		<edge from-layer="684" from-port="1" to-layer="685" to-port="2"/>
		<edge from-layer="678" from-port="1" to-layer="686" to-port="0"/>
		<edge from-layer="685" from-port="3" to-layer="686" to-port="1"/>
		<edge from-layer="686" from-port="2" to-layer="688" to-port="0"/>
		<edge from-layer="687" from-port="1" to-layer="688" to-port="1"/>
		<edge from-layer="688" from-port="2" to-layer="690" to-port="0"/>
		<edge from-layer="689" from-port="1" to-layer="690" to-port="1"/>
		<edge from-layer="690" from-port="2" to-layer="691" to-port="0"/>
		<edge from-layer="691" from-port="1" to-layer="693" to-port="0"/>
		<edge from-layer="692" from-port="1" to-layer="693" to-port="1"/>
		<edge from-layer="693" from-port="2" to-layer="695" to-port="0"/>
		<edge from-layer="694" from-port="1" to-layer="695" to-port="1"/>
		<edge from-layer="695" from-port="2" to-layer="696" to-port="0"/>
		<edge from-layer="678" from-port="1" to-layer="697" to-port="0"/>
		<edge from-layer="696" from-port="1" to-layer="697" to-port="1"/>
		<edge from-layer="671" from-port="1" to-layer="699" to-port="0"/>
		<edge from-layer="698" from-port="1" to-layer="699" to-port="1"/>
		<edge from-layer="699" from-port="2" to-layer="701" to-port="0"/>
		<edge from-layer="700" from-port="1" to-layer="701" to-port="1"/>
		<edge from-layer="701" from-port="2" to-layer="703" to-port="0"/>
		<edge from-layer="702" from-port="1" to-layer="703" to-port="1"/>
		<edge from-layer="703" from-port="2" to-layer="704" to-port="0"/>
		<edge from-layer="704" from-port="1" to-layer="706" to-port="0"/>
		<edge from-layer="705" from-port="1" to-layer="706" to-port="1"/>
		<edge from-layer="706" from-port="2" to-layer="708" to-port="0"/>
		<edge from-layer="707" from-port="1" to-layer="708" to-port="1"/>
		<edge from-layer="708" from-port="2" to-layer="710" to-port="0"/>
		<edge from-layer="709" from-port="1" to-layer="710" to-port="1"/>
		<edge from-layer="710" from-port="2" to-layer="711" to-port="0"/>
		<edge from-layer="711" from-port="1" to-layer="713" to-port="0"/>
		<edge from-layer="713" from-port="1" to-layer="714" to-port="0"/>
		<edge from-layer="714" from-port="1" to-layer="716" to-port="0"/>
		<edge from-layer="715" from-port="1" to-layer="716" to-port="1"/>
		<edge from-layer="712" from-port="1" to-layer="718" to-port="0"/>
		<edge from-layer="716" from-port="2" to-layer="718" to-port="1"/>
		<edge from-layer="717" from-port="1" to-layer="718" to-port="2"/>
		<edge from-layer="711" from-port="1" to-layer="719" to-port="0"/>
		<edge from-layer="718" from-port="3" to-layer="719" to-port="1"/>
		<edge from-layer="719" from-port="2" to-layer="721" to-port="0"/>
		<edge from-layer="720" from-port="1" to-layer="721" to-port="1"/>
		<edge from-layer="721" from-port="2" to-layer="723" to-port="0"/>
		<edge from-layer="722" from-port="1" to-layer="723" to-port="1"/>
		<edge from-layer="723" from-port="2" to-layer="724" to-port="0"/>
		<edge from-layer="724" from-port="1" to-layer="726" to-port="0"/>
		<edge from-layer="725" from-port="1" to-layer="726" to-port="1"/>
		<edge from-layer="726" from-port="2" to-layer="728" to-port="0"/>
		<edge from-layer="727" from-port="1" to-layer="728" to-port="1"/>
		<edge from-layer="728" from-port="2" to-layer="729" to-port="0"/>
		<edge from-layer="711" from-port="1" to-layer="730" to-port="0"/>
		<edge from-layer="729" from-port="1" to-layer="730" to-port="1"/>
		<edge from-layer="697" from-port="2" to-layer="731" to-port="0"/>
		<edge from-layer="730" from-port="2" to-layer="731" to-port="1"/>
		<edge from-layer="671" from-port="1" to-layer="733" to-port="0"/>
		<edge from-layer="732" from-port="1" to-layer="733" to-port="1"/>
		<edge from-layer="733" from-port="2" to-layer="735" to-port="0"/>
		<edge from-layer="734" from-port="1" to-layer="735" to-port="1"/>
		<edge from-layer="735" from-port="2" to-layer="737" to-port="0"/>
		<edge from-layer="736" from-port="1" to-layer="737" to-port="1"/>
		<edge from-layer="737" from-port="2" to-layer="738" to-port="0"/>
		<edge from-layer="738" from-port="1" to-layer="740" to-port="0"/>
		<edge from-layer="739" from-port="1" to-layer="740" to-port="1"/>
		<edge from-layer="740" from-port="2" to-layer="742" to-port="0"/>
		<edge from-layer="741" from-port="1" to-layer="742" to-port="1"/>
		<edge from-layer="742" from-port="2" to-layer="744" to-port="0"/>
		<edge from-layer="743" from-port="1" to-layer="744" to-port="1"/>
		<edge from-layer="744" from-port="2" to-layer="745" to-port="0"/>
		<edge from-layer="745" from-port="1" to-layer="747" to-port="0"/>
		<edge from-layer="746" from-port="1" to-layer="747" to-port="1"/>
		<edge from-layer="747" from-port="2" to-layer="749" to-port="0"/>
		<edge from-layer="748" from-port="1" to-layer="749" to-port="1"/>
		<edge from-layer="749" from-port="2" to-layer="751" to-port="0"/>
		<edge from-layer="750" from-port="1" to-layer="751" to-port="1"/>
		<edge from-layer="751" from-port="2" to-layer="752" to-port="0"/>
		<edge from-layer="752" from-port="1" to-layer="754" to-port="0"/>
		<edge from-layer="754" from-port="1" to-layer="755" to-port="0"/>
		<edge from-layer="755" from-port="1" to-layer="757" to-port="0"/>
		<edge from-layer="756" from-port="1" to-layer="757" to-port="1"/>
		<edge from-layer="753" from-port="1" to-layer="759" to-port="0"/>
		<edge from-layer="757" from-port="2" to-layer="759" to-port="1"/>
		<edge from-layer="758" from-port="1" to-layer="759" to-port="2"/>
		<edge from-layer="752" from-port="1" to-layer="760" to-port="0"/>
		<edge from-layer="759" from-port="3" to-layer="760" to-port="1"/>
		<edge from-layer="760" from-port="2" to-layer="762" to-port="0"/>
		<edge from-layer="761" from-port="1" to-layer="762" to-port="1"/>
		<edge from-layer="762" from-port="2" to-layer="764" to-port="0"/>
		<edge from-layer="763" from-port="1" to-layer="764" to-port="1"/>
		<edge from-layer="764" from-port="2" to-layer="765" to-port="0"/>
		<edge from-layer="765" from-port="1" to-layer="767" to-port="0"/>
		<edge from-layer="766" from-port="1" to-layer="767" to-port="1"/>
		<edge from-layer="767" from-port="2" to-layer="769" to-port="0"/>
		<edge from-layer="768" from-port="1" to-layer="769" to-port="1"/>
		<edge from-layer="769" from-port="2" to-layer="770" to-port="0"/>
		<edge from-layer="752" from-port="1" to-layer="771" to-port="0"/>
		<edge from-layer="770" from-port="1" to-layer="771" to-port="1"/>
		<edge from-layer="731" from-port="2" to-layer="772" to-port="0"/>
		<edge from-layer="771" from-port="2" to-layer="772" to-port="1"/>
		<edge from-layer="671" from-port="1" to-layer="774" to-port="0"/>
		<edge from-layer="773" from-port="1" to-layer="774" to-port="1"/>
		<edge from-layer="774" from-port="2" to-layer="776" to-port="0"/>
		<edge from-layer="775" from-port="1" to-layer="776" to-port="1"/>
		<edge from-layer="776" from-port="2" to-layer="778" to-port="0"/>
		<edge from-layer="777" from-port="1" to-layer="778" to-port="1"/>
		<edge from-layer="778" from-port="2" to-layer="779" to-port="0"/>
		<edge from-layer="779" from-port="1" to-layer="781" to-port="0"/>
		<edge from-layer="780" from-port="1" to-layer="781" to-port="1"/>
		<edge from-layer="781" from-port="2" to-layer="783" to-port="0"/>
		<edge from-layer="782" from-port="1" to-layer="783" to-port="1"/>
		<edge from-layer="783" from-port="2" to-layer="785" to-port="0"/>
		<edge from-layer="784" from-port="1" to-layer="785" to-port="1"/>
		<edge from-layer="785" from-port="2" to-layer="786" to-port="0"/>
		<edge from-layer="786" from-port="1" to-layer="788" to-port="0"/>
		<edge from-layer="787" from-port="1" to-layer="788" to-port="1"/>
		<edge from-layer="788" from-port="2" to-layer="790" to-port="0"/>
		<edge from-layer="789" from-port="1" to-layer="790" to-port="1"/>
		<edge from-layer="790" from-port="2" to-layer="792" to-port="0"/>
		<edge from-layer="791" from-port="1" to-layer="792" to-port="1"/>
		<edge from-layer="792" from-port="2" to-layer="793" to-port="0"/>
		<edge from-layer="793" from-port="1" to-layer="795" to-port="0"/>
		<edge from-layer="794" from-port="1" to-layer="795" to-port="1"/>
		<edge from-layer="795" from-port="2" to-layer="797" to-port="0"/>
		<edge from-layer="796" from-port="1" to-layer="797" to-port="1"/>
		<edge from-layer="797" from-port="2" to-layer="799" to-port="0"/>
		<edge from-layer="798" from-port="1" to-layer="799" to-port="1"/>
		<edge from-layer="799" from-port="2" to-layer="800" to-port="0"/>
		<edge from-layer="800" from-port="1" to-layer="802" to-port="0"/>
		<edge from-layer="802" from-port="1" to-layer="803" to-port="0"/>
		<edge from-layer="803" from-port="1" to-layer="805" to-port="0"/>
		<edge from-layer="804" from-port="1" to-layer="805" to-port="1"/>
		<edge from-layer="801" from-port="1" to-layer="807" to-port="0"/>
		<edge from-layer="805" from-port="2" to-layer="807" to-port="1"/>
		<edge from-layer="806" from-port="1" to-layer="807" to-port="2"/>
		<edge from-layer="800" from-port="1" to-layer="808" to-port="0"/>
		<edge from-layer="807" from-port="3" to-layer="808" to-port="1"/>
		<edge from-layer="808" from-port="2" to-layer="810" to-port="0"/>
		<edge from-layer="809" from-port="1" to-layer="810" to-port="1"/>
		<edge from-layer="810" from-port="2" to-layer="812" to-port="0"/>
		<edge from-layer="811" from-port="1" to-layer="812" to-port="1"/>
		<edge from-layer="812" from-port="2" to-layer="813" to-port="0"/>
		<edge from-layer="813" from-port="1" to-layer="815" to-port="0"/>
		<edge from-layer="814" from-port="1" to-layer="815" to-port="1"/>
		<edge from-layer="815" from-port="2" to-layer="817" to-port="0"/>
		<edge from-layer="816" from-port="1" to-layer="817" to-port="1"/>
		<edge from-layer="817" from-port="2" to-layer="818" to-port="0"/>
		<edge from-layer="800" from-port="1" to-layer="819" to-port="0"/>
		<edge from-layer="818" from-port="1" to-layer="819" to-port="1"/>
		<edge from-layer="772" from-port="2" to-layer="820" to-port="0"/>
		<edge from-layer="819" from-port="2" to-layer="820" to-port="1"/>
		<edge from-layer="820" from-port="2" to-layer="822" to-port="0"/>
		<edge from-layer="821" from-port="1" to-layer="822" to-port="1"/>
		<edge from-layer="822" from-port="2" to-layer="824" to-port="0"/>
		<edge from-layer="823" from-port="1" to-layer="824" to-port="1"/>
		<edge from-layer="666" from-port="1" to-layer="826" to-port="0"/>
		<edge from-layer="825" from-port="1" to-layer="826" to-port="1"/>
		<edge from-layer="826" from-port="2" to-layer="828" to-port="0"/>
		<edge from-layer="827" from-port="1" to-layer="828" to-port="1"/>
		<edge from-layer="824" from-port="2" to-layer="829" to-port="0"/>
		<edge from-layer="828" from-port="2" to-layer="829" to-port="1"/>
		<edge from-layer="829" from-port="2" to-layer="830" to-port="0"/>
		<edge from-layer="830" from-port="1" to-layer="832" to-port="0"/>
		<edge from-layer="831" from-port="1" to-layer="832" to-port="1"/>
		<edge from-layer="832" from-port="2" to-layer="834" to-port="0"/>
		<edge from-layer="833" from-port="1" to-layer="834" to-port="1"/>
		<edge from-layer="834" from-port="2" to-layer="835" to-port="0"/>
		<edge from-layer="835" from-port="1" to-layer="837" to-port="0"/>
		<edge from-layer="836" from-port="1" to-layer="837" to-port="1"/>
		<edge from-layer="837" from-port="2" to-layer="839" to-port="0"/>
		<edge from-layer="838" from-port="1" to-layer="839" to-port="1"/>
		<edge from-layer="839" from-port="2" to-layer="841" to-port="0"/>
		<edge from-layer="840" from-port="1" to-layer="841" to-port="1"/>
		<edge from-layer="841" from-port="2" to-layer="842" to-port="0"/>
		<edge from-layer="842" from-port="1" to-layer="844" to-port="0"/>
		<edge from-layer="844" from-port="1" to-layer="845" to-port="0"/>
		<edge from-layer="845" from-port="1" to-layer="847" to-port="0"/>
		<edge from-layer="846" from-port="1" to-layer="847" to-port="1"/>
		<edge from-layer="843" from-port="1" to-layer="849" to-port="0"/>
		<edge from-layer="847" from-port="2" to-layer="849" to-port="1"/>
		<edge from-layer="848" from-port="1" to-layer="849" to-port="2"/>
		<edge from-layer="842" from-port="1" to-layer="850" to-port="0"/>
		<edge from-layer="849" from-port="3" to-layer="850" to-port="1"/>
		<edge from-layer="850" from-port="2" to-layer="852" to-port="0"/>
		<edge from-layer="851" from-port="1" to-layer="852" to-port="1"/>
		<edge from-layer="852" from-port="2" to-layer="854" to-port="0"/>
		<edge from-layer="853" from-port="1" to-layer="854" to-port="1"/>
		<edge from-layer="854" from-port="2" to-layer="855" to-port="0"/>
		<edge from-layer="855" from-port="1" to-layer="857" to-port="0"/>
		<edge from-layer="856" from-port="1" to-layer="857" to-port="1"/>
		<edge from-layer="857" from-port="2" to-layer="859" to-port="0"/>
		<edge from-layer="858" from-port="1" to-layer="859" to-port="1"/>
		<edge from-layer="859" from-port="2" to-layer="860" to-port="0"/>
		<edge from-layer="842" from-port="1" to-layer="861" to-port="0"/>
		<edge from-layer="860" from-port="1" to-layer="861" to-port="1"/>
		<edge from-layer="835" from-port="1" to-layer="863" to-port="0"/>
		<edge from-layer="862" from-port="1" to-layer="863" to-port="1"/>
		<edge from-layer="863" from-port="2" to-layer="865" to-port="0"/>
		<edge from-layer="864" from-port="1" to-layer="865" to-port="1"/>
		<edge from-layer="865" from-port="2" to-layer="867" to-port="0"/>
		<edge from-layer="866" from-port="1" to-layer="867" to-port="1"/>
		<edge from-layer="867" from-port="2" to-layer="868" to-port="0"/>
		<edge from-layer="868" from-port="1" to-layer="870" to-port="0"/>
		<edge from-layer="869" from-port="1" to-layer="870" to-port="1"/>
		<edge from-layer="870" from-port="2" to-layer="872" to-port="0"/>
		<edge from-layer="871" from-port="1" to-layer="872" to-port="1"/>
		<edge from-layer="872" from-port="2" to-layer="874" to-port="0"/>
		<edge from-layer="873" from-port="1" to-layer="874" to-port="1"/>
		<edge from-layer="874" from-port="2" to-layer="875" to-port="0"/>
		<edge from-layer="875" from-port="1" to-layer="877" to-port="0"/>
		<edge from-layer="877" from-port="1" to-layer="878" to-port="0"/>
		<edge from-layer="878" from-port="1" to-layer="880" to-port="0"/>
		<edge from-layer="879" from-port="1" to-layer="880" to-port="1"/>
		<edge from-layer="876" from-port="1" to-layer="882" to-port="0"/>
		<edge from-layer="880" from-port="2" to-layer="882" to-port="1"/>
		<edge from-layer="881" from-port="1" to-layer="882" to-port="2"/>
		<edge from-layer="875" from-port="1" to-layer="883" to-port="0"/>
		<edge from-layer="882" from-port="3" to-layer="883" to-port="1"/>
		<edge from-layer="883" from-port="2" to-layer="885" to-port="0"/>
		<edge from-layer="884" from-port="1" to-layer="885" to-port="1"/>
		<edge from-layer="885" from-port="2" to-layer="887" to-port="0"/>
		<edge from-layer="886" from-port="1" to-layer="887" to-port="1"/>
		<edge from-layer="887" from-port="2" to-layer="888" to-port="0"/>
		<edge from-layer="888" from-port="1" to-layer="890" to-port="0"/>
		<edge from-layer="889" from-port="1" to-layer="890" to-port="1"/>
		<edge from-layer="890" from-port="2" to-layer="892" to-port="0"/>
		<edge from-layer="891" from-port="1" to-layer="892" to-port="1"/>
		<edge from-layer="892" from-port="2" to-layer="893" to-port="0"/>
		<edge from-layer="875" from-port="1" to-layer="894" to-port="0"/>
		<edge from-layer="893" from-port="1" to-layer="894" to-port="1"/>
		<edge from-layer="861" from-port="2" to-layer="895" to-port="0"/>
		<edge from-layer="894" from-port="2" to-layer="895" to-port="1"/>
		<edge from-layer="835" from-port="1" to-layer="897" to-port="0"/>
		<edge from-layer="896" from-port="1" to-layer="897" to-port="1"/>
		<edge from-layer="897" from-port="2" to-layer="899" to-port="0"/>
		<edge from-layer="898" from-port="1" to-layer="899" to-port="1"/>
		<edge from-layer="899" from-port="2" to-layer="901" to-port="0"/>
		<edge from-layer="900" from-port="1" to-layer="901" to-port="1"/>
		<edge from-layer="901" from-port="2" to-layer="902" to-port="0"/>
		<edge from-layer="902" from-port="1" to-layer="904" to-port="0"/>
		<edge from-layer="903" from-port="1" to-layer="904" to-port="1"/>
		<edge from-layer="904" from-port="2" to-layer="906" to-port="0"/>
		<edge from-layer="905" from-port="1" to-layer="906" to-port="1"/>
		<edge from-layer="906" from-port="2" to-layer="908" to-port="0"/>
		<edge from-layer="907" from-port="1" to-layer="908" to-port="1"/>
		<edge from-layer="908" from-port="2" to-layer="909" to-port="0"/>
		<edge from-layer="909" from-port="1" to-layer="911" to-port="0"/>
		<edge from-layer="910" from-port="1" to-layer="911" to-port="1"/>
		<edge from-layer="911" from-port="2" to-layer="913" to-port="0"/>
		<edge from-layer="912" from-port="1" to-layer="913" to-port="1"/>
		<edge from-layer="913" from-port="2" to-layer="915" to-port="0"/>
		<edge from-layer="914" from-port="1" to-layer="915" to-port="1"/>
		<edge from-layer="915" from-port="2" to-layer="916" to-port="0"/>
		<edge from-layer="916" from-port="1" to-layer="918" to-port="0"/>
		<edge from-layer="918" from-port="1" to-layer="919" to-port="0"/>
		<edge from-layer="919" from-port="1" to-layer="921" to-port="0"/>
		<edge from-layer="920" from-port="1" to-layer="921" to-port="1"/>
		<edge from-layer="917" from-port="1" to-layer="923" to-port="0"/>
		<edge from-layer="921" from-port="2" to-layer="923" to-port="1"/>
		<edge from-layer="922" from-port="1" to-layer="923" to-port="2"/>
		<edge from-layer="916" from-port="1" to-layer="924" to-port="0"/>
		<edge from-layer="923" from-port="3" to-layer="924" to-port="1"/>
		<edge from-layer="924" from-port="2" to-layer="926" to-port="0"/>
		<edge from-layer="925" from-port="1" to-layer="926" to-port="1"/>
		<edge from-layer="926" from-port="2" to-layer="928" to-port="0"/>
		<edge from-layer="927" from-port="1" to-layer="928" to-port="1"/>
		<edge from-layer="928" from-port="2" to-layer="929" to-port="0"/>
		<edge from-layer="929" from-port="1" to-layer="931" to-port="0"/>
		<edge from-layer="930" from-port="1" to-layer="931" to-port="1"/>
		<edge from-layer="931" from-port="2" to-layer="933" to-port="0"/>
		<edge from-layer="932" from-port="1" to-layer="933" to-port="1"/>
		<edge from-layer="933" from-port="2" to-layer="934" to-port="0"/>
		<edge from-layer="916" from-port="1" to-layer="935" to-port="0"/>
		<edge from-layer="934" from-port="1" to-layer="935" to-port="1"/>
		<edge from-layer="895" from-port="2" to-layer="936" to-port="0"/>
		<edge from-layer="935" from-port="2" to-layer="936" to-port="1"/>
		<edge from-layer="835" from-port="1" to-layer="938" to-port="0"/>
		<edge from-layer="937" from-port="1" to-layer="938" to-port="1"/>
		<edge from-layer="938" from-port="2" to-layer="940" to-port="0"/>
		<edge from-layer="939" from-port="1" to-layer="940" to-port="1"/>
		<edge from-layer="940" from-port="2" to-layer="942" to-port="0"/>
		<edge from-layer="941" from-port="1" to-layer="942" to-port="1"/>
		<edge from-layer="942" from-port="2" to-layer="943" to-port="0"/>
		<edge from-layer="943" from-port="1" to-layer="945" to-port="0"/>
		<edge from-layer="944" from-port="1" to-layer="945" to-port="1"/>
		<edge from-layer="945" from-port="2" to-layer="947" to-port="0"/>
		<edge from-layer="946" from-port="1" to-layer="947" to-port="1"/>
		<edge from-layer="947" from-port="2" to-layer="949" to-port="0"/>
		<edge from-layer="948" from-port="1" to-layer="949" to-port="1"/>
		<edge from-layer="949" from-port="2" to-layer="950" to-port="0"/>
		<edge from-layer="950" from-port="1" to-layer="952" to-port="0"/>
		<edge from-layer="951" from-port="1" to-layer="952" to-port="1"/>
		<edge from-layer="952" from-port="2" to-layer="954" to-port="0"/>
		<edge from-layer="953" from-port="1" to-layer="954" to-port="1"/>
		<edge from-layer="954" from-port="2" to-layer="956" to-port="0"/>
		<edge from-layer="955" from-port="1" to-layer="956" to-port="1"/>
		<edge from-layer="956" from-port="2" to-layer="957" to-port="0"/>
		<edge from-layer="957" from-port="1" to-layer="959" to-port="0"/>
		<edge from-layer="958" from-port="1" to-layer="959" to-port="1"/>
		<edge from-layer="959" from-port="2" to-layer="961" to-port="0"/>
		<edge from-layer="960" from-port="1" to-layer="961" to-port="1"/>
		<edge from-layer="961" from-port="2" to-layer="963" to-port="0"/>
		<edge from-layer="962" from-port="1" to-layer="963" to-port="1"/>
		<edge from-layer="963" from-port="2" to-layer="964" to-port="0"/>
		<edge from-layer="964" from-port="1" to-layer="966" to-port="0"/>
		<edge from-layer="966" from-port="1" to-layer="967" to-port="0"/>
		<edge from-layer="967" from-port="1" to-layer="969" to-port="0"/>
		<edge from-layer="968" from-port="1" to-layer="969" to-port="1"/>
		<edge from-layer="965" from-port="1" to-layer="971" to-port="0"/>
		<edge from-layer="969" from-port="2" to-layer="971" to-port="1"/>
		<edge from-layer="970" from-port="1" to-layer="971" to-port="2"/>
		<edge from-layer="964" from-port="1" to-layer="972" to-port="0"/>
		<edge from-layer="971" from-port="3" to-layer="972" to-port="1"/>
		<edge from-layer="972" from-port="2" to-layer="974" to-port="0"/>
		<edge from-layer="973" from-port="1" to-layer="974" to-port="1"/>
		<edge from-layer="974" from-port="2" to-layer="976" to-port="0"/>
		<edge from-layer="975" from-port="1" to-layer="976" to-port="1"/>
		<edge from-layer="976" from-port="2" to-layer="977" to-port="0"/>
		<edge from-layer="977" from-port="1" to-layer="979" to-port="0"/>
		<edge from-layer="978" from-port="1" to-layer="979" to-port="1"/>
		<edge from-layer="979" from-port="2" to-layer="981" to-port="0"/>
		<edge from-layer="980" from-port="1" to-layer="981" to-port="1"/>
		<edge from-layer="981" from-port="2" to-layer="982" to-port="0"/>
		<edge from-layer="964" from-port="1" to-layer="983" to-port="0"/>
		<edge from-layer="982" from-port="1" to-layer="983" to-port="1"/>
		<edge from-layer="936" from-port="2" to-layer="984" to-port="0"/>
		<edge from-layer="983" from-port="2" to-layer="984" to-port="1"/>
		<edge from-layer="984" from-port="2" to-layer="986" to-port="0"/>
		<edge from-layer="985" from-port="1" to-layer="986" to-port="1"/>
		<edge from-layer="986" from-port="2" to-layer="988" to-port="0"/>
		<edge from-layer="987" from-port="1" to-layer="988" to-port="1"/>
		<edge from-layer="988" from-port="2" to-layer="989" to-port="0"/>
		<edge from-layer="830" from-port="1" to-layer="989" to-port="1"/>
		<edge from-layer="989" from-port="2" to-layer="990" to-port="0"/>
		<edge from-layer="990" from-port="1" to-layer="992" to-port="0"/>
		<edge from-layer="991" from-port="1" to-layer="992" to-port="1"/>
		<edge from-layer="992" from-port="2" to-layer="994" to-port="0"/>
		<edge from-layer="993" from-port="1" to-layer="994" to-port="1"/>
		<edge from-layer="994" from-port="2" to-layer="995" to-port="0"/>
		<edge from-layer="995" from-port="1" to-layer="997" to-port="0"/>
		<edge from-layer="997" from-port="1" to-layer="998" to-port="0"/>
		<edge from-layer="998" from-port="1" to-layer="1000" to-port="0"/>
		<edge from-layer="999" from-port="1" to-layer="1000" to-port="1"/>
		<edge from-layer="996" from-port="1" to-layer="1002" to-port="0"/>
		<edge from-layer="1000" from-port="2" to-layer="1002" to-port="1"/>
		<edge from-layer="1001" from-port="1" to-layer="1002" to-port="2"/>
		<edge from-layer="995" from-port="1" to-layer="1003" to-port="0"/>
		<edge from-layer="1002" from-port="3" to-layer="1003" to-port="1"/>
		<edge from-layer="1003" from-port="2" to-layer="1004" to-port="0"/>
		<edge from-layer="1004" from-port="1" to-layer="1007" to-port="0"/>
		<edge from-layer="1005" from-port="1" to-layer="1007" to-port="1"/>
		<edge from-layer="1006" from-port="1" to-layer="1007" to-port="2"/>
		<edge from-layer="1007" from-port="3" to-layer="1009" to-port="0"/>
		<edge from-layer="1008" from-port="1" to-layer="1009" to-port="1"/>
		<edge from-layer="1009" from-port="2" to-layer="1011" to-port="0"/>
		<edge from-layer="1010" from-port="1" to-layer="1011" to-port="1"/>
		<edge from-layer="1003" from-port="2" to-layer="1012" to-port="0"/>
		<edge from-layer="1011" from-port="2" to-layer="1012" to-port="1"/>
		<edge from-layer="1012" from-port="2" to-layer="1014" to-port="0"/>
		<edge from-layer="1013" from-port="1" to-layer="1014" to-port="1"/>
		<edge from-layer="1014" from-port="2" to-layer="1016" to-port="0"/>
		<edge from-layer="1015" from-port="1" to-layer="1016" to-port="1"/>
		<edge from-layer="1016" from-port="2" to-layer="1017" to-port="0"/>
		<edge from-layer="1017" from-port="1" to-layer="1018" to-port="0"/>
	</edges>
	<meta_data>
		<MO_version value="2021.2.0-1877-176bdf51370-releases/2021/2"/>
		<cli_parameters>
			<caffe_parser_path value="DIR"/>
			<data_type value="FP16"/>
			<disable_nhwc_to_nchw value="False"/>
			<disable_omitting_optional value="False"/>
			<disable_resnet_optimization value="False"/>
			<disable_weights_compression value="False"/>
			<enable_concat_optimization value="False"/>
			<enable_flattening_nested_params value="False"/>
			<enable_ssd_gluoncv value="False"/>
			<extensions value="DIR"/>
			<framework value="onnx"/>
			<freeze_placeholder_with_value value="{}"/>
			<generate_deprecated_IR_V7 value="False"/>
			<input_model value="DIR/osnet_x1_0_op10.onnx"/>
			<input_model_is_text value="False"/>
			<k value="DIR/CustomLayersMapping.xml"/>
			<keep_shape_ops value="True"/>
			<legacy_mxnet_model value="False"/>
			<log_level value="ERROR"/>
			<mean_scale_values value="{}"/>
			<mean_values value="()"/>
			<model_name value="osnet_x1_0_fp16"/>
			<output_dir value="DIR"/>
			<placeholder_data_types value="{}"/>
			<progress value="False"/>
			<remove_memory value="False"/>
			<remove_output_softmax value="False"/>
			<reverse_input_channels value="False"/>
			<save_params_from_nd value="False"/>
			<scale_values value="()"/>
			<silent value="False"/>
			<static_shape value="False"/>
			<stream_output value="False"/>
			<unset unset_cli_parameters="batch, counts, disable_fusing, disable_gfusing, finegrain_fusing, input, input_checkpoint, input_meta_graph, input_proto, input_shape, input_symbol, mean_file, mean_file_offsets, move_to_preprocess, nd_prefix_name, output, placeholder_shapes, pretrained_model_name, saved_model_dir, saved_model_tags, scale, tensorboard_logdir, tensorflow_custom_layer_libraries, tensorflow_custom_operations_config_update, tensorflow_object_detection_api_pipeline_config, tensorflow_use_custom_operations_config, transformations_config"/>
		</cli_parameters>
	</meta_data>
</net>
